邓新宇/week02/model.bin (torch, 1612 bytes, 2 tensors)

linear.weight f4 [5, 5]
0	0x417f1058	15.94149
1	0xc0c8b8f7	-6.2725787
2	0xc0c67ed5	-6.2029824
3	0xc0cd9507	-6.424442
4	0xc0c7766e	-6.2332067
5	0xc0b87f57	-5.7655444
6	0x4179a450	15.602615
7	0xc0cdf428	-6.436054
8	0xc0cb5e4f	-6.3552623
9	0xc0c35e6b	-6.1052756
10	0xc0bf9709	-5.987187
11	0xc0d1e7de	-6.559554
12	0x41779866	15.474707
13	0xc0d404d8	-6.6255913
14	0xc0c6a40e	-6.207526
15	0xc0bd89ba	-5.9230623
16	0xc0c9b8a8	-6.303791
17	0xc0c9b341	-6.3031316
18	0x41800f8c	16.007591
19	0xc0bdb39e	-5.928176
20	0xc0c3a3ba	-6.113736
21	0xc0cab247	-6.3342624
22	0xc0cbfedb	-6.3748603
23	0xc0c84bbc	-6.259245
24	0x4181ceea	16.226032

linear.bias f4 [5]
0	0xbd646d6e	-0.055768423
1	0x3e2e3d60	0.170156
2	0x3ea913b7	0.33022854
3	0xbe878878	-0.26471305
4	0xbe0dc866	-0.13845977
