胡庆妙/week13/output/ner_LoRA.pth (torch, 950513 bytes, 28 tensors)

base_model.model.bert.encoder.layer.0.attention.self.query.lora_A.default.weight f4 [8, 768]
0.0013152052 0.02164892 0.00163304 0.03418626 -0.045099646 -0.04802812 -0.007111844 0.02982672
0.016049784 -0.029360935 -0.060113873 0.034087505 0.046730507 0.028381974 -0.0015873612 0.019516082
0.06765455 0.0059334636 0.015193494 0.01625083 -0.00412261 -0.025669478 0.069456406 0.018176168
-0.051413473 0.020853544 0.06297792 -0.03703227 -0.011818134 -0.12580249 0.04572291 -0.012891821
0.04986254 0.02773612 -0.030142417 -0.040616646 -0.025156869 -0.022716409 -0.01792896 -0.052527238
0.030821238 0.071074724 0.012764617 -0.0060686516 0.07324123 -0.06051111 0.1105795 -0.021151138
0.03586058 0.00857328 -0.0027619067 0.072555564 0.0060474672 0.015205142 -0.010740929 -0.0073294593
-0.03571564 -0.02623082 -0.030505933 -0.030855848 -0.020423535 0.02489234 0.01203906 0.0067863213
0.037144575 0.10496086 0.011358435 0.02654425 0.045675337 0.024168652 0.023157163 0.05505063
0.01788269 -0.015751522 0.0052951677 0.006006042 -0.0011635018 0.036858793 -0.05857066 -0.020149378
0.013046152 -0.047095373 0.043144137 0.0083322935 0.047163688 -0.07435634 0.025904018 -0.0995294
-0.009695914 0.04723348 -0.00085620757 -0.0861822 -0.021878812 -0.038406383 -0.022133216 0.061781093
-0.013066663 -0.03158383 0.016140984 -0.057712954 -0.05982276 0.040721707 -0.0014126968 -0.056199543
0.020684203 -0.006428954 -0.058072995 -0.0015372674 -0.02295877 0.047698945 -0.022242272 0.005918457
0.080475375 0.00504521 0.014953179 0.015454921 0.005053746 -0.06884057 -0.017743235 -0.0016221465
0.020002702 -0.05345898 -0.022628358 0.014242874 -0.021473657 0.012874787 -0.05710594 -0.04044062
-0.03758024 -0.030436356 0.05042127 0.03510778 0.035936207 -0.05413863 -0.018875554 -0.008200382
-0.012486321 0.014059947 0.028009852 0.02107314 -0.0040430063 0.017721461 -0.0040984848 0.034545798
0.0019757873 -0.06390611 0.043444507 -0.023653127 0.02101496 -0.01793122 -0.027263269 0.06134587
0.02106308 0.045951102 -0.041594803 0.0043484685 -0.018180497 -0.051575545 0.043504357 0.009825398
0.0014089551 -0.009503672 -0.0667274 0.06517652 0.070507444 0.05281948 -0.08597676 0.06527427
-0.032380387 -0.029092094 -0.009303551 0.010371917 0.0378663 0.012057146 0.03519483 0.035201974
-0.01182807 -0.012363157 0.005607013 0.049841113 0.05241609 0.029533897 -0.003751004 -0.10157433
0.014444529 0.063150264 0.01917859 0.049077023 0.007766651 0.03047304 -0.034725472 -0.009545184
-0.115215704 0.008292012 0.015503475 0.08421691 0.012342159 -0.03431101 0.023131656 0.007850157
-0.070398286 -0.0071981144 0.034530457 0.009120755 -0.03550749 0.08207376 -0.010969617 -0.016329432
-0.017239902 0.0057594837 0.016816605 0.029061163 -0.052463505 0.021985201 -0.02467485 -0.025386838
-0.044953458 -0.030687634 0.030676372 -0.03833859 0.04553909 0.06618513 0.0018005893 0.015205848
-0.006698635 0.027766513 0.061450366 -0.018517314 0.0030311737 -0.09501255 -0.058426376 0.030077504
0.052335676 0.015792152 -0.017048411 -0.08695908 0.048526153 0.086192355 -0.024765233 -0.0012704713
-0.0063442322 -0.0062666484 0.011517324 0.04974926 -0.0046554804 0.054914605 -0.0011898914 0.02387602
-0.027739316 0.009872282 -0.043719288 0.01997514 -0.06387844 -0.06596296 0.017857157 -0.034097306
00000000: f762 ac3a 1359 b13c bb0b d63a e406 0c3d
00000010: 68ba 38bd 22b9 44bd 790a e9bb 2a57 f43c
00000020: d67a 833c 5886 f0bc f739 76bd 579f 0b3d
00000030: 7d68 3f3d 5081 e83c 010f d0ba 31e0 9f3c
00000040: 788e 8a3d 806d c23b 22ee 783c 7620 853c
00000050: f616 87bb cc48 d2bc 293f 8e3d 30e6 943c
00000060: ef96 52bd 0dd5 aa3c 91fa 803d 26af 17bd
00000070: d9a0 41bc 5ed2 00be f247 3b3d 3738 53bc
00000080: aa3c 4c3d dc36 e33c 3bed f6bc a45d 26bd
00000090: c715 cebc c317 babc c1df 92bc cd26 57bd
000000a0: d27c fc3c a08f 913d af22 513c 8adb c6bb
000000b0: 7fff 953d 7fda 77bd 8177 e23d 2745 adbc
000000c0: 8be2 123d f176 0c3c 1b01 35bb 0398 943d
000000d0: d529 c63b fd1e 793c b9fa 2fbc f62b f0bb
000000e0: 904a 12bd 04e2 d6bc 94e7 f9bc 67c5 fcbc
000000f0: 424f a7bc 05eb cb3c 7a3f 453c ca5f de3b
00000100: e924 183d b8f5 d63d bb18 3a3c 5473 d93c
00000110: 1016 3b3d 56fd c53c 17b4 bd3c c57c 613d
00000120: b87e 923c 5609 81bc 1683 ad3b 55ce c43b
00000130: a480 98ba 3ff9 163d cae7 6fbd 4f10 a5bc
00000140: 87bf 553c 14e7 40bd e8b7 303d 2c84 083c
00000150: b62e 413d 2348 98bd aa34 d43c 12d6 cbbd
00000160: 9cdb 1ebc e577 413d 1e73 60ba 4b80 b0bd
00000170: 323b b3bc 0350 1dbd b850 b5bc 2c0e 7d3d
00000180: 8f15 56bc 0c5e 01bd 193a 843c 6b64 6cbd
00000190: b608 75bd cecb 263d 3d2a b9ba 7e31 66bd
000001a0: eb71 a93c faa9 d2bb f3dd 6dbd 227e c9ba
000001b0: 0814 bcbc f85f 433d 6d35 b6bc 9eef c13b
000001c0: 46d0 a43d 4a52 a53b 2efe 743c a336 7d3c
000001d0: e599 a53b 49fc 8cbd 435a 91bc 349e d4ba
000001e0: b5dc a33c cef7 5abd 1b5f b9bc f25a 693c
000001f0: 86e9 afbc c5f0 523c ebe7 69bd 10a5 25bd
00000200: bded 19bd aa55 f9bc 8986 4e3d 2dcd 0f3d
00000210: d831 133d 78c0 5dbd e8a0 9abc e55a 06bc
00000220: 6d93 4cbc b15b 663c eb74 e53c 94a1 ac3c
00000230: 327b 84bb 992c 913c 954c 86bb e57f 0d3d
00000240: 367c 013b 35e1 82bd def2 313d 34c4 c1bc
00000250: 9127 ac3c 7ee4 92bc 3857 dfbc cf45 7b3d
00000260: 7b8c ac3c 3937 3c3d 505f 2abd 997d 8e3b
00000270: 44ef 94bc e140 53bd a031 323d b5fa 203c
00000280: b0ac b83a 4ab5 1bbc 60a8 88bd 447b 853d
00000290: 3566 903d 3d59 583d 9514 b0bd 84ae 853d
000002a0: 4ca1 04bd 8b52 eebc ec6d 18bc f9ee 293c
000002b0: b219 1b3d 568b 453c 7428 103d f22f 103d
000002c0: 85ca 41bc d78e 4abc 09bb b73b 3226 4c3d
000002d0: 41b2 563d 12f1 f13c 68d3 75bb 3406 d0bd
000002e0: bfa8 6c3c ed54 813d 6b1c 9d3c fd04 493d
000002f0: 647f fe3b 99a2 f93c 4c3c 0ebd 6763 1cbc
00000300: 36f6 ebbd 38db 073c 4a02 7e3c ea79 ac3d
00000310: c436 4a3c b489 0cbd 997e bd3c f29d 003c
00000320: fa2c 90bd 29de ebbb cf6f 0d3d 386f 153c
00000330: 4d70 11bd 4a16 a83d e9b9 33bc 4dc5 85bc
00000340: b23a 8dbc 0dba bc3b fac2 893c ad11 ee3c
00000350: f9e3 56bd 4f1a b43c e922 cabc 0ff8 cfbc
00000360: 1e21 38bd a264 fbbc 044d fb3c ed08 1dbd
00000370: 3287 3a3d 128c 873d c001 ec3a f321 793c
00000380: 3980 dbbb 9976 e33c 61b3 7b3d 9fb1 97bc
00000390: a8a6 463b f195 c2bd 7f50 6fbd 1965 f63c
000003a0: ef5d 563d 8b5e 813c 1ca9 8bbc 9a17 b2bd
000003b0: 5cc3 463d 9e85 b03d 75e0 cabc f185 a6ba
000003c0: 47e3 cfbb 7558 cdbb 28b3 3c3c e1c5 4b3d
000003d0: 008d 98bb 23ee 603d 21f6 9bba a597 c33c
000003e0: 903d e3bc 5abf 213c ff12 33bd e8a2 a33c
000003f0: b3d2 82bd 9717 87bd 2c49 923c 9ea9 0bbd

base_model.model.bert.encoder.layer.0.attention.self.query.lora_B.default.weight f4 [768, 8]
-0.0013184943 0.02369827 -0.027420959 0.04090321 -0.008924854 -0.005625102 0.018965129 0.058882363
0.026765944 0.030573882 -0.012872563 0.028831262 0.008547587 -0.026979068 -0.0021023022 -0.0071658157
0.016965447 0.021304218 0.019918751 0.053749144 -0.02797643 -0.05520926 0.033804856 0.100681186
0.049309928 0.03466842 0.022738758 -0.018735023 -0.043775402 0.01201909 0.0049252077 -0.0058559417
0.029425664 0.011062145 0.019346861 -0.016917283 0.03766713 0.032682583 -0.033686694 -0.014900543
-0.03367836 -0.02738135 0.0037070962 -0.02784182 0.008415521 -0.03556658 0.0065875566 0.02375847
-0.04613712 0.013063529 0.0009715855 0.0014612988 0.042273626 0.021291176 -0.039225176 -0.018659243
-0.020450728 -0.022165492 0.030059496 -0.007001828 -0.010330758 -0.020237053 0.007875058 -0.060877398
0.023700494 -0.03238642 0.008268842 -0.03635723 -0.00026404657 0.06166078 0.0024276914 -0.013822126
0.009997018 0.028028753 -0.009489859 0.013329199 0.016750086 -0.045779712 0.027397787 -0.018011454
0.013840779 -0.008503082 0.051538166 -0.002373742 -0.029377127 -0.015930047 0.036017597 -0.0428907
-0.059440468 0.05924518 -0.025818232 0.008546463 -0.0077798995 -0.031781204 0.036060788 0.058127344
0.016166411 -0.014664356 0.007631939 -0.025637908 0.0030127156 0.026606007 -0.006492626 -0.0067216842
-0.007768014 -0.035245493 -0.016147528 -0.005932589 0.028383696 -0.013183404 0.029101305 -0.029282646
-0.0037700026 -0.015641997 0.02577683 -0.023303594 -0.035306286 -0.013288865 0.0504978 -0.008724776
-0.048769884 -0.0058340165 -0.051683657 -0.009533011 0.011767468 0.035409298 -0.03814248 -0.04704632
0.010132078 0.047753524 0.006196666 0.021148054 -9.530418e-05 -0.05369571 0.004952798 0.04726718
-0.012263046 -0.006466099 0.0511493 -0.0071222754 -0.025729055 -0.0005612954 -0.031780902 -0.034265146
0.01473918 0.016593173 0.019661687 0.049857054 -0.014994538 -0.021916246 0.047906373 -0.0030032338
-0.03289715 -0.013751376 -0.02180305 0.033799566 0.009918868 0.019364204 -0.0019778982 -0.00019125639
0.011576833 -0.048540235 -0.005387276 -0.011853553 0.007341483 0.029575257 -0.006948912 -0.045558285
0.030750506 -0.04755911 0.017133808 -0.025934363 -0.016027885 -0.0022928955 0.00708012 0.056348298
0.009708862 0.022861365 -0.027342185 0.04999149 0.02023269 -0.018415915 0.0058799703 0.004754704
-0.00056885765 0.0140010975 -0.018072482 0.06169658 0.042847276 -0.021935549 0.028469853 0.019314392
-0.02241431 -0.0016260827 0.03233087 -0.044870272 0.0038878722 0.043641686 -0.045978546 0.0058038197
0.035373893 0.037307173 -0.042103156 0.00881295 0.028337892 0.038688548 -0.07738673 -0.030854894
-0.030845478 0.02455566 -0.009245949 0.02097351 0.001994755 -0.014659631 0.07281156 0.02859037
0.018996436 0.022938512 -0.0005709665 0.020894831 0.014841353 -0.008478783 -0.02836619 0.054613348
-0.04686272 -0.0038599458 0.0047517987 -0.004021403 0.0115590785 -0.024666905 0.011911679 0.0143833645
0.0026905816 0.0017936372 0.008256738 -0.014740677 -0.036919802 -0.011103344 0.008986448 0.07990747
-0.004679987 0.023076111 0.016284011 0.037307136 -0.013687547 -0.022553967 -0.010796172 -0.01548228
-0.0044208127 -0.0114760185 -0.014395889 -0.031970114 -0.0043529603 0.030202692 0.00867656 0.035445683
00000000: 54d1 acba e022 c23c eba1 e0bc 208a 273d
00000010: 8d39 12bc c752 b8bb c25c 9b3c a22e 713d
00000020: 4144 db3c 1476 fa3c 71e7 52bc 8a2f ec3c
00000030: 2e0b 0c3c 3503 ddbc c7c6 09bb 38cf eabb
00000040: 1ffb 8a3c 2f86 ae3c a62c a33c 1028 5c3d
00000050: d32e e5bc 1b23 62bd f676 0a3d f031 ce3d
00000060: 35f9 493d 7900 0e3d a246 ba3c 317a 99bc
00000070: d64d 33bd b8eb 443c a363 a13b 33e3 bfbb
00000080: 170e f13c 003e 353c 4f7d 9e3c 1d96 8abc
00000090: d948 1a3d 2cde 053d 0ffb 09bd 6821 74bc
000000a0: 52f2 09bd da4e e0bc c1f2 723b 8714 e4bc
000000b0: 41e1 093c 43ae 11bd 6edc d73b 1fa1 c23c
000000c0: 47fa 3cbd 6908 563c 00b2 7e3a 0d89 bf3a
000000d0: 1c27 2d3d d56a ae3c 94aa 20bd 45db 98bc
000000e0: 4988 a7bc 6894 b5bc 553f f63c 976f e5bb
000000f0: 5742 29bc 2dc8 a5bc 6306 013c 945a 79bd
00000100: 8a27 c23c 9fa7 04bd 097a 073c 52eb 14bd
00000110: bb6f 8ab9 0490 7c3d e719 1f3b 3376 62bc
00000120: 88ca 233c 8e9c e53c 5b7b 1bbc b662 5a3c
00000130: 7a37 893c 8283 3bbd 5371 e03c c28c 93bc
00000140: 6fc4 623c 8350 0bbc af19 533d c890 1bbb
00000150: 4da8 f0bc bb7f 82bc 3087 133d 29ae 2fbd
00000160: d977 73bd 13ab 723d c280 d3bc 7706 0c3c
00000170: 87ee febb 022d 02bd 7ab4 133d f016 6e3d
00000180: 6c6f 843c c442 70bc 5815 fa3b 9706 d2bc
00000190: fb70 453b d7f4 d93c 18c0 d4bb 9341 dcbb
000001a0: d38a febb 945d 10bd d247 84bc 2a66 c2bb
000001b0: ed84 e83c 34ff 57bc dc65 ee3c 29e2 efbc
000001c0: 2612 77bb a523 80bc ee29 d33c 2ee7 bebc
000001d0: 539d 10bd 8ab9 59bc c8d6 4e3d 5df2 0ebc
000001e0: eec2 47bd 472b bfbb 3eb2 53bd 5930 1cbc
000001f0: 57cc 403c 5709 113d 4a3b 1cbd a4b3 40bd
00000200: 0401 263c 3399 433d 670d cb3b af3e ad3c
00000210: 0bde c7b8 08f0 5bbd 154b a23b 3b9b 413d
00000220: f1ea 48bc 92e1 d3bb ee81 513d fa61 e9bb
00000230: bdc5 d2bc e623 13ba b12c 02bd 9c59 0cbd
00000240: 9a7c 713c 68ee 873c 8c11 a13c e936 4c3d
00000250: a7ab 75bc b389 b3bc 7939 443d e7d1 44bb
00000260: 29bf 06bd 744d 61bc 4f9c b2bc 6a71 0a3d
00000270: bf82 223c aea1 9e3c a09f 01bb ff8b 48b9
00000280: c2ac 3d3c 20d2 46bd bf87 b0bb 6835 42bc
00000290: d390 f03b cf47 f23c b3b3 e3bb 539b 3abd
000002a0: 7ce8 fb3c 57cd 42bd 335c 8c3c 4d74 d4bc
000002b0: e94c 83bc 6744 16bb 5a00 e83b 79cd 663d
000002c0: eb11 1f3c c247 bb3c b8fc dfbc e0c3 4c3d
000002d0: 07bf a53c f9dc 96bc c4ac c03b 59cd 9b3b
000002e0: 641f 15ba dc64 653c be0c 94bc 8eb5 7c3d
000002f0: a080 2f3d 2eb2 b3bc 9c39 e93c 3739 9e3c
00000300: 379e b7bc 4822 d5ba 606d 043d e4c9 37bd
00000310: accb 7e3b a0c1 323d 0054 3cbd f82d be3b
00000320: 37e4 103d 68cf 183d 5c74 2cbd 3164 103c
00000330: de24 e83c e277 1e3d ef7c 9ebd 67c3 fcbc
00000340: a8af fcbc f428 c93c 527c 17bc a3d0 ab3c
00000350: 6fba 023b f32e 70bc 3a1e 953d 5a36 ea3c
00000360: 6a9e 9b3c 8ce9 bb3c eaac 15ba a32b ab3c
00000370: 2529 733c 98ea 0abc 3660 e8bc 3fb2 5f3d
00000380: 20f3 3fbd 25f7 7cbb fab4 9b3b f9c5 83bb
00000390: 4a62 3d3c 4012 cabc 3429 433c 34a8 6b3c
000003a0: 7854 303b 7a18 eb3a 4547 073c e182 71bc
000003b0: 3839 17bd cdea 35bc e53b 133c 87a6 a33d
000003c0: 945a 99bb 1d0a bd3c 0c66 853c 5ecf 183d
000003d0: bc41 60bc 19c3 b8bc 6de2 30bc 64a9 7dbc
000003e0: 77dc 90bb e905 3cbc bcdc 6bbc 18f3 02bd
000003f0: 47a3 8ebb a36b f73c 2128 0e3c 7e2f 113d

base_model.model.bert.encoder.layer.0.attention.self.key.lora_A.default.weight f4 [8, 768]
0.074851185 0.008720238 -0.013666339 0.13876499 0.0015601241 0.046442576 -0.014496476 0.025680203
-0.019830879 -0.031324886 0.018911513 -0.0020134933 0.038756363 -0.049426224 -0.09930019 -0.001995378
0.020401523 0.06914622 -0.041819032 -0.020393712 0.004511437 0.017354148 0.045928624 -0.011538029
0.007627516 0.037371237 -0.008978012 0.04217891 -0.059374783 0.031787835 -0.040313274 0.013811677
0.032364443 0.010406055 -0.026606688 -0.035870798 0.027419308 0.0667152 -0.004745759 0.030194934
0.0823723 0.034530543 0.027753865 -0.011289115 -0.0778 -0.0067792926 0.040254157 0.023730291
-0.063976474 -0.08017997 0.00069156627 -0.027484875 -0.020239057 0.008642585 -0.0043041916 -0.029257983
0.015588128 0.03622869 0.016576305 0.031281944 -0.031233186 0.057655506 0.035578333 0.021053432
-0.000112074275 0.014084108 -0.053535804 -0.017087102 0.00014796923 -0.011027596 -0.0195714 0.020139992
0.0011017947 -0.011197787 -0.02918712 -0.036556773 -0.006989327 0.010120983 0.077373125 0.043535408
-0.04199796 -0.0350909 0.00078384974 -0.05710791 0.008013511 -0.02398538 -0.023119275 0.020540468
-0.029946161 -0.076318964 0.00022408906 0.011737438 0.03196842 0.024989014 -0.08140224 0.0010142969
0.054377764 0.016197609 -0.12967955 0.026058989 0.030226715 -0.042908587 -0.094740525 -0.042690273
-0.015706263 0.030368831 -0.021391643 0.03541778 0.03506147 0.016737875 0.037145656 -0.039922014
-0.04806716 -0.010360586 0.008314392 -0.0002963094 0.026992837 0.00013239997 -0.053887583 -0.030676207
-0.07558095 0.07157696 0.04004413 -0.06601692 -0.044668652 -0.01667537 -0.03838192 0.062693425
0.021857634 -0.045375038 0.032411613 0.054433376 0.04568969 0.09799924 0.041764747 0.07357574
-0.01561126 -0.0005071126 -0.049613196 -0.043176062 0.03737566 -0.0056003775 0.072778285 0.0051175184
0.04546299 -0.052335635 0.028145527 -0.0021391094 -0.02562953 -0.074604094 0.005857179 0.040377647
-0.037378155 -0.040325 -0.01318883 -0.07095537 -0.014986303 -0.03165593 0.015410533 -0.026839666
-0.034430943 0.004335519 0.039424185 0.051342025 -0.042887606 0.032381017 -0.009044198 -0.04664563
-0.004120688 -0.0069469837 -0.023638245 -0.031419672 0.012734981 0.06805031 -0.037836503 0.02567878
0.02835984 0.043888148 -0.000512969 0.07549309 0.00581227 -0.023545528 -0.004251593 0.018458903
-0.029734617 0.046239153 0.0063778367 -0.009440362 0.041115362 -0.04236039 0.019229492 0.006237048
0.020341132 -0.007479955 0.0053407154 0.018698404 -0.06681558 0.06035604 0.09739261 -0.022563126
0.013412402 -0.02572052 -0.023144456 -0.024622742 0.016916743 -0.009663813 -0.036678806 -0.0013540977
0.025631094 -0.042609002 -0.010378976 0.029573863 0.008074709 -0.027422894 -0.08510319 -0.014888217
0.01860297 -0.0037321022 0.040088803 0.08671244 -0.015835123 -0.014297114 0.017196953 -0.038097125
0.020049002 -0.030781923 -0.008991629 -0.040737603 0.044162706 0.048085153 0.017984888 0.017757295
-0.04702379 -0.02675959 -0.015175252 0.039680228 -0.007008739 -0.004492733 0.027018443 0.06262597
-0.056283794 0.037741262 0.014908628 -0.09326809 0.038937308 -0.0059205866 0.060137052 -0.04346548
-0.02578242 0.023341585 0.003813708 0.023849197 -0.023384627 -0.03151178 -0.08888517 0.036449514
00000000: 944b 993d 54df 0e3c c8e8 5fbc 6918 0e3e
00000010: 147d cc3a 923a 3e3d a182 6dbc 4a5f d23c
00000020: 5e74 a2bc 864e 00bd 51ec 9a3c d0f4 03bb
00000030: febe 1e3d 2773 4abd e65d cbbd e3c4 02bb
00000040: 1821 a73c 899c 8d3d 6f4a 2bbd b710 a7bc
00000050: add4 933b 492a 8e3c a71f 3c3d 000a 3dbc
00000060: 3ef0 f93b 9512 193d 8318 13bc cbc3 2c3d
00000070: f932 73bd f633 023d 881f 25bd 5f4a 623c
00000080: 9490 043d 287e 2a3c 45f6 d9bc 42ed 12bd
00000090: 759e e03c fba1 883d 5082 9bbb 5e5b f73c
000000a0: cfb2 a83d e66f 0d3d 135c e33c fbf5 38bc
000000b0: 9b55 9fbd d424 debb 8be1 243d 0766 c23c
000000c0: 1906 83bd 6535 a4bd 3a4a 353a f627 e1bc
000000d0: 61cc a5bc a199 0d3c 2d0a 8dbb 70ae efbc
000000e0: 5965 7f3c 8964 143d 08cb 873c 7f21 003d
000000f0: bddc ffbc 2e28 6c3d 96ba 113d 3f78 ac3c
00000100: 6b09 ebb8 08c1 663c 5c48 5bbd 40fa 8bbc
00000110: 3028 1b39 17ad 34bc 3354 a0bc a0fc a43c
00000120: 186a 903a ec76 37bc d419 efbc 8ebc 15bd
00000130: b906 e5bb 7bd2 253c cd75 9e3d 2f52 323d
00000140: 0e06 2cbd 7abb 0fbd 447b 4d3a fce9 69bd
00000150: 1a4b 033c fd7c c4bc a264 bdbc 7c44 a83c
00000160: a751 f5bc 1e4d 9cbd 73f9 6a39 624e 403c
00000170: 51f1 023d c3b5 cc3c 38b6 a6bd 28f2 843a
00000180: 38bb 5e3d d9b0 843c b7ca 04be a979 d53c
00000190: 049e f73c eac0 2fbd 5207 c2bd ffdb 2ebd
000001a0: 6caa 80bc 0ec8 f83c 873d afbc 3c12 113d
000001b0: 9e9c 0f3d de1d 893c 0b26 183d 4485 23bd
000001c0: 12e2 44bd 73bf 29bc 1639 083c f959 9bb9
000001d0: 1520 dd3c d9d4 0a39 3ab9 5cbd ab4c fbbc
000001e0: 2fca 9abd f196 923d 5005 243d e133 87bd
000001f0: 7af6 36bd c99a 88bc 5c36 1dbd 6965 803d
00000200: c80e b33c 2ddb 39bd 0ac2 043d 88f5 5e3d
00000210: 1d25 3b3d d3b3 c83d 8311 2b3d e1ae 963d
00000220: 5fc6 7fbc c0ef 04ba 3537 4bbd 62d9 30bd
00000230: 3817 193d 5f83 b7bb c80c 953d dbb0 a73b
00000240: 6637 3a3d e45d 56bd 7391 e63c 4d30 0cbb
00000250: 05f5 d1bc 08ca 98bd 94ed bf3b 0863 253d
00000260: d619 19bd d42b 25bd f615 58bc 0d51 91bd
00000270: 1c89 75bc a6a9 01bd 767c 7c3c dcde dbbc
00000280: 7607 0dbd f810 8e3b 417b 213d 044c 523d
00000290: eaaa 2fbd f5a1 043d 1e2e 14bc 7d0f 3fbd
000002a0: d606 87bb 86a3 e3bb fea4 c1bc eab1 00bd
000002b0: 62a6 503c f65d 8b3d 73fa 1abd 4e5c d23c
000002c0: e552 e83c 0fc4 333d c478 06ba 1f9c 9a3d
000002d0: db74 be3b 8de2 c0bc f250 8bbb 2037 973c
000002e0: 0396 f3bc 4465 3d3d 2cfd d03b c0ab 1abc
000002f0: 9568 283d 1782 2dbd 2b87 9d3c 2760 cc3b
00000300: 72a2 a63c 691a f5bb 2b01 af3b 652d 993c
00000310: 9bd6 88bd e537 773d c775 c73d 4ed6 b8bc
00000320: b1bf 5b3c d7b3 d2bc 7199 bdbc a2b5 c9bc
00000330: fb94 8a3c f854 1ebc 843c 16bd fb7b b1ba
00000340: 4df8 d13c c786 2ebd 950c 2abc e344 f23c
00000350: c94b 043c faa5 e0bc 954a aebd b5ed 73bc
00000360: 4165 983c 4996 74bb 2834 243d 4b96 b13d
00000370: a9b8 81bc 713e 6abc a0e0 8c3c bb0b 1cbd
00000380: ce3d a43c 5f2a fcbc a051 13bc 79dc 26bd
00000390: f4e3 343d f0f4 443d 0b55 933c bf77 913c
000003a0: 059c 40bd ed36 dbbc 9fa1 78bc bc87 223d
000003b0: 90a9 e5bb c737 93bb c855 dd3c 0b42 803d
000003c0: d689 66bd 9596 1a3d 5143 743c 5703 bfbd
000003d0: ba7c 1f3d 7b01 c2bb 4552 763d dc08 32bd
000003e0: a735 d3bc da36 bf3c 67ef 793b 645f c33c
000003f0: 1e91 bfbc 7f12 01bd 6e09 b6bd 164c 153d

base_model.model.bert.encoder.layer.0.attention.self.key.lora_B.default.weight f4 [768, 8]
-0.03848532 0.013164766 0.036600575 0.0065697967 0.02259119 -0.0027668418 0.0012881876 0.020659247
-0.038962625 -0.0038083948 -0.021669928 0.012156229 0.043483164 -0.02138547 0.029003393 -0.025589248
0.008780625 0.055260636 0.008753374 0.034585837 -0.0046983827 0.051609494 0.022014296 -0.01022022
0.0049556135 0.028320232 0.010695199 0.008113612 -0.033394717 -0.020585483 -0.052368585 -0.021220705
0.028476624 0.037842475 -0.015294041 -0.029953986 -0.007457369 0.0145025235 0.02855822 0.017841209
0.0049697044 0.025353853 0.026650954 -0.005743556 0.009443282 0.022965599 0.01898426 0.02349646
-0.017035397 -0.010849079 0.007249001 -0.00068024814 0.0074893124 -0.012756632 0.026921414 -0.01732117
0.0017587503 -0.013267316 0.0005794616 0.0014031857 0.021234691 -0.018087687 0.004320485 0.01778928
0.019178301 -0.010563628 -0.011411635 0.010256075 -0.005868451 0.023116795 -0.024403568 -0.010000502
0.004797532 -0.043121733 0.015587074 -0.011648194 0.031356294 0.024070308 0.045402247 0.0018766312
0.037314635 0.044126637 0.009544162 -0.024327597 0.011532212 0.026638286 -0.023960248 -0.01762081
0.014870551 0.027527332 0.027546033 -0.017922582 -0.014869899 0.007813704 0.0014627754 0.003912789
-0.024813257 -0.00083634583 -0.029058164 0.036438774 0.045352146 -0.04478634 -0.004135538 0.047707133
-0.0067650564 -0.08071974 -0.016202897 -0.0674238 0.06534166 0.0034457704 0.066425346 0.03438307
-0.00599936 0.026742348 -0.023689253 -0.043313883 -0.0076704137 0.037232038 0.010996609 0.018421572
-0.0030980208 0.05548122 -0.006051673 0.049929652 0.028134402 -0.0113655925 -0.031192878 -0.02377315
-0.07282876 -0.03757786 -0.025763713 0.0017122253 -0.009549391 0.009088255 0.06889611 -0.014591493
-0.001159123 -0.028110778 0.026102178 -0.038868885 -0.0070490744 -0.028088909 -0.01788119 0.016144482
-0.014199843 0.033771846 -0.014509818 0.009997956 -0.00036817268 0.016110115 0.007654683 0.017998615
0.018625906 0.07787128 -0.042282194 0.06050146 -0.0161472 0.00407024 -0.00046912508 -0.0007298762
0.042014007 -0.021993926 0.04007309 0.0010236186 0.03438939 0.015466613 -0.029057117 0.0013412565
0.025642365 -0.024421658 0.0147207845 -0.0036955974 -0.006913409 0.003937554 -0.0033064536 0.01546944
-0.020886365 0.000105057545 0.0964873 -0.011356484 -0.012937292 0.0060418798 0.0003564019 0.0063209897
0.032743562 -0.03260457 0.010086232 -0.03649214 -0.0033135465 0.04561773 0.04697332 0.045847554
0.0044593248 -0.006222325 0.018520935 0.044672083 -0.009480324 -0.028577555 0.008794533 0.041814987
0.007053105 -0.015925 0.06725776 -0.0010622345 0.046070863 -0.022390218 0.007549156 0.004631746
-0.036432635 0.004237288 -0.004070797 -0.040084735 0.031058598 -0.041470803 0.031302277 0.02418129
-0.038853474 0.021975722 -0.054327365 0.042672403 0.034118723 0.016300036 0.009321712 0.031351756
-0.05032796 0.0017895026 -0.028631752 0.008038514 0.027768664 0.04606215 0.026410516 -0.053989943
-0.012929223 -0.012568391 0.039478116 -0.060265847 -0.024487955 0.027743265 -0.038408216 0.0044592614
0.011452827 -0.058223166 -0.015092122 -0.046122957 0.008647543 0.03489957 0.026751017 0.023621092
0.009775103 0.037306182 -0.03319731 0.03820474 -0.002100459 -0.06379256 -0.0027376015 -0.008633339
00000000: c8a2 1dbd 08b1 573c 7cea 153d 7347 d73b
00000010: 2911 b93c e753 35bb 67d8 a83a 953d a93c
00000020: 4697 1fbd 4396 79bb 2285 b1bc eb2a 473c
00000030: 671b 323d 9530 afbc 8698 ed3c 8ba0 d1bc
00000040: 9cdc 0f3c fa58 623d 506a 0f3c e1a9 0d3d
00000050: e4f4 99bb 7a64 533d 5357 b43c b672 27bc
00000060: b362 a23b d5ff e73c ea3a 2f3c f5ee 043c
00000070: e6c8 08bd e3a2 a8bc 7180 56bd 0bd7 adbc
00000080: cf47 e93c b600 1b3d db93 7abc 1062 f5bc
00000090: f25c f4bb fe9b 6d3c eef2 e93c ba27 923c
000000a0: e7d8 a23b e2b2 cf3c 1a53 da3c 7134 bcbb
000000b0: ffb7 1a3c 5a22 bc3c e184 9b3c a67b c03c
000000c0: d18d 8bbc 56c0 31bc 0789 ed3b ae52 32ba
000000d0: e868 f53b 3101 51bc 4c8a dc3c 20e5 8dbc
000000e0: de85 e63a 285f 59bc 02e7 173a 19eb b73a
000000f0: 60f4 ad3c a12c 94bc db92 8d3b d3ba 913c
00000100: d01b 9d3c 1113 2dbc def7 3abc 1909 283c
00000110: 234c c0bb 6f5f bd3c fee9 c7bc 25d9 23bc
00000120: 9e34 9d3b 6aa0 30bd ed60 7f3c 11d8 3ebc
00000130: 756f 003d 182f c53c b5f7 393d 4bf9 f53a
00000140: 3bd7 183d 22be 343d 1e5f 1c3c ab4a c7bc
00000150: 9af1 3c3c 8938 da3c 4848 c4bc 8459 90bc
00000160: 9da3 733c 0081 e13c 38a8 e13c 61d2 92bc
00000170: e0a0 73bc 0d05 003c 99ba bf3a da36 803b
00000180: 2c45 cbbc 383e 5bba 630b eebc d340 153d
00000190: 2cc3 393d e271 37bd 6883 87bb 8e68 433d
000001a0: 68ad ddbb 6450 a5bd f0bb 84bc 7d15 8abd
000001b0: d9d1 853d 6fd2 613b 030a 883d 43d5 0c3d
000001c0: 4796 c4bb c512 db3c f70f c2bc e669 31bd
000001d0: 1858 fbbb 9f80 183d 1f2b 343c d6e8 963c
000001e0: 2a08 4bbb 4740 633d 1d4d c6bb 0983 4c3d
000001f0: 1e7a e63c c036 3abc 3588 ffbc e9bf c2bc
00000200: 3f27 95bd 3eeb 19bd 6c0e d3bc bf6c e03a
00000210: 0d75 1cbc e8e6 143c 6719 8d3d 2811 6fbc
00000220: b7ed 97ba 9348 e6bc 3cd4 d53c fb34 1fbd
00000230: ecfb e6bb b61a e6bc 937b 92bc 6f41 843c
00000240: 75a6 68bc 5954 0a3d 96ba 6dbc 78ce 233c
00000250: 4d07 c1b9 5cf9 833c 23d4 fa3b d571 933c
00000260: 5b95 983c fa7a 9f3d 1830 2dbd 61d0 773d
00000270: 2247 84bc a65f 853b e7f4 f5b9 2a55 3fba
00000280: e116 2c3d 9b2c b4bc ae23 243d f12a 863a
00000290: e4db 0c3d ad67 7d3c 3109 eebc 1acd af3a
000002a0: f00f d23c ee0f c8bc 722f 713c d631 72bb
000002b0: e189 e2bb 9906 813b 16b1 58bb 8973 7d3c
000002c0: e219 abbc 5752 dc38 229b c53d 8c10 3abc
000002d0: f0f6 53bc f6fa c53b 74db ba39 4e20 cf3b
000002e0: 1d1e 063d 5f8c 05bd b940 253c c878 15bd
000002f0: 1628 59bb a8d9 3a3d 1967 403d a5ca 3b3d
00000300: 871f 923b a5e4 cbbb 37b9 973c 13fa 363d
00000310: 5c53 1bbc 7a1b eabc f216 103c 3146 2b3d
00000320: bc1d e73b 2575 82bc 70be 893d ad3a 8bba
00000330: cdb4 3c3d b16b b7bc e95e f73b e7c5 973b
00000340: 633a 15bd f3d8 8a3b 5264 85bb e42f 24bd
00000350: 9a6e fe3c 4add 29bd d136 003d d717 c63c
00000360: d224 1fbd 6e06 b43c 5f86 5ebd 42c9 2e3d
00000370: 13c0 0b3d a787 853c 18ba 183c b36a 003d
00000380: b124 4ebd be8d ea3a 238d eabc f9b3 033c
00000390: 1c7b e33c aaab 3c3d de5a d83c 8f24 5dbd
000003a0: 17d5 53bc a7eb 4dbc ceb3 213d 52d9 76bd
000003b0: f79a c8bc d845 e33c ef51 1dbd ff1e 923b
000003c0: a3a4 3b3c 6a7b 6ebd f344 77bc 6deb 3cbd
000003d0: 6dae 0d3c daf2 0e3d f324 db3c 0581 c13c
000003e0: c127 203c 5ece 183d e7f9 07bd 937c 1c3d
000003f0: dba7 09bb aca5 82bd 5569 33bb d972 0dbc

base_model.model.bert.encoder.layer.0.attention.self.value.lora_A.default.weight f4 [8, 768]
-0.00046971103 -0.028335273 -0.03339697 -0.0046289 0.03593798 0.04303401 0.011652867 0.04099833
-0.0113189155 0.01555881 0.011003701 -0.015332213 -0.024079502 0.06979199 -0.03661195 -0.014672772
0.05074082 0.05201268 -0.064872414 -0.04463995 -0.0077669276 0.03600379 0.009627081 0.020301668
-0.018907512 0.0153736025 -0.02401798 -0.0017484785 -0.040680286 0.0068890206 -0.027227912 -0.045793552
0.028162545 -0.022721332 -0.019116672 0.02314141 0.0032402729 -0.028397594 -0.04828517 -0.019829903
0.041439917 -0.024402129 -0.016686684 -0.022745462 0.011370269 -0.012756365 0.050773177 -0.058127854
0.002091832 0.044127826 -0.0026248163 -0.016882425 -0.04262481 -0.008293604 -0.032639917 -0.015153735
-0.010401468 -0.030805396 -0.01720142 -0.026287304 0.05757838 -0.01372668 0.013910477 0.01858024
0.009909 0.0026484332 0.054623388 0.059980612 0.0446871 0.02237765 0.0036688691 -0.015897315
0.0018071501 -0.019761292 -0.010486775 -0.0468723 -0.00034864346 0.027266884 -0.014783766 0.00049568346
0.03928285 -0.003657868 0.004411479 -0.0056990637 -0.019900452 -0.026519658 0.015646007 -0.02295936
-0.011856498 -0.05179519 0.06877046 -0.012511026 0.020463817 -0.027626054 0.04130287 -0.0015097621
0.0028627473 0.00037904488 -0.030017417 -0.016938452 -0.019164942 0.00800131 0.02452113 0.009871891
0.0017071408 -0.007999386 0.017143782 0.00077730545 0.008469725 -0.05679592 -0.054782096 -0.0021865799
-0.021818755 -0.02909259 -0.010372109 -0.025428003 -0.007080339 -0.018233996 0.031019595 -0.030085359
0.061354686 0.06071322 -0.035581186 -0.0317984 -0.02291829 0.03864454 -0.03869655 0.004061252
0.016635269 -0.03157294 0.008846055 0.07893229 0.008175975 0.021428956 0.033060905 -0.019490108
-0.013733376 -0.025615856 -0.007110244 0.019629005 -0.020493096 -0.020361185 -0.06168344 0.015826447
-0.00027072427 0.03767476 -0.036718823 0.009231956 -0.027987897 0.04123032 -0.015516048 -0.03985412
0.0066524395 -0.042635206 -0.0039642816 -0.038546324 0.034117978 -0.045208 -0.0075601176 -0.040712256
0.010641466 -0.015660716 -0.03201324 -0.034305427 -0.010199836 -0.071204215 0.001615338 -0.018797256
-0.02633393 0.06570046 -0.010237592 -0.010351376 0.05544118 0.0194403 0.0051671662 0.002946799
-0.0543797 -0.012993626 0.027348071 -0.03236061 -0.023434037 0.01354961 -0.0716112 0.07164909
-0.031513903 -0.04909673 0.05284158 -0.014106931 -0.03348112 -0.012864853 -0.04588721 -0.0008294997
-0.0118896775 0.05503155 -0.032695647 -0.009239527 -0.014554719 0.01848761 0.023964958 -0.025055544
0.033801477 -0.050071616 0.024686156 -0.048748933 0.013154048 -0.005045443 0.06216319 0.04042311
0.005517745 0.049916852 0.008091947 0.0111706555 0.079382285 0.018578582 0.026256125 -0.040768083
0.0002979817 -0.006611551 0.030612713 0.009302718 -0.038173407 -0.013904595 -0.034821637 -0.018498916
-0.0048647937 -0.00833697 0.026846554 -0.08653828 0.0156272 0.02228143 -0.032089684 -0.056023687
0.00039506756 0.024831109 -0.010629258 -0.062345255 0.0021062992 0.02709288 0.025808476 0.022766046
-0.01114587 0.0035492007 0.014088061 0.014927294 0.030753924 0.028205689 -0.03530992 -0.01861037
0.017239597 9.358276e-05 0.034203444 -0.005970394 -0.01507554 0.027247466 0.017057976 0.009476586
00000000: 8c43 f6b9 601f e8bc 43cb 08bd 07ae 97bb
00000010: b433 133d 6e44 303d abeb 3e3c dded 273d
00000020: f972 39bc 61ea 7e3c de48 343c f633 7bbc
00000030: 6042 c5bc 1aef 8e3d 69f6 15bd 1166 70bc
00000040: 9bd5 4f3d 3f0b 553d d4db 84bd 61d8 36bd
00000050: b681 febb b678 133d e8ba 1d3c af4f a63c
00000060: ede3 9abc 90e1 7b3c 5bc1 c4bc 342d e5ba
00000070: 5fa0 26bd 4bbd e13b 120d dfbc 0592 3bbd
00000080: 23b5 e63c 1622 babc 919a 9cbc 0e93 bd3c
00000090: c25a 543b 12a2 e8bc acc6 45bd 5272 a2bc
000000a0: e7bc 293d f9e6 c7bc 83b2 88bc b154 babc
000000b0: 5d4a 3a3c 1300 51bc 89f7 4f3d 7917 6ebd
000000c0: 1e17 093b 61bf 343d 1c05 2cbb 034d 8abc
000000d0: 5a97 2ebd e5e1 07bc 6fb1 05bd 5f47 78bc
000000e0: eb6a 2abc 995b fcbc fee9 8cbc 7958 d7bc
000000f0: 4fd7 6b3d dee5 60bc c5e8 633c 9635 983c
00000100: 5c59 223c 5691 2d3b c6bc 5f3d 3bae 753d
00000110: d209 373d 5551 b73c 6971 703b 163b 82bc
00000120: e5dd ec3a 6fe2 a1bc b9d0 2bbc 2bfd 3fbd
00000130: 22ca b6b9 cd5e df3c 9c37 72bc c1f0 013a
00000140: 0ee7 203d d7b8 6fbb 2b8e 903b 36bf babb
00000150: 4606 a3bc c13f d9bc 0e2c 803c 4515 bcbc
00000160: c241 42bc 3127 54bd 87d7 8c3d 0cfb 4cbc
00000170: bca3 a73c 0950 e2bc 332d 293d 36e3 c5ba
00000180: ee9c 3b3b 8bba c639 16e7 f5bc 82c2 8abc
00000190: ccff 9cbc ed17 033c 89e0 c83c b6bd 213c
000001a0: 24c2 df3a db0f 03bc 1e71 8c3c 16c4 4b3a
000001b0: 9ac4 0a3c d7a2 68bd 3163 60bd b94c 0fbb
000001c0: 3fbd b2bc 9553 eebc c7ef 29bc 634e d0bc
000001d0: 3002 e8bb 765f 95bc ce1c fe3c 9275 f6bc
000001e0: 0d4f 7b3d 6dae 783d 94bd 11bd 0a3f 02bd
000001f0: 23bf bbbc bd49 1e3d 4680 1ebd 4014 853b
00000200: b046 883c a152 01bd 0bef 103c 41a7 a13d
00000210: 86f4 053c c78b af3c df6a 073d b8a9 9fbc
00000220: f401 61bc 58d8 d1bc 0dfd e8bb 02cd a03c
00000230: 23e1 a7bc 80cc a6bc c6a7 7cbd 77a6 813c
00000240: ffef 8db9 d950 1a3d 7a66 16bd a141 173c
00000250: e046 e5bc 20e1 283d 0637 7ebc 133e 23bd
00000260: b5fc d93b 41a2 2ebd cee6 81bb c0e2 1dbd
00000270: 4bbf 0b3d 062c 39bd ddba f7bb e5c1 26bd
00000280: 8b59 2e3c e74a 80bc 5120 03bd d983 0cbd
00000290: 371d 27bc 84d3 91bd c0b9 d33a b4fc 99bc
000002a0: 41ba d7bc f68d 863d 93bb 27bc d198 29bc
000002b0: 4a16 633d 4441 9f3c 5551 a93b 151f 413b
000002c0: 40bd 5ebd 38e3 54bc 1009 e03c 8f8c 04bd
000002d0: bdf8 bfbc 2fff 5d3c e5a8 92bd c2bc 923d
000002e0: b914 01bd a719 49bd 6a70 583d c220 67bc
000002f0: 8023 09bd 1bc7 52bc 3af4 3bbd c872 59ba
00000300: eccc 42bc c368 613d dfeb 05bd 6361 17bc
00000310: eb76 6ebc 5473 973c 2952 c43c 4941 cdbc
00000320: 6b73 0a3d e517 4dbd 9f3a ca3c f6ac 47bd
00000330: 1384 573c 3e54 a5bb d49e 7e3d b492 253d
00000340: 33ce b43b 9d75 4c3d 1694 043c 2005 373c
00000350: 2e93 a23d 1c32 983c 1617 d73c 6ffc 26bd
00000360: 6d3a 9c39 b6a5 d8bb 83c7 fa3c 6d6a 183c
00000370: b85b 1cbd 19d0 63bc 22a1 0ebd 0a8b 97bc
00000380: d968 9fbb c997 08bc 4eed db3c fb3a b1bd
00000390: 9d04 803c 8c87 b63c 7970 03bd 1879 65bd
000003a0: 1221 cf39 9c6a cb3c 5726 2ebc bd5d 7fbd
000003b0: d609 0a3b e3f1 dd3c 4c6c d33c dc7f ba3c
000003c0: 2b9d 36bc b599 683b 9cd1 663c 9c91 743c
000003d0: a7ef fb3c 9e0f e73c 22a1 10bd c674 98bc
000003e0: 0e3a 8d3c dd41 c438 e918 0c3d 4ba3 c3bb
000003f0: 66ff 76bc 1436 df3c 2bbd 8b3c af43 1b3c

base_model.model.bert.encoder.layer.0.attention.self.value.lora_B.default.weight f4 [768, 8]
-0.0416538 -0.0044924966 0.013251848 0.011067146 -0.014045538 0.00044816555 0.026964266 0.0062987534
0.028638754 -0.04282117 -0.01096112 -0.012934698 -0.010325279 -0.014795555 -0.014991555 0.002409465
0.029741257 -0.03337518 0.01367084 -0.008681505 0.011029153 0.019839253 -0.009292606 -0.02226541
0.024597969 0.056874275 -0.0029051155 0.013597614 0.0016919199 -0.029525205 -0.022028068 0.0017826449
0.0073579787 -0.01762208 -0.025270488 0.0026664096 -0.015549437 -0.014455232 -0.012954971 -0.008580122
0.0049953223 0.016979948 0.019507032 0.01159004 0.014416499 0.027540967 -0.005921719 0.01783345
-0.0017570446 0.0047923652 0.011828801 0.0060437648 0.0013896794 0.017475564 0.013772484 0.017443165
-0.0004069586 -0.0073696068 -0.040557604 0.0048321877 -0.034688577 -0.027832326 0.007953869 -0.042330395
0.0070961313 0.01581448 0.01128842 0.020122778 -0.004980374 -0.003236434 0.018708937 0.017404031
0.0228697 0.012534358 -0.024479901 -0.013429996 -0.0036442338 -0.024924688 -0.017037781 -0.007350894
-0.027776515 0.007865876 0.016044535 -0.005669422 0.001699696 -0.005585269 0.003392254 0.031348884
0.019265821 0.052089322 0.046406616 -0.046641484 0.023431685 -0.012845762 -0.04943877 0.039440352
0.0015836029 0.021351516 0.033822324 0.0043874714 0.005626629 0.04620948 0.00024859194 0.010087667
-0.0074701738 -0.0066429893 -0.01414093 -0.010788312 -0.00995916 -0.00360967 -0.0063587995 0.01545225
0.001614425 -0.0074021476 -0.014959635 0.006595641 -0.0046872557 0.01988427 0.010254434 0.02299094
-0.019470956 0.023281392 0.032551 0.010908217 0.017280161 -0.0072522955 -0.006186338 0.017679142
-0.00015443227 0.017823946 -0.021583345 -0.016617414 0.0070913536 0.0114769535 -0.0064593535 -0.00589897
0.007651866 -0.026199514 0.030322362 -0.017430166 0.0055324924 0.03391622 0.0014909749 0.019229623
-0.009170358 -0.03115964 -0.0117496075 -0.0042814477 -0.003333331 -0.016944306 0.00076779805 0.00837102
-0.022860972 -0.0036561766 -0.022086801 0.018294675 -0.038976263 -0.029672941 0.03440331 0.007063552
0.021748498 0.02095351 0.03449008 -0.010057998 0.019818407 0.031951535 0.0067452253 -0.017661227
0.009184339 0.021209136 0.042079557 -0.022560727 0.018018072 0.0009882078 0.0049957726 0.003393166
-0.0073521053 -0.010341925 0.0004136571 0.025409508 -0.014424409 0.0018544964 0.029787723 -0.011372551
-0.033944726 0.014357113 0.022859732 -0.02605166 0.0029751933 0.023578338 -0.013315915 -0.009648276
-0.0048770015 -0.0037642685 -0.0066023376 -0.0031848543 0.0041378452 -0.039469752 0.0048100343 -0.0030847983
-0.008648369 -0.005929193 0.009418568 0.0049701775 -0.00075651007 -0.013802796 0.008941648 0.0139383925
-0.003372516 -0.0051463475 -0.052502375 -0.0015057378 0.0010931176 0.030723482 0.035333987 -0.0078128455
-0.043549687 -0.00815099 0.026081115 -2.338156e-05 0.02348527 0.0319147 0.020973176 0.007327617
0.0053666877 0.015690565 0.005587838 -0.0011263681 -0.0058920686 -0.025129111 -0.01931686 0.008077884
0.022520525 0.009241771 0.014073201 -0.0051737935 0.0054535805 -0.01284212 -0.04522183 0.009277198
0.014708945 -0.028212609 -0.0056776134 -0.017192014 0.005013468 -0.002598513 -0.0010587949 0.024934081
-0.030113608 0.010907329 -0.011412041 0.015347851 0.007741183 0.011577924 0.008057293 0.011151477
00000000: 2d9d 2abd cb35 93bb 471e 593c fa52 353c
00000010: 421f 66bc c3f7 ea39 2ae4 dc3c c665 ce3b
00000020: d29b ea3c 4065 2fbd 4596 33bc 0eec 53bc
00000030: 5c2b 29bc 0e69 72bc 249f 75bc 1de8 1d3b
00000040: f0a3 f33c 6ab4 08bd a9fb 5f3c df3c 0ebc
00000050: 9fb3 343c ee85 a23c 0440 18bc f365 b6bc
00000060: ae81 c93c 00f5 683d c063 3ebb 87c8 5e3c
00000070: 69c3 dd3a d8de f1bc 3574 b4bc a3a7 e93a
00000080: 331b f13b 2e5c 90bc 0e04 cfbc eebe 2e3b
00000090: 11c3 7ebc a3d5 6cbc 1641 54bc a493 0cbc
000000a0: cdaf a33b 8819 8b3c 36cd 9f3c 27e4 3d3c
000000b0: 2e33 6c3c 989d e13c fb0a c2bb 7517 923c
000000c0: a24c e6ba 4609 9d3b 96cd 413c c60a c63b
000000d0: e725 b63a ea28 8f3c fca5 613c f8e4 8e3c
000000e0: 0f5d d5b9 be7c f1bb bb1f 26bd 5457 9e3b
000000f0: 9c15 0ebd 9e00 e4bc f250 023c a362 2dbd
00000100: aa86 e83b 5e8d 813c 11f3 383c 86d8 a43c
00000110: 6832 a3bb 5a1a 54bb 7c43 993c e692 8e3c
00000120: 3d59 bb3c e85c 4d3c 138a c8bc 7c09 5cbc
00000130: 19d4 6ebb dc2e ccbc d192 8bbc c5df f0bb
00000140: 938b e3bc e0df 003c d46f 833c 8fc6 b9bb
00000150: 55c8 de3a a204 b7bb 9450 5e3b b067 003d
00000160: 5bd3 9d3c 9d5b 553d dd14 3e3d 240b 3fbd
00000170: cef3 bf3c 0877 52bc 4f80 4abd 358c 213d
00000180: e590 cf3a 60e9 ae3c 4789 0a3d c7c4 8f3b
00000190: 965f b83b 2746 3d3d 7255 8239 be46 253c
000001a0: 5cc8 f4bb 6fad d9bb 5caf 67bc 76c1 30bc
000001b0: bf2b 23bc 3790 6cbb 7a5d d0bb 6f2b 7d3c
000001c0: 1d9b d33a b78d f2bb 4219 75bc 3f20 d83b
000001d0: 8d97 99bb 56e4 a23c 3702 283c 7f57 bc3c
000001e0: 8e81 9fbc 9eb8 be3c 3354 053d 61b8 323c
000001f0: 208f 8d3c aaa4 edbb c4b6 cabb d9d3 903c
00000200: 19ef 21b9 8603 923c 8ecf b0bc 3e21 88bc
00000210: 965e e83b d509 3c3c fca8 d3bb 264c c1bb
00000220: 81bc fa3b 5da0 d6bc 9a66 f83c b5c9 8ebc
00000230: e949 b53b bceb 0a3d d16c c33a 7187 9d3c
00000240: 453f 16bc 8042 ffbc 6d81 40bc 634b 8cbb
00000250: 0474 5abb c9ce 8abc 0e46 493a 9a26 093c
00000260: ef46 bbbc 779c 6fbb 61ef b4bc b7de 953c
00000270: 93a5 1fbd ab14 f3bc 7cea 0c3d 5e75 e73b
00000280: e829 b23c b2a6 ab3c 7845 0d3d 4dca 24bc
00000290: 365a a23c 9ddf 023d 0d07 dd3b 47ae 90bc
000002a0: e979 163c c8be ad3c 9d5b 2c3d 46d1 b8bc
000002b0: a39a 933c c086 813a 94b3 a33b e15f 5e3b
000002c0: eee9 f0bb 2d71 29bc 1ee0 d839 9a27 d03c
000002d0: 5b54 6cbc 9312 f33a 6205 f43c f053 3abc
000002e0: a009 0bbd 193a 6b3c 5544 bb3c 4a6a d5bc
000002f0: 76fb 423b 5c27 c13c ff2a 5abc cd13 1ebc
00000300: 41cf 9fbb f2b1 76bb 6c58 d8bb fdb8 50bb
00000310: c396 873b 09ab 21bd 7e9d 9d3b 542a 4abb
00000320: e4b1 0dbc ad49 c2bb 5650 1a3c dfdc a23b
00000330: 8850 46ba 1f25 62bc fd7f 123c db5d 643c
00000340: 6e05 5dbb b1a2 a8bb bb0c 57bd 2d5c c5ba
00000350: f146 8f3a d0af fb3c 5fba 103d 7301 00bc
00000360: 2861 32bd bb8b 05bc 10a8 d53c 8523 c4b7
00000370: 2e64 c03c fdb8 023d f0cf ab3c 821c f03b
00000380: 0adb af3b 8089 803c 2f1a b73b a4a2 93ba
00000390: 4112 c1bb 91db cdbc 643e 9ebc 1a59 043c
000003a0: f77c b83c cc6a 173c 4993 663c ed88 a9bb
000003b0: f3b3 b23b c167 52bc 873a 39bd 64ff 173c
000003c0: c9fd 703c 211e e7bc 460b babb 44d6 8cbc
000003d0: 0548 a43b d04b 2abb 43c7 8aba 8f42 cc3c
000003e0: d0b0 f6bc a7b4 323c 92f9 3abc 8e75 7b3c
000003f0: c0a9 fd3b 55b1 3d3c bc02 043c afb4 363c

base_model.model.bert.encoder.layer.0.attention.output.dense.lora_A.default.weight f4 [8, 768]
-0.01764716 0.03171514 0.013628661 0.037869535 -0.0008100535 -0.017397612 -0.0073736846 -0.004559694
0.0105407275 -0.0059537943 0.011671882 -0.0049873325 -0.04939234 -0.026730202 -0.006278678 -0.054477483
0.014075888 -0.0075381985 -0.017366188 -0.05216564 -0.044360835 -0.036795348 -0.035669096 -0.05474391
-0.046975125 0.04343788 0.011879767 -0.0026912314 0.03701663 0.0014769727 0.014070217 -0.0036744697
0.0202063 -0.017840529 -0.016316736 -0.048939463 -0.018546214 -0.032894827 -0.028733518 -0.03561868
-0.005362053 -0.009593019 0.029584697 -0.0006809005 -0.039805528 0.030461375 -0.04781976 0.013924482
-0.030374138 0.0034405189 0.014871273 -0.017201582 0.013432798 -0.013372973 -0.026079971 -0.046440616
-0.025179235 0.030631078 -0.043816566 -0.025239596 -0.019635228 0.01597393 -0.031890497 -0.027180146
-0.008995447 -0.0016307938 -0.010203488 0.004555467 0.01071593 -0.028246084 0.01855564 0.0001586513
0.0040316368 -0.021894695 -0.04717259 0.027036479 -0.06299867 -0.0007660466 0.087994024 -0.01855757
-0.03860628 0.09532518 -0.050133236 -0.06414896 0.008214245 0.024401184 0.044244263 -0.0045213066
0.027119223 0.039821956 0.016841592 0.015133492 0.037217304 0.0017080911 -0.022026805 0.009153446
-0.03889951 -0.031585038 -0.032418396 0.03586356 -0.012680603 -0.052791968 0.04563816 0.03595441
-0.042072896 -0.0061348025 -0.038220387 -0.011468375 -0.035460513 0.012126221 0.024614973 0.033291284
-0.01302066 0.031603765 0.026752178 -0.04180584 0.032017995 -0.030387746 0.02275748 0.0041165403
-0.014912227 -0.080852956 0.007711894 0.046907246 -0.015495818 -0.044310633 0.053612642 0.0065284204
-0.0008133632 0.074231125 0.03975086 -0.0031639996 0.022343434 -0.053493697 0.016872207 0.02602583
0.01566295 0.033646945 -0.034412876 -0.00860124 0.009882117 -0.061910134 -0.04470576 0.034284357
0.030135145 -0.003622862 -0.0006262845 0.04338515 0.02951785 -0.0038296771 -0.020295894 0.034550864
-0.022420488 0.05486151 -0.020898324 -0.001862497 -0.018804708 -0.0018386326 -0.007386284 -0.01390748
0.0052059754 0.018616244 0.014794001 0.050079383 -0.023672476 0.024304895 -0.033979267 0.050551847
-0.07063967 -0.04475302 0.0033274118 0.038738865 0.065716624 -0.0073123137 -0.008788021 0.005466406
0.03959541 -0.0038636283 -0.03966119 -0.01438918 -0.010064494 0.008777329 0.026833171 -0.02392825
0.0137585495 0.00060396123 -0.009438339 0.05602808 -0.05338377 0.016452517 0.029397469 0.033877496
0.051806226 0.008289709 0.0027024136 -0.016484683 0.052752808 0.042929456 -0.0034684348 -0.017594062
0.02896373 0.023695434 -0.07969144 0.024494147 -0.073322386 0.02305214 -0.050463736 -0.015007758
0.019384492 0.023922807 -0.031986482 0.0005551256 -0.027998842 0.022726286 -0.045360044 0.013323116
0.017539058 0.033263803 0.024478199 -0.0232059 0.0067114527 -0.0055884058 0.037360057 -0.03196436
-0.010720875 0.008756555 0.050553273 -0.06836096 0.0410358 0.045595806 -0.019871766 0.013559247
-0.0045644883 -0.019539367 -0.012101394 0.064555176 -0.06299333 -0.032522053 -0.03647834 -0.009208472
-0.037907813 -0.037906535 -0.03218533 -0.0028273065 -0.014440645 -0.04488666 0.025640825 -0.009664264
0.03555028 -0.03940205 -0.0544251 -0.033570066 0.056396693 0.027200256 0.058658578 0.024897953
00000000: c790 90bc bce7 013d bf4a 5f3c 161d 1b3d
00000010: c559 54ba 7085 8ebc f39e f1bb 7c69 95bb
00000020: 04b3 2c3c 0c18 c3bb 6c3b 3f3c c76c a3bb
00000030: 9f4f 4abd 4cf9 dabc 5ebd cdbb c823 5fbd
00000040: 8e9e 663c fe02 f7bb 8943 8ebc a3ab 55bd
00000050: b5b3 35bd b8b6 16bd c219 12bd 263b 60bd
00000060: fd68 40bd ebeb 313d 5ba3 423c 5f5f 30bb
00000070: c09e 173d fb96 c13a c486 663c 5fcf 70bb
00000080: af87 a53c 4d26 92bc adaa 85bc bf74 48bd
00000090: 3bee 97bc babc 06bd 8e62 ebbc e5e4 11bd
000000a0: 29b4 afbb 0a2c 1dbc 9b5b f23c 767e 32ba
000000b0: 1f0b 23bd 228a f93c a7de 43bd 8323 643c
000000c0: 2fd3 f8bc 547a 613b a4a6 733c 55ea 8cbc
000000d0: 3d15 5c3c 501a 5bbc aaa5 d5bc 8438 3ebd
000000e0: af44 cebc 07ee fa3c 0079 33bd 45c3 cebc
000000f0: 0fda a0bc c2db 823c 9c9f 02bd e6a8 debc
00000100: a461 13bc 5cc0 d5ba 882c 27bc 0746 953b
00000110: de91 2f3c 5564 e7bc ff01 983c a25b 2639
00000120: d21b 843b 815c b3bc 0c38 41bd 9b7b dd3c
00000130: 7205 81bd 84d0 48ba 3636 b43d 0c06 98bc
00000140: 9e21 1ebd d939 c33d 8258 4dbd 8860 83bd
00000150: 0a95 063c fee4 c73c 7939 353d 7827 94bb
00000160: 2229 de3c 591c 233d 61f7 893c 77f2 773c
00000170: 2c71 183d 07e2 df3a 8f71 b4bc 56f8 153c
00000180: 1855 1fbd 505f 01bd 27c9 04bd abe5 123d
00000190: 4ec2 4fbc 643c 58bd 14ef 3a3d ee44 133d
000001a0: a154 2cbd 7406 c9bb fb8c 1cbd dae5 3bbc
000001b0: 0b3f 11bd 0fad 463c 57a5 c93c 715c 083d
000001c0: 9b54 55bc f372 013d 6227 db3c 9a3c 2bbd
000001d0: 4d25 033d b9ef f8bc e56d ba3c 0be4 863b
000001e0: 6a52 74bc 3c96 a5bd 0eb4 fc3b d021 403d
000001f0: 2ce2 7dbc 117f 35bd ee98 5b3d 5cec d53b
00000200: e137 55ba 7d06 983d ccd1 223d 1b5b 4fbb
00000210: 9409 b73c 351c 5bbd 9537 8a3c 1f34 d53c
00000220: 964f 803c 61d1 093d 84f4 0cbd 37ec 0cbc
00000230: 9ae8 213c 7b95 7dbd 631d 37bd c16d 0c3d
00000240: fbdd f63c 8a6d 6dbb 3e2d 24ba a1b4 313d
00000250: 6bcf f13c 52fb 7abb 9343 a6bc 3585 0d3d
00000260: 2cab b7bc 76b6 603d f632 abbc 071f f4ba
00000270: 550c 9abc 46fe f0ba a408 f2bb 33dc 63bc
00000280: e396 aa3b 1881 983c 8a62 723c 0a20 4d3d
00000290: c8ec c1bc 0f1b c73c d82d 0bbd 740f 4f3d
000002a0: 88ab 90bd f14e 37bd b510 5a3b a5ac 1e3d
000002b0: 7096 863d 229c efbb a2fb 0fbc 891f b33b
000002c0: cc2e 223d ed34 7dbb c673 22bd 98c0 6bbc
000002d0: 8ce5 24bc c9ce 0f3c 3dd1 db3c 2d05 c4bc
000002e0: 8a6b 613c 2753 1e3a 43a3 1abc b37d 653d
000002f0: f1a8 5abd 6ec7 863c f6d2 f03c 21c3 0a3d
00000300: c432 543d 8fd1 073c fa1a 313b e30a 87bc
00000310: 5413 583d ccd6 2f3d ae4e 63bb 6c21 90bc
00000320: 5845 ed3c ed1c c23c 4435 a3bd f3a7 c83c
00000330: 0c2a 96bd d7d7 bc3c 10b3 4ebd 19e3 75bc
00000340: 3acc 9e3c c3f9 c33c 4204 03bd d985 113a
00000350: d45d e5bc 7a2c ba3c 74cb 39bd 3349 5a3c
00000360: 12ae 8f3c a03f 083d 8186 c83c 4d1a bebc
00000370: bfeb db3b f21e b7bb dc06 193d 10ed 02bd
00000380: 9ca6 2fbc a777 0f3c f310 4f3d d500 8cbd
00000390: 2815 283d abc2 3a3d 1dca a2bc 9b27 5e3c
000003a0: b491 95bb 0611 a0bc ed44 46bc 8135 843d
000003b0: a602 81bd d835 05bd 506a 15bd 22df 16bc
000003c0: 3945 1bbd e243 1bbd c4d4 03bd 554a 39bb
000003d0: 7598 6cbc 13db 37bd b50c d23c dc56 1ebc
000003e0: 2c9d 113d 0b64 21bd dbec 5ebd c480 09bd
000003f0: 3800 673d 12d3 de3c fa43 703d cbf6 cb3c
