李燕彬/week13/model_output/lora_tuning.pth (torch, 477967 bytes, 20 tensors)

base_model.model.bert.encoder.layer.0.attention.self.query.lora_A.default.weight f4 [8, 768]
00000000: 02e0 9abd 4a2d 523d 5fcc 293d 4273 afbb
00000010: 1c09 c13c e511 8cbd d780 5cba f0d3 01bd
00000020: ef75 a13d e03b b53b 5a17 dabc effd 15bd
00000030: 6ac8 48bd b125 a73c f2f3 83bd 9133 913c
00000040: 59d8 2d3c 5473 e5bc 77eb 2c3d 4822 193d
00000050: 8efa 963d eb43 903c e0dc 3d3d ba32 803b
00000060: c898 993b 01da f73d 0008 b6bd 0b1b 733d
00000070: fdf3 fcbc 5be2 bdbc be76 af3d 767c cb3c
00000080: e755 3d3c cc28 333d fe01 d3bc 4468 a0bd
00000090: cdb4 063d 2507 2b3d 5bd7 b03d 059b 2e3d
000000a0: 9c69 b9bc 6535 d53c a38b aabc 3b16 993d
000000b0: a3dc 723d 0cac 45bc 2111 223c b610 13bd
000000c0: edce 24bd 6a49 2abd 8e69 48bd bd54 67bb
000000d0: ce66 053d 5944 cdbc f96c 88bc 33cc 713c
000000e0: 32a4 2ebd 5cf0 5fbd 71e9 50bd 65b2 9e3c
000000f0: 9409 9c3b 6ec2 4bbd a6d9 6fbc 4f9d 963c
00000100: 9e6d a53c 941b 403c aec5 5abc 6878 103d
00000110: d277 16bd 17e9 c13b 1136 1e3d 04fe e2bc
00000120: 7e6f 2b3c d22f 703c 1094 fb3c 9339 553c
00000130: b932 8f3c 0fcf 53bd 0f64 2dbc 77ca 5a3c
00000140: 2a0b ed3d cc53 573d 2b57 9abd 8bf4 703d
00000150: e1b8 cf3b 3122 5bbd 4b5b 333d f665 00bd
00000160: 9330 033d 0e0c 24bd abf3 8aba 1352 3fbd
00000170: e1e6 2ebc 8030 9eb9 ebbb 2d3d 85a5 0ebd
00000180: e993 c43b b928 e43c 368b 9cbd 244c 88bc
00000190: d283 183d 6fbe bdbd 8de2 87bb 85e2 a23b
000001a0: ad59 98bd 82b7 94bd b3b2 31bd 7617 333c
000001b0: 9d5a 06bd 20f3 11bc 69c9 633b 4365 7bbc
000001c0: 6f69 683d 9c64 b03c 584f 41bd 34a4 62bc
000001d0: 19a8 c7bd b00e 5b3c 793c 38bd b475 20bc
000001e0: e6d9 27bc c116 be3a 6f8f 843c 47af 213d
000001f0: c4ee 203c 2367 21bc df7e 22bc 1edb 08bd
00000200: aa14 c93b b69b 85bd 03cb 993c e544 9e3c
00000210: 2fbd a0bd 6282 4d3d 02e3 f83c 50c3 113c
00000220: d295 bbbc 835f 68bd 407e 4d3d e205 223c
00000230: c288 31bd f685 eebd 96a2 30bb 4d86 aa3b
00000240: 0c8a 213d 1618 f33c f88e 80bc 5b57 1ebe
00000250: 542c e03d cc40 993d fe4e 203c 0eb8 33bd
00000260: d2f8 363c 7093 81bd ca26 51bd 2aa8 b1bc
00000270: e176 1abd 906f 52bd cb6e 883a 41b5 ba3d
00000280: 0ee9 f53c 4e03 a0bc bfb5 ddb8 2f76 ae3c
00000290: 0c81 67bd 13ee 773c d862 18bc 7b4f efbc
000002a0: 1f75 cd3c be7c c0bd 2859 c4ba 9d03 cbbd
000002b0: efdd 4c3c 28cf 09b9 e77e 613d a1c8 873d
000002c0: 8599 ab3c 44d2 6c3d 1872 333d 8c2a 1bbd
000002d0: c547 323d df70 e1bc b9d6 493c f64d c83d
000002e0: 46bc 9e3c 4a0d c33b 3edb b13d 6608 cbbc
000002f0: 5f1b cc3c 170f 823c 69ef e1bc e61d 153c
00000300: eb94 13bd 318e e83d 7e0e d3bb 3760 1abd
00000310: 088f 18bd fb26 3d3d df2f f1bd 6deb 43bc
00000320: 6726 483d 9b54 6b3d 6c42 a33c 1d12 23bc
00000330: f3d4 04bc e5ae 7dbc 5b90 dabd 9a1a eabc
00000340: 588e 283c 426e 78bb 9b5f 01bd ba80 6b3c
00000350: 39f5 5d3d 74ce 163b 5759 d9bc 4f16 69bd
00000360: ca6b bdbd d97d 153d 3ed7 a13d 96a6 253d
00000370: 1ef2 84bc 312e 08bd 206d 2fbd 49e3 7ebd
00000380: 33af f4bd 24c3 a3bd c257 943c ba4f 09bc
00000390: 73f6 4ebc ebf1 8c3d cac8 f63c 27e3 263c
000003a0: 2d48 2ebd 460c 7dbc f0f6 be3c d036 2fbd
000003b0: 0c31 113d e162 da3b cd25 d1bc 08ea 823d
000003c0: cb7d 823d cd8a 803c f4fa 073d f118 eebc
000003d0: 1af7 4bbc 98bb 4fbd 6c68 ad3d a0fb 8f3c
000003e0: 0f24 d8bd 6b43 41bd e423 b1bc b163 443c
000003f0: ea97 943d cfeb 2fbd 5e63 2fbb ef1e 893c
-0.07562257 0.051312722 0.04145467 -0.005354316 0.023563914 -0.068393506 -0.00084115326 -0.03169626
0.07883822 0.0055308193 -0.026622463 -0.036619123 -0.049019255 0.020403715 -0.06443013 0.017724784
0.010610663 -0.028009094 0.042216744 0.03738621 0.07372008 0.01761051 0.04635322 0.003912297
0.0046874024 0.12102128 -0.08888245 0.059351962 -0.030878061 -0.023179224 0.0856757 0.024839621
0.011556125 0.04374008 -0.025757786 -0.07832387 0.03288727 0.04175486 0.08634826 0.042628307
-0.022633366 0.026026437 -0.020818537 0.07474943 0.059292447 -0.012064945 0.009891779 -0.03590461
-0.040236402 -0.04157392 -0.04892879 -0.003529831 0.032568745 -0.025057005 -0.016653525 0.014758158
-0.042637058 -0.054672584 -0.051003877 0.019372175 0.004761884 -0.04974597 -0.014639294 0.018385557
0.020193871 0.011725325 -0.013352795 0.03527108 -0.036735363 0.005917679 0.03862578 -0.027709015
0.0104635935 0.014659839 0.03071025 0.013014215 0.017480241 -0.05171114 -0.010582938 0.013353935
0.11574395 0.05257015 -0.07536157 0.058826964 0.006339178 -0.053499404 0.043788236 -0.031347238
0.032028746 -0.04005056 -0.0010601183 -0.04670913 -0.010675163 -0.00030172244 0.04241554 -0.03482582
0.0059990776 0.02785145 -0.0764374 -0.01663787 0.03723509 -0.09264838 -0.00414688 0.004970851
-0.07438979 -0.07261564 -0.04338331 0.0109308865 -0.03280126 -0.008908063 0.00347575 -0.015343967
0.056741174 0.02153235 -0.04719481 -0.013833094 -0.09748859 0.013370201 -0.044979546 -0.009793688
-0.010244822 0.0014502631 0.016181676 0.039473798 0.009822551 -0.00985125 -0.009917944 -0.03341209
0.0061364966 -0.0652384 0.018773561 0.01931996 -0.07848584 0.05017317 0.030381683 0.008896664
-0.022898588 -0.056731712 0.05016923 0.009889098 -0.043343313 -0.11646645 -0.0026952378 0.005203998
0.039438292 0.029674571 -0.015693173 -0.15463011 0.10945955 0.07483062 0.009784458 -0.0438767
0.011167722 -0.063269496 -0.051062383 -0.021686632 -0.037711028 -0.051375926 0.0010408995 0.09116603
0.030018356 -0.019532826 -0.00010571954 0.021296589 -0.056519553 0.015132445 -0.00930091 -0.029212704
0.025080262 -0.09398793 -0.0014980184 -0.099127986 0.012504085 -0.0001314251 0.055052664 0.06630064
0.020947227 0.057817712 0.04380998 -0.037882373 0.043525476 -0.027519641 0.01231926 0.09780495
0.019376885 0.005952512 0.08684395 -0.024784278 0.024915395 0.015876336 -0.02757998 0.009101367
-0.03603069 0.11355246 -0.0064409366 -0.037689414 -0.03724578 0.046179753 -0.11776709 -0.011957985
0.04886475 0.057453733 0.019929133 -0.009953049 -0.008107412 -0.015483593 -0.10672065 -0.028577138
0.010287844 -0.0037907516 -0.031585317 0.0143739525 0.05418894 0.002301124 -0.026531858 -0.05690604
-0.09249075 0.03649697 0.07902382 0.04044207 -0.016228732 -0.033247177 -0.04282868 -0.062228475
-0.11947479 -0.079962045 0.018108252 -0.008380825 -0.012632 0.0688208 0.03012504 0.010185993
-0.0425493 -0.015444821 0.023311108 -0.042776883 0.035447165 0.0066646193 -0.02553072 0.06392294
0.06371649 0.015691185 0.033198312 -0.029064627 -0.01244905 -0.050716013 0.084671825 0.017576039
-0.10553753 -0.047183435 -0.02162356 0.011986659 0.07255538 -0.042949494 -0.0026762108 0.016738383

base_model.model.bert.encoder.layer.0.attention.self.query.lora_B.default.weight f4 [768, 8]
00000000: 770a 63bc 15e4 2d3d 43d4 2dbb 539e 25bd
00000010: d443 cd3c 4093 22bd 9983 923d 057f 143d
00000020: cada b03a 2935 523d 5cb8 013d a4e6 cc39
00000030: c89c 08bd 6347 18bc 2732 8cbc 101a 263d
00000040: d439 583a c7c3 c63d d1b7 f2bb 85eb ab3c
00000050: f83d 2cbd 848a 1b3d 4cd9 723d 45e9 e8bc
00000060: 3dc8 1dbd 610b 4ebc a67d b73b dee1 e13c
00000070: d787 1c3d 1b87 4abd 5f43 a03d c28d b43b
00000080: 12f9 45bb 25d2 503b a339 483d 6583 4cbd
00000090: 0669 003d 8010 6cbc d343 8d3c be42 cd3c
000000a0: 89b2 ccbc 349b cdbd a7ea 883d 3c0d b63c
000000b0: f823 ddbc 1503 e13c 83a5 63bd f0b6 7f3d
000000c0: 5c6b 3bbd 001b 263d c65c ea3c ad8e c33c
000000d0: 682d f33b 01c6 1a3b c087 80bc e618 863c
000000e0: 4706 a0bd 7111 11bd 4691 ab3d 6c0a 4c3d
000000f0: 4d7f 54bc 0f80 8c3d e199 22bd cb34 89bc
00000100: a5de b8bc f9d9 79ba 4cda 89bd ecc8 e13c
00000110: 5ed7 9fbb 969f 64bd cb89 583d 4751 6fbd
00000120: d585 31bc 934d e4bc c063 f1bc 6a8a 3c3d
00000130: f9d0 66bc 9f41 9c3c e0e3 8e3d ef4e 483a
00000140: 8df2 9e3d 8dc6 daba e7b6 05bd 8be0 fa3c
00000150: 2aab 693c 4db6 8e3b 21a4 76bc 7a17 1bbd
00000160: 3390 243c d416 273d 1c18 503d 39b7 7fbc
00000170: dfe6 193d 3e84 42bd 6e12 e2bb 411e be3c
00000180: ca01 3abd ec20 5bbd 9a6e 8c3c 2151 553c
00000190: 1ef6 663c aef5 c8bc 220d d73c 24db cb3d
000001a0: cb42 413d 8c43 3e3c c2ea 813d 2b68 b93c
000001b0: 2b6b c5bc aef3 7abc 4e6b 95bd 1158 e53c
000001c0: 5b9e bd3c e407 9bbd 7658 9fbd 8668 43bd
000001d0: c65c ae3b 5bc3 c5bc fdb8 2e3b 9fff cdbc
000001e0: b644 9a3c 40b9 883c 09ee 61bd 0cd0 1dbd
000001f0: 8550 d43c a6d0 5dbd 7cb9 88bc 47fe d43c
00000200: 3fb4 a53a 92b4 203c fde5 a2bd d926 51bc
00000210: 4ca2 4e3d daa6 d13c 6fae c03d 0f4e 1d3d
00000220: f675 adbd df22 ae3c bcb5 b93a c04e 813b
00000230: 8587 f43c bbd0 3d3d f3c0 053d d1c5 153d
00000240: 6985 163b 7da9 81bd 7169 743d 36f3 38bc
00000250: 325e bbbc 95c5 113d 6b81 10bd 94ab aabc
00000260: b8b3 f53c 71c8 bb3c 5a76 6bbd 76b9 883b
00000270: 81be 273c 695b 2bbd eb1c 0f3d b204 f6bd
00000280: d555 47bd a6da 02bd e7bc e03c 5988 3d3d
00000290: ae6f 46bc fdc6 57bd 512d f3bb 9db5 e3bc
000002a0: 8197 39bc 3ecb 043d 0903 e43c 2b97 06bd
000002b0: 6750 04bc cd07 92bb f878 12bd 10ee 053d
000002c0: 1c7b 473d c1a0 7fbc 4240 59bd 4633 463b
000002d0: 3967 903c 48a8 4dbd cb95 193d c88e 003d
000002e0: 3139 68bd ea4e 86bc 7276 ef3c f1ff 81bb
000002f0: 411e 903d 5282 9abc f8b7 f03c 5946 8ebc
00000300: ef03 c03c 6487 72bd f281 45bd 96f4 2cbd
00000310: dffc 0b3d 925f f3bc ee26 4d3d 0d75 543c
00000320: 07f4 d53c d981 91bc 5778 023d 9537 45bd
00000330: 71d4 e33c 62c0 073c 297d 71bd 4284 b53d
00000340: 8bd2 a639 6247 583c 9d39 b93c d790 0f3d
00000350: f8dd 163b 3a5e 30bc 39f7 a9bc 22f0 cdbc
00000360: f466 4d3c d80d 143d 2c68 4b3c 3a66 a63c
00000370: 9c39 f63b 7431 443d 6000 49bd 47d2 46bd
00000380: 8d69 84bd 9613 c13c 9723 453d 1a46 493d
00000390: 6209 a0bc 7332 3fbd 06dc 003b 957b 6b3c
000003a0: 8c97 0e3d bac9 63bc 9ffd 283d 4dfa 80bc
000003b0: 9cdf fcbb f886 10bc ad0b 613c 3259 e13d
000003c0: aeb6 cf3c 8212 d3bc 37e0 c2bc abf4 ccbc
000003d0: 6279 fabc c9d1 08bd b847 e5bc 3d77 633c
000003e0: 1d29 b03d 0197 183d d195 8bbd 60ae 60bd
000003f0: b267 a23d 33cd e3bc a387 ea3c 2650 b13c
-0.0138574755 0.042453844 -0.0026524223 -0.040434193 0.025056757 -0.03969121 0.071540065 0.036253948
0.0013492939 0.05132023 0.03166996 0.00039081753 -0.033352643 -0.009294364 -0.017113758 0.0405522
0.0008248363 0.0970531 -0.0074071665 0.020986328 -0.042051286 0.037973896 0.05928926 -0.028431544
-0.03852104 -0.012575955 0.0055996953 0.027573522 0.038215484 -0.049445253 0.0782535 0.005510063
-0.0030208272 0.0031863537 0.04888309 -0.049929995 0.03135016 -0.014408231 0.017244255 0.02505624
-0.024987476 -0.10039368 0.066853814 0.022223108 -0.02699469 0.02746729 -0.055577766 0.062430322
-0.045756683 0.040553093 0.028608691 0.023871744 0.0074211843 0.0023616555 -0.01568973 0.016369294
-0.07813697 -0.035417024 0.08377318 0.049814627 -0.012969804 0.06860363 -0.03969753 -0.016748806
-0.022567103 -0.00095310766 -0.0673109 0.027561627 -0.0048779687 -0.055816256 0.052865785 -0.05842712
-0.010835131 -0.027869022 -0.02946651 0.04603044 -0.014087909 0.01907426 0.069770575 0.00076411566
0.07761107 -0.0016691253 -0.032645132 0.030624649 0.014262 0.004355228 -0.01505378 -0.037864186
0.010044145 0.040793255 0.050804242 -0.0156076485 0.03757369 -0.047489397 -0.0068991696 0.023207786
-0.045411862 -0.053498194 0.017142583 0.013019831 0.014096765 -0.024531212 0.02625138 0.09953907
0.04718284 0.011612784 0.063436046 0.022632679 -0.024098953 -0.015316887 -0.07295857 0.027996095
0.023146799 -0.075698644 -0.077805445 -0.047707103 0.005321118 -0.024141004 0.0026660555 -0.025146304
0.018831592 0.016689897 -0.05515865 -0.038528487 0.025917301 -0.05415406 -0.016690008 0.026000155
0.0012642218 0.009808676 -0.07954023 -0.01276561 0.050447747 0.025592256 0.094082706 0.03840452
-0.08469765 0.021256862 0.0014168541 0.0039461553 0.029849777 0.04634164 0.032654714 0.036565606
0.0022967702 -0.063311554 0.05967087 -0.011288455 -0.022872064 0.03558882 -0.035279673 -0.020833768
0.029992923 0.022922726 -0.057485916 0.0041724993 0.010238291 -0.041835222 0.034939688 -0.12012614
-0.04866584 -0.0319468 0.027433826 0.04627261 -0.012111587 -0.052680004 -0.0074211736 -0.02779656
-0.011327625 0.03242039 0.027833479 -0.03285901 -0.00807581 -0.0044564963 -0.035759896 0.032697737
0.04870139 -0.015602292 -0.053039797 0.0030242964 0.017627345 -0.050209314 0.03749637 0.031386167
-0.056695167 -0.016395051 0.029231284 -0.003967278 0.070370205 -0.01886097 0.029384598 -0.017367529
0.023439376 -0.05921115 -0.04821963 -0.042225443 0.034176704 -0.029708657 0.050085954 0.01296736
0.026117338 -0.017762111 0.031853046 -0.04814871 0.02781126 0.008285614 -0.058957253 0.08863117
0.00031818854 0.013200613 0.02261048 0.03505024 0.0023020487 -0.010764653 -0.020747768 -0.025138918
0.012536753 0.036146015 0.012414973 0.020312417 0.007514192 0.047898725 -0.049072623 -0.04854038
-0.06465445 0.02356891 0.048129644 0.04913912 -0.019535724 -0.04667897 0.0019662394 0.014372726
0.034812495 -0.013903076 0.041257497 -0.015744353 -0.007717086 -0.008821242 0.013735694 0.11003341
0.025355663 -0.025765661 -0.023788555 -0.02501901 -0.030575458 -0.03340319 -0.0279883 0.013883409
0.08601592 0.037253384 -0.068156846 -0.054853797 0.079299346 -0.027807808 0.02862913 0.021644663

base_model.model.bert.encoder.layer.0.attention.self.key.lora_A.default.weight f4 [8, 768]
00000000: 62d4 ebbb 338c c33d 2be7 1bbd 91a0 cdbd
00000010: 430e ddbc 5401 c9bd 6be3 85bd c33d a5bc
00000020: e179 2abd 01a3 f93c 6695 553d dadc 1e3d
00000030: e824 65bc a41c 94bc c100 3e3d 770e 3fbd
00000040: f034 8abd 17b2 5b3d b0c0 e7bc 4c3a 813c
00000050: 807d edbc 6ab5 61bc 4825 22bb a3f8 653d
00000060: bd8c a73c 0bb7 3bbc abe7 78bd 27c1 2bbd
00000070: c662 7cbd f9a5 8d3d 36bc 823b 91ec f3bc
00000080: f03a 7e3d e2d8 11bd deef 323d 16cd 123c
00000090: d8ab f3bc 93a6 c4bc 972c a1bc d428 5dbd
000000a0: 689c cd3c 8e15 113b ebe5 3e3d cbf5 9f3d
000000b0: 03b1 0e3d ddd6 09bd fd06 aebc 1ad9 89bd
000000c0: c1dd 92bb 3e40 063d 32e0 083d 16a0 5dbd
000000d0: 96c5 403c 1cbf 4e3c 0619 053d cdf3 e73c
000000e0: 6701 63bd 42f6 9cbc 6647 19bc d8f0 e63b
000000f0: ef8e 223b 07f5 f8bc d4a3 9a3c 8f5b 57bd
00000100: dae7 833c de0d d6ba 196b c3bd 636f 723d
00000110: d1d6 893b e1e5 3c3d c707 433d 6804 633d
00000120: 2a82 a0bd 7850 12bd 5346 dc3c 161a a4bd
00000130: 896f 643d a58f 1a3d d841 10bd 48fd 33bd
00000140: 9617 91bb 2a98 303b 614d 6ebd 37c5 373d
00000150: 5775 bd3c 74d3 6b3d e763 663c 400d ad3c
00000160: e5a8 d0bb c90b aebc cbc1 693c 1033 743c
00000170: acb0 91bd ebe4 fd3c 124c 1d3d 787e 763c
00000180: 0377 9b3b f87f c33c 5f4a e1bb af30 733d
00000190: f7f6 533c 21fa e0bc c3d4 07bd 6aac 2bbc
000001a0: a661 8a3c 70eb 123d 8b13 34bd 7ee5 b43b
000001b0: 85c2 e4bc 4b6c 81bd 4803 7dbd e1b1 a7bd
000001c0: bb81 b6bc c0e0 0ebd ce8c 14bc a0fd 25be
000001d0: 6d9c b43c 2419 34bd 2d9f d03b ae2d bd3d
000001e0: d63a 293d f34c b7bd 7e19 843c 7226 5f3d
000001f0: 7bb5 4fbc 6fa6 92bc 7d74 c4bc 029b 0abc
00000200: bbe4 b9bc 7caa 84bd 7965 90bc 2722 0fbd
00000210: fd4e 603d b3bd 683d 62e4 613d ebfb 5d3d
00000220: f8d2 84bd e49d be3d 82db c03b 5d14 20bc
00000230: dad3 563d 400e e1bc 5c93 9abd 63fc 4fbd
00000240: bcb0 4abc a041 b33a 6f7d 0b3c 07bd 7cbb
00000250: d3eb bebb 8214 b73c 7606 e03d e6f9 adb9
00000260: fa0b 1f3d d509 15bc 2074 51bc e82b 47bb
00000270: 553d 3abc 4bd7 c63c bf97 f43c 187a 9bbd
00000280: 4ff4 a4bd 82ec a33c f471 a23c 2b49 89bc
00000290: d721 05bd 6f62 aebd a673 89bd ed6c 083d
000002a0: 955e 3cbc 5b08 803d 220c 4d3c c61f 56bd
000002b0: acec 4f3d 61f3 b73c f079 89bc 5fe7 8fbc
000002c0: bdf7 e73c 056f f43b 9449 b1b9 bb00 2bbd
000002d0: 104b 92bd 1357 d13c 59bc 413b 9587 123d
000002e0: d600 1e3d 3ce2 4f3d 916b ad3c e05c 1d3d
000002f0: faf7 4a3a f523 bd3c 529f 4f3c c80e 5d3d
00000300: 0039 0dbd 6564 d8bc 3104 a6bc 9a88 c7ba
00000310: fc92 5f3d 9480 453c 4052 603c 6872 a23b
00000320: 4709 e2ba 6f07 23bd 73a4 e43c edb5 053d
00000330: 2cda 50bd b49a c8bc 102c 07bc 7ed7 5fbd
00000340: d123 9b3d c141 f9bc 955a 81bd 8d0e f7bb
00000350: 0517 46bd cd3e a73d c431 683c ee00 36bd
00000360: 4ea6 3ebc c55d e93d 7b40 5cbc d288 72bd
00000370: 7de3 58bc 3de4 ca3c 0eac 3d3c 6509 aa3c
00000380: 7d2a 5d3c 629f d7bc a698 8d3c eb90 96bd
00000390: 1e97 4f3c d183 e83c 1ee9 acbd c802 0fbc
000003a0: 3add 2ebd 1f39 29bd f9ef 75ba c138 823c
000003b0: e52c babc 72f9 48bd ac76 6e3c 342e 823d
000003c0: 2b33 653d d116 a2bc fafd ec3c aa01 a6bc
000003d0: 480d 71bd 5250 40bd 1c0a bdbd c406 b5bd
000003e0: 8104 e33c f94e 803d 0090 b5bd 929c 36bc
000003f0: e696 b439 c68a 5a3c 0f5b 8d3d b333 ce3c
-0.007196949 0.09548225 -0.038062256 -0.10040391 -0.02698434 -0.098147064 -0.06537517 -0.020171052
-0.04162014 0.030473234 0.05214443 0.03878484 -0.01398585 -0.018080063 0.046387438 -0.046644654
-0.06748378 0.053636637 -0.028290123 0.015774868 -0.028990507 -0.013776163 -0.002474146 0.05614532
0.020452851 -0.011457215 -0.06076781 -0.04193225 -0.061617635 0.069164224 0.0039897216 -0.02977589
0.062067926 -0.035607226 0.043685786 0.008960029 -0.029745027 -0.02400521 -0.019674582 -0.053994015
0.025098994 0.0022138092 0.046605986 0.07810553 0.03483678 -0.033652175 -0.021243567 -0.06730862
-0.0044820015 0.03277611 0.033416934 -0.054107748 0.011765858 0.012618806 0.032494567 0.028314495
-0.05542126 -0.019160394 -0.009355402 0.007047754 0.0024804433 -0.030390276 0.018876947 -0.05257755
0.016101766 -0.0016331037 -0.09541912 0.059188258 0.0042065163 0.046117667 0.04761484 0.055424124
-0.07837327 -0.035721272 0.026889002 -0.08012788 0.05577043 0.037734646 -0.035219043 -0.04394272
-0.0044278605 0.0026946166 -0.058179263 0.044865813 0.023127241 0.057574704 0.0140619045 0.021124482
-0.00636779 -0.021245854 0.014267395 0.014904752 -0.071137756 0.030992946 0.038402624 0.015044801
0.004744412 0.023864731 -0.006875321 0.0593726 0.012937299 -0.02746302 -0.03316189 -0.010478118
0.016892266 0.035869062 -0.04396395 0.0055205217 -0.027924785 -0.06319483 -0.061770707 -0.081882246
-0.022278657 -0.034882307 -0.009066774 -0.16210032 0.022047246 -0.04396929 0.0063666315 0.09237228
0.041315876 -0.08950224 0.016125437 0.054480024 -0.012677546 -0.017901627 -0.023981327 -0.008459808
-0.022692075 -0.0647783 -0.017626511 -0.03494468 0.05476283 0.056821536 0.055149443 0.054195326
-0.064855516 0.09307459 0.0058855424 -0.00977048 0.05244813 -0.027472615 -0.07547638 -0.050777804
-0.012371238 0.0013676174 0.008513792 -0.0038564818 -0.0058264523 0.022348646 0.10938732 -0.0003318332
0.03882978 -0.009096582 -0.012784034 -0.003039116 -0.011367162 0.024272582 0.029857514 -0.07591647
-0.08054411 0.020010237 0.019829728 -0.016758522 -0.032502975 -0.085148685 -0.06711511 0.033307005
-0.0114971595 0.06251594 0.0125151 -0.052276395 0.050762817 0.02245492 -0.016781777 -0.017566381
0.028316373 0.0074595236 -0.0003381489 -0.041748744 -0.07143223 0.025554216 0.0029561727 0.035773832
0.038575016 0.050752863 0.021169456 0.03841865 0.000774264 0.023088435 0.012672262 0.053969175
-0.034478188 -0.02641506 -0.02026567 -0.0015223206 0.054583535 0.012054581 0.013691485 0.004957486
-0.0017245197 -0.03980201 0.027910447 0.0326442 -0.050989315 -0.02448783 -0.008250251 -0.05464887
0.07575191 -0.030426862 -0.06316105 -0.0075395764 -0.048361797 0.08166275 0.014172021 -0.04443448
-0.01163633 0.11394838 -0.013443108 -0.059212513 -0.013237831 0.024767036 0.011576666 0.020756433
0.0134988995 -0.026321117 0.017284703 -0.0735186 0.0126703065 0.028383167 -0.08442901 -0.00872869
-0.042691447 -0.04131424 -0.0009381767 0.015896203 -0.022726486 -0.049066015 0.014554661 0.06356469
0.055957 -0.01978627 0.0289297 -0.020264465 -0.058850557 -0.0469516 -0.09230444 -0.08839181
0.027712109 0.06265063 -0.088653564 -0.011145728 0.00034444703 0.01333875 0.06902134 0.025171136

base_model.model.bert.encoder.layer.0.attention.self.key.lora_B.default.weight f4 [768, 8]
00000000: 1a1c cd3a 0e29 433c fff8 15bc f77a 8cbc
00000010: df74 303b ccee 02bd e76f 813d 2eac b3bd
00000020: 004c b13c bc1f 20bc adbc c8bc 9a77 ed3b
00000030: 9ded a43b 3ed7 323b 84b5 8e3c 6613 27bc
00000040: a83b af3c 2a0a 90bc a0c4 84bc 1acc bdbc
00000050: be3f cb3c 9c30 ab3b 2ecf 803d 0e16 02bc
00000060: d046 df3a 4e6d 083d 2872 3c3c ec4b 773c
00000070: 18c2 ca3b 41b3 11bd 4a36 d73c ae55 7dbc
00000080: aa9f 28bc 5d7b 313b 1109 22bb e6ef 0f3c
00000090: eb06 933b 30f1 23bd e0ed 263d 433c 1abd
000000a0: 6790 d43a cef8 793b c418 1e3d a521 91bc
000000b0: 4ad1 8fbc 31a1 11bc b3e5 e73b fd14 28bd
000000c0: abbf 553c fedf c5bb 9ee1 0b3b 6102 febb
000000d0: 0b8b 93bc f2e8 6c3c 38a0 bd3b 102a 28bc
000000e0: 3824 c4bc b14f a4bc 61dc 0f3d 951b 3fbd
000000f0: ae98 26bc da5f 6e3d 7cc0 01bd 2f5d b13c
00000100: 8074 9abc 43f2 51bd 5184 92bc 0697 933c
00000110: 63d2 b7bc ba3d 72bc 974a ac3c b15d 7f3d
00000120: ad1c 23bd 41a7 b5bd 5cb4 613d 579a 64bd
00000130: 8abd 35bd ed15 413c 399e 18bd 9bca 843d
00000140: a835 63bb 76ec 893c 38aa 333b bf89 2b3d
00000150: fee1 bdbb 217a 8ebd 0db4 b5bb 3d51 6bbd
00000160: 5ffe 36bb 98a7 313c bb67 443c f861 10bc
00000170: 30b5 27bd e579 dabc 4991 9f3c a16a 09bd
00000180: 7d89 6bbc 0f53 8cbc 021e 853c d163 acbc
00000190: 7a69 52bc 816d 913c e8f1 5c3b 2a90 78bb
000001a0: dfe7 a13c ba5a 87bc 38f0 623c 86c3 debc
000001b0: af9b 8ebc e6a3 cabb dac6 47bd e9b1 c43c
000001c0: a5e2 9dbb bef4 833c b9f8 0f3d 3622 bfbc
000001d0: da9f dabb 2a7d abbc f04c 8ebc b230 653b
000001e0: 1227 9d3d 1799 3a3d 6544 88bd 963e e33c
000001f0: a3d8 a5bb 621f 7dbd 7303 0d3d 171b 623b
00000200: 6c21 103c 46e8 acbc a209 30bc e8c3 803b
00000210: 42ae 4b3c c186 3e3d 2000 0ebd 1ab5 2abc
00000220: 2551 dcbc e057 073d 0e4b ab3c b941 38bd
00000230: 3698 8fbc b440 5cbb af02 023d 05a3 9bbc
00000240: d59d 3fbb a0b5 3ebd ccdc 863d 4170 07bd
00000250: 6b35 e8bc 717e 4c3d 3523 00bd 798e 8abc
00000260: 80d1 46bd b791 14bd 4662 dbbc d9fd e43c
00000270: 5830 923b 93d1 36bd 18b1 a73c 47e1 293c
00000280: c001 523a b68d 6f3c f0d0 ed39 3eca 3bbc
00000290: 36f2 013d 857f 72bc b63a 303d baab 0a3c
000002a0: 2a1e 713d 8349 0a3d a618 eebb 0f64 d9bc
000002b0: 78a4 ef3c fa2a bcbc 814b 863d 04d2 c7bb
000002c0: b67c 58b9 e5f0 9abb 4213 973c 2181 093c
000002d0: 299f 263c 2937 bebc 6d85 61bc 2a4f 6fbc
000002e0: 6087 473b 9695 293d 5a2b 99bc 3837 e13c
000002f0: 6f66 153d 80f6 3ebd ef8a 2e3d e7de 2abd
00000300: 6814 05bd 6ddc f6bb fc3e 35bc 6794 973c
00000310: 5e58 03bd fdad d8bc a74d 97bb 64e2 10bd
00000320: cf3e 82bd 58cb 07bb 21b5 2b3c b611 9dbc
00000330: b09d a5bd c07b adbc e32d 023c 6565 eebb
00000340: 87e4 0bbd 29dc 383c 8b83 09bd 69ef 0a3d
00000350: 2a95 c2bc a24b 153b 325d 51bc d1c1 793d
00000360: ff19 7c3c 2ec9 b13c bf4d fa3c d972 d73c
00000370: da93 e73a 71a1 97bc dd79 bd3b 9ba5 54bc
00000380: 8861 f83b 44d1 b7bc 1541 b63c d6cb f1bb
00000390: f77c f0bc 0e0c 363d e263 dfbb 6b7f 163d
000003a0: c366 84bb 8a13 10bc 9319 363d 858b 92bc
000003b0: bb2b 73bc 9a02 c9bc d322 eb3c 9158 a1bc
000003c0: d1a0 07bd e057 493c 0c83 f23c ec6d feba
000003d0: 6b84 ca3b 444f 32bc 6dae f2bc 5333 3ebc
000003e0: cd54 8e3b cf49 3f3c 7cfc 97bc 1607 113d
000003f0: 33ee 753d 8186 a2bd c684 163d b3df f0bc
0.0015648634 0.011911644 -0.009153604 -0.017148478 0.002692513 -0.031966016 0.06320172 -0.08773075
0.021642685 -0.009773191 -0.02450403 0.0072469236 0.0050332085 0.002728894 0.017420538 -0.010197496
0.021390751 -0.017582972 -0.01620704 -0.023168612 0.024810668 0.0052243005 0.062895164 -0.007939829
0.0017034654 0.033307366 0.011501826 0.015093785 0.0061876886 -0.03557134 0.026271004 -0.015462322
-0.010291973 0.0027081587 -0.0024724642 0.008785224 0.0044869087 -0.040024936 0.0407542 -0.037655126
0.0016217352 0.0038142684 0.038597837 -0.017716238 -0.017555851 -0.008888529 0.007076943 -0.04103564
0.0130461855 -0.006038665 0.0021344195 -0.0077517484 -0.018010637 0.014459835 0.005786922 -0.010263935
-0.023943052 -0.020057531 0.03512228 -0.046657164 -0.010168238 0.05819688 -0.031677708 0.021650879
-0.01885438 -0.05125643 -0.017885359 0.01801635 -0.022439187 -0.014785225 0.021031661 0.06234521
-0.03982227 -0.08869792 0.055103645 -0.055811252 -0.04437021 0.011785013 -0.037260268 0.064839564
-0.0034669433 0.016836386 0.002741469 0.04187941 -0.0057947626 -0.06956888 -0.0055451454 -0.05745052
-0.0027922613 0.01084318 0.011987622 -0.00881242 -0.04094428 -0.026669452 0.019478457 -0.033548955
-0.0143760415 -0.01712945 0.01624966 -0.02104369 -0.01284253 0.01775241 0.0033713523 -0.0037927725
0.019763885 -0.016522754 0.013851218 -0.027192842 -0.01740822 -0.006184089 -0.048773624 0.024010615
-0.004818278 0.016107913 0.03514931 -0.023331743 -0.006671888 -0.020933706 -0.017370671 0.0034971652
0.07673468 0.045556154 -0.0665367 0.027739804 -0.0050612255 -0.061797507 0.034427118 0.003450101
0.008797031 -0.02110685 -0.010744484 0.003929604 0.012431683 0.04651523 -0.034668088 -0.010419155
-0.026894161 0.03304279 0.020909812 -0.044984553 -0.017528635 -0.0033607902 0.03174084 -0.018998632
-0.0029238362 -0.04655993 0.065850824 -0.033066038 -0.028345784 0.04992527 -0.031283576 -0.01691364
-0.04853964 -0.036271777 -0.026780259 0.027953075 0.0044613294 -0.04463346 0.020470187 0.010368652
0.0008011125 0.014621189 0.00045359833 -0.0114617925 0.03172513 -0.014800911 0.04302474 0.008463794
0.058866657 0.033761512 -0.007266122 -0.02653697 0.02925323 -0.022969712 0.0655737 -0.006098034
-0.00020645824 -0.004728424 0.0184418 0.008392603 0.010169783 -0.023219662 -0.013764721 -0.0146062765
0.003044568 0.041402422 -0.01869743 0.02749215 0.03647464 -0.0466218 0.042612966 -0.041716482
-0.032490164 -0.007533601 -0.01106238 0.018503381 -0.032066695 -0.026450152 -0.004617411 -0.035372153
-0.06359636 -0.0020720568 0.010480196 -0.019173484 -0.08086717 -0.021177173 0.007945511 -0.0072752708
-0.034153488 0.011282959 -0.033572715 0.033919726 -0.023752768 0.0022780676 -0.012778567 0.060975853
0.015387057 0.021702375 0.03055465 0.02629988 0.0017667965 -0.018509598 0.0057823495 -0.012978937
0.007579986 -0.022438653 0.02224783 -0.0073790355 -0.029356463 0.04444509 -0.006817327 0.03674261
-0.0040405705 -0.008793721 0.044457983 -0.017888794 -0.014841969 -0.024537373 0.028703129 -0.019695552
-0.03311235 0.012289017 0.029603504 -0.0019411421 0.0061803362 -0.010883156 -0.029624188 -0.011608916
0.004343605 0.011675312 -0.018553011 0.03540715 0.060041618 -0.07935811 0.036747716 -0.029403543

base_model.model.bert.encoder.layer.0.attention.self.value.lora_A.default.weight f4 [8, 768]
00000000: 0bc7 613d a1e7 2abd e274 003d 5817 d03d
00000010: 1803 46bd 491f 653d 7a4b fa3d 9444 353d
00000020: 93cd 623d 4e31 903d a88d 49bd 6666 eabd
00000030: 1718 c8bc c797 253c cba2 07bc 7b32 e9bc
00000040: b49b df3c 2839 db3d a452 8abb ba73 51bc
00000050: dfe9 a0bc a300 c8bd 7a7a ff3c 1ff8 f8bc
00000060: a42a 683d 0bb3 b43c 7a30 983c 5bbe a2bc
00000070: 2893 6fbc b852 5fbd 168f 143b 6f5d abba
00000080: 7788 863d 2cd0 dc3c 09ea abbd 5fef 8cbd
00000090: 16b0 803d 7dd5 533d 04ae f5bd 0b45 6b3d
000000a0: d0da d73c a5ce 763d b9b8 c93c 0e0d 77bd
000000b0: 44dc 543d 231a 14bd f9f3 e3bb e9eb d23c
000000c0: 5467 2e3b cf99 05bd 3493 ebbc a952 923c
000000d0: 7633 543d faa7 0bbc 8d8c aebd c6f8 85bc
000000e0: 4c5e 5abc 7e07 be3d df68 2abd c7b0 52bc
000000f0: 85e0 013c e86c 833d d262 743d c568 4f3d
00000100: 9157 3cbd 272a b6bd c336 19bc 4666 06bd
00000110: faa7 ea3c 9f22 ac3d 2366 41bd a930 51bd
00000120: 7b59 7ebb a461 d7bc 5320 e13c 702f f5bc
00000130: a5de b3bd b517 af3c 250a c03b 03ed 503d
00000140: bfa4 5cbd 4dbf 9f3c 4ee4 803b ff44 2d3c
00000150: 303e b73b 5911 b23c 72c7 313d b9be 5dbc
00000160: 8e24 24bc 8251 de3b f103 8f3d a370 2b3c
00000170: 77d7 1fbd 4b67 6c3d 51f3 fdbc 81c5 bcbd
00000180: ea4d d13c 1dba a43d 3733 e73d 3e88 1bbd
00000190: 8036 473d 4416 68bc 1f8d 7b3d 7b21 053c
000001a0: 6c25 22bd f1df ae3c b753 e63c 881d 13bd
000001b0: 59ea 1dbd 6662 80bc 00be 573b 146e f63d
000001c0: f456 373d 3c67 96bc 1bf4 633c 6523 233d
000001d0: d85a c1bc 1eae 583a 96ff 963d 3116 96bd
000001e0: dd5a 223d 0650 a03d 3c0d 063d 1b6f abbb
000001f0: 7a9c 063d 02e3 55bd a52b 47bd f3bf 02bd
00000200: e559 27bd 3b22 5bbd b4aa ce3c 5da1 bd3c
00000210: c669 28bd 1176 9dbd 06ec 0b3d 5be8 9abc
00000220: 36d3 1bbd cd57 acbb 2003 d0ba 0b78 e3bb
00000230: 49ed abbd 2c6a e2bc bda0 98bd 9b54 8dbc
00000240: 4c99 a63b de57 13bd a3a5 06bd 93ca 73bc
00000250: cb5c 953d 8e4c 24bd 3901 6fbd 1c3b 453d
00000260: 36e5 843d e874 50bc bdfd ba3c 4383 f03c
00000270: 8533 6ebc d3e2 463d e44a 8abd 5ea2 06bd
00000280: 7f67 4d3d 42d8 373c d0ca 26bd 6513 673b
00000290: ddbf 52bd 2f24 e63c 2148 813d 6d61 833c
000002a0: 78b5 e3bc 197a 24bd 06c4 043d 1084 853d
000002b0: 3c0d e3bb 8a45 20bd d364 3a3d becd 5fbc
000002c0: e833 77bb 031b 873c 439a 08bd 5f2a d5bb
000002d0: 0b15 863c d010 c63d c680 1ebb f091 99bc
000002e0: d38b cf3a a6f5 543d 759b 1d3d c79b 49bd
000002f0: edf9 41bd 6097 e9bc 4dc2 dabd 5bf4 61bd
00000300: 0c42 dabc 5fc9 adbd 5bd2 3fbb 44cd dd39
00000310: 041f 5cbd 42ae 203c bc99 083d aa2d 56bd
00000320: 66e3 f1bc 3f27 aebc 2321 9abc f269 70bd
00000330: 2a29 a33c d8cf a6bd c428 ad3d 411b 563d
00000340: a87b b43d 6a9e aa3c 092c 933c b4a7 f2bc
00000350: 740f 23bc 7a9f 98bd 0924 0bbd 4819 01bd
00000360: 3d0c c53c 8d21 3e3d f2b2 db3c 8f8e ee3b
00000370: 9730 5ebc 154e b8bc 9267 2cbc 1c71 f9bc
00000380: 6f88 6ebb ae57 87bc 1eab dd3b 5451 293d
00000390: e0b5 86bd 764f 61bc c7de 043d d090 273d
000003a0: 0464 a93c 9d6a 3b3c 65e5 dcbc 414b 45bd
000003b0: 9257 54bd 2acc 4bbc 584e bf3c 2851 cd3b
000003c0: cacb bb3c 08d9 123b a298 55bd e5aa d13c
000003d0: 030f fb3a f087 c03c 07e2 82ba d447 50bb
000003e0: c68b 0ebb 704f 09be ad64 84bc a8b0 733d
000003f0: c055 0a3d d47c a93c c320 8ebc a469 3ebd
0.055121463 -0.041724805 0.031361468 0.101607025 -0.048342794 0.05593804 0.12221427 0.044254854
0.055371832 0.07040654 -0.04920736 -0.11445312 -0.02442555 0.010106987 -0.008278559 -0.028466454
0.027295925 0.10704261 -0.0042212773 -0.012783939 -0.019642768 -0.097657464 0.031186331 -0.03039175
0.05668129 0.02205803 0.018577803 -0.01986616 -0.014622487 -0.054522246 0.0022668294 -0.001307411
0.06568997 0.026954733 -0.08394248 -0.06881594 0.06283586 0.05171727 -0.119960815 0.05743889
0.026349455 0.060255665 0.024624215 -0.060315184 0.051967874 -0.03615774 -0.006956574 0.025747256
0.0026611881 -0.032617386 -0.028756715 0.017861681 0.05180689 -0.008523935 -0.08522902 -0.016353976
-0.013328146 0.09278773 -0.04160392 -0.01285953 0.007927065 0.064172566 0.059664555 0.050637025
-0.045981947 -0.08894759 -0.009351435 -0.03281238 0.02864455 0.08405041 -0.047216546 -0.051071797
-0.0038810659 -0.026291676 0.027481234 -0.029929847 -0.087827004 0.02137361 0.0058605843 0.051007282
-0.05386805 0.019500399 0.003933466 0.010575532 0.00559213 0.021736788 0.043403096 -0.013534241
-0.010018481 0.006784619 0.06983174 0.010463866 -0.039023843 0.057715695 -0.030999811 -0.092173584
0.025549848 0.08043311 0.11289065 -0.037971728 0.04863596 -0.014165465 0.06141388 0.008125658
-0.03958647 0.021347018 0.02811609 -0.035916835 -0.03855357 -0.01567192 0.0032919645 0.120327145
0.04476066 -0.018359773 0.01391318 0.039828677 -0.023602888 0.00082656916 0.07372968 -0.073284514
0.039637435 0.07827763 0.032727465 -0.0052317507 0.03286407 -0.052218445 -0.048625607 -0.03192134
-0.040857214 -0.05349944 0.025227882 0.023148233 -0.0411165 -0.07688535 0.034160636 -0.018909624
-0.038043223 -0.00525949 -0.0015870072 -0.0069418005 -0.08394868 -0.027638517 -0.074525334 -0.017252257
0.0050841924 -0.03597247 -0.032872807 -0.01487984 0.072930895 -0.04011207 -0.058350775 0.048152074
0.06489031 -0.012723185 0.02282607 0.029359465 -0.01453865 0.04855616 -0.067525655 -0.03286969
0.05014753 0.0112209935 -0.04072076 0.0035259363 -0.051452506 0.028093426 0.063125856 0.016037667
-0.027796492 -0.040155504 0.032413505 0.065193295 -0.006929068 -0.039128818 0.04550631 -0.013659893
-0.0037720148 0.016492372 -0.03335024 -0.006505295 0.016367456 0.096711755 -0.0024185642 -0.018746346
0.0015834518 0.05199208 0.038478334 -0.049220826 -0.04735749 -0.028514564 -0.10681591 -0.055164676
-0.026642822 -0.08485674 -0.0029269669 0.0004230534 -0.053740516 0.009807171 0.033349738 -0.052289642
-0.029527377 -0.021258948 -0.018814629 -0.058694787 0.01991709 -0.08145112 0.08455041 0.052272085
0.08812648 0.02082749 0.017965334 -0.029620983 -0.009952415 -0.07452293 -0.033969913 -0.03151825
0.024053687 0.046418715 0.026818726 0.007280178 -0.013561389 -0.02249817 -0.01052274 -0.030449443
-0.0036397239 -0.016521301 0.0067647835 0.041337326 -0.06577659 -0.013751855 0.03243902 0.04090959
0.020677574 0.011438993 -0.026964853 -0.04816747 -0.051841326 -0.012438813 0.023352787 0.006265778
0.022924323 0.0022407193 -0.052147515 0.025594184 0.0019154254 0.02350232 -0.0009985574 -0.0031781094
-0.0021750792 -0.13409209 -0.016161287 0.059494644 0.033773184 0.020689406 -0.017349606 -0.046487466

base_model.model.bert.encoder.layer.0.attention.self.value.lora_B.default.weight f4 [768, 8]
00000000: bcc4 ae3c 97f5 ddbc 63e9 173c 29eb c3bc
00000010: 2715 a93b e998 643c 4f25 5ebc eb12 17bd
00000020: 88d2 bebc afa7 6bbc 0cfd ef3c 315b fe3b
00000030: 9a1e 3dbc f2c8 763c 632a 913c 363d 0abd
00000040: 2624 06bb 2997 1c3d 3ea9 14bc bdff 583d
00000050: fcd4 3b3b 6389 013d 6132 5a3b 741d b43b
00000060: 4f28 07bd 51d6 0bbd 5e9f 1e3d a728 dd3b
00000070: 64c7 67bb 9675 163a 7eb0 013d 6ce9 6bbc
00000080: 2f1b 0d3d 1aad 8fbb 5cb6 e13c 39dc 073b
00000090: 1cc4 0bbd ea65 02bd ff1a 86bc 9a38 babb
000000a0: 73b1 603a 14ee 443d 1639 a53c 9ab2 62bb
000000b0: 9433 66bb ac3c 80bc d855 1bbc 7367 9bbc
000000c0: a7b3 d7bc 0aa5 a23a ffaa 0cbd dcb4 5a3b
000000d0: 39aa a8bd 92fb cd3c 9422 cbbb fdf6 43bd
000000e0: 998a 0a3d 3785 2dbd a0f6 d0bb c289 593b
000000f0: 951c dbbc ed14 533d 764d d8bc 0fec 81bd
00000100: 2f4c 7e3c 5634 2ebd bd28 0bbd b10b 53bc
00000110: 6879 283a c3a4 ec3c df1c c5bc 2951 aebc
00000120: f241 573c ef61 923c 7752 1a3c 02bc febc
00000130: 0f8d 133c 6ffe e53b 091b cabc 8f2e e8bc
00000140: 3278 2b3c 5fad fcbc 0609 913b f56a 4cbd
00000150: 1ad8 413c 0d8a 4dbd 3bde 263b 1189 c0bc
00000160: d01a b2bc 1c3d 6a3d 1542 473d 0d95 7d3c
00000170: fdad 143c 52ec 3a37 548f 653d 6193 5b3d
00000180: 2339 31bb 6d73 febb 7307 4539 bdc7 803b
00000190: 598e 56bc 1286 65bb 666f a53b 1b6a fc3b
000001a0: 9e27 07bc 1988 d8bc 6180 98bd ebe1 163d
000001b0: a966 323c ef0c 323c 4b48 28bd fc19 323c
000001c0: caff edbb 10ff 2d3d cb96 a23c cb07 113c
000001d0: b954 1abc 4141 573b dc33 c33c ebc0 9c3c
000001e0: 52cd 033c db4c 00bb e429 b5bd 8f35 0d3d
000001f0: 0a67 71bc da85 623d 4153 93bd 987e 87bd
00000200: 66ab c93c 2480 163d 1c93 d9bc ea6a 93ba
00000210: 2134 073c dd02 40bc 8637 123c 6d75 e23b
00000220: 0109 463c 97f9 0b3d cbc7 2e3c 1483 193d
00000230: c4c4 423c a624 44bc 4863 91ba 1c5d 50bc
00000240: f6d2 103d b476 4b3c 817c fc39 4eed 21bb
00000250: b9cf 6bbc 063d 483d 87a7 41bb d30f f0bc
00000260: 8eec 46bd 70ad a33c b2d3 563d e73a 82bc
00000270: b932 d23c 14ca 80bd 81c7 e43c 86de 1a3d
00000280: 752d 64bb 5631 82bc 41b3 203c 74c8 8a3a
00000290: b9eb d3bb 5775 563c a8d3 433c 7d6f a1bc
000002a0: fd80 dd3c 2a43 35bc 7177 56bd 1643 b0bb
000002b0: bfb4 8bbb bdbd 943d e63f 84bb e3d6 16bd
000002c0: 9e9b e9bb d4e5 443b 1c61 3f3d 0cbb 11bc
000002d0: 3043 473c 2bc3 b1bc 4cc4 b23c 2f9e c13c
000002e0: d71d 4abc b496 593d 28bb debc e4d1 903b
000002f0: 4e1f 5cbc 38bb b5bb f176 80bc 255e 8e3c
00000300: c948 9bbc df0f 96bc a804 bd3c c03f 893c
00000310: 63fb e93c b53f 813b b8e1 3d3c d8e4 7939
00000320: eb88 22bd b30d 3cbb 5a30 663d 9734 95bc
00000330: 31ed 813b 3abf 28bd e260 563c 319e a33c
00000340: c604 febb 2f4e 24bd ec83 8abb f67b 733a
00000350: 306d 823c 31de 823b fd42 c9bc b1aa 8abc
00000360: 0f0e e03c 2b31 85bd 2640 07bd f492 df3c
00000370: e195 57bd b3cf 043d 497a 84bd bbe8 2abd
00000380: 924b b53d da53 38bd 358e cbbb 4bfb afbc
00000390: 8ecf 8fbc 9411 7b3c 3ce6 e5ba 5052 413c
000003a0: 041e 043a 13a0 c23d 6e65 c33b 6af7 be3c
000003b0: 8ae8 00bd 55fe f839 558c b13c 1c33 843c
000003c0: b80c 62ba 18fe 903d f1a9 0d3c 24ce 193d
000003d0: 384f 0b3c d908 703b 21c4 663c 4d0d 0e3c
000003e0: 6e81 833c f4a1 9f3d 07f5 fb39 19b5 a03c
000003f0: 62b2 04bd 9159 f43c ae77 1a3b df79 5f3d
0.021334045 -0.027094645 0.009271952 -0.023915844 0.0051599923 0.013952472 -0.0135587 -0.036883276
-0.023293748 -0.014383241 0.029295467 0.0077623357 -0.0115429405 0.0150625575 0.017720407 -0.03374978
-0.0020468323 0.038230095 -0.009073554 0.052978266 0.0028660884 0.031625163 0.0033294188 0.005496675
-0.032997426 -0.034139935 0.038726203 0.006749231 -0.0035366649 0.00057395676 0.031662457 -0.014398914
0.034449752 -0.004384649 0.027552776 0.0020730628 -0.03412257 -0.031835474 -0.016370295 -0.005683017
0.0008571364 0.04807861 0.020168822 -0.0034591318 -0.0035125958 -0.01565393 -0.009480916 -0.018970227
-0.026330782 0.0012408805 -0.034342762 0.003337196 -0.082355924 0.025144372 -0.0061991904 -0.04784297
0.033823583 -0.04236337 -0.0063770562 0.0033193682 -0.026747027 0.05153363 -0.026404124 -0.06343853
0.015521093 -0.04253038 -0.033974398 -0.012881205 0.00064267823 0.028887158 -0.024061618 -0.021278935
0.013138281 0.017868964 0.009419075 -0.031095508 0.009005799 0.0070188562 -0.024671094 -0.028342513
0.0104656685 -0.030844389 0.0044261245 -0.04990669 0.011831308 -0.050180484 0.002546205 -0.023502858
-0.0217413 0.057187185 0.048647005 0.015477431 0.009074685 1.11414865e-05 0.05604489 0.05360735
-0.0027042113 -0.0077652247 0.00018790159 0.0039300607 -0.013095462 -0.003502254 0.00504868 0.0077030784
-0.008249192 -0.026432084 -0.07446361 0.036836546 0.010888734 0.010867341 -0.04108457 0.010870453
-0.0072631584 0.042479575 0.019847294 0.008851956 -0.0094196135 0.003284529 0.02382844 0.01913496
0.008044558 -0.001957706 -0.08845881 0.034474906 -0.014734039 0.055303432 -0.07193614 -0.06615943
0.024617862 0.0367433 -0.026559405 -0.0011247073 0.008252175 -0.011719433 0.008924371 0.006910971
0.012087108 0.034173574 0.010667752 0.03747852 0.011887733 -0.011971628 -0.001109221 -0.0127175115
0.035357438 0.012418438 0.00048157948 -0.0024708095 -0.014392787 0.04888632 -0.0029549317 -0.02930442
-0.04856544 0.019980162 0.052447982 -0.015897227 0.025658952 -0.06288543 0.027927162 0.03780987
-0.0034817134 -0.015892666 0.009808362 0.0010588304 -0.0064673093 0.013089499 0.011952318 -0.019706482
0.027039045 -0.011063376 -0.052360002 -0.005379091 -0.00426349 0.07262752 -0.0040359376 -0.036826026
-0.0071291467 0.0030044215 0.04672347 -0.008894693 0.012162015 -0.021699509 0.021822117 0.023634998
-0.012336216 0.053122237 -0.027188852 0.004419552 -0.013435198 -0.005546 -0.015681716 0.017378876
-0.018955605 -0.018318115 0.02307351 0.016754031 0.028562253 0.003944362 0.01158946 0.00023831741
-0.039681356 -0.0028694689 0.056198455 -0.018213553 0.003965043 -0.041197993 0.013084622 0.019972892
-0.007752034 -0.040113624 -0.004227152 0.0009288186 0.015921205 0.0039937724 -0.024568075 -0.016927095
0.027350454 -0.06503519 -0.03302016 0.027291752 -0.05263317 0.03242464 -0.064686365 -0.041725855
0.088523045 -0.045001842 -0.0062120208 -0.02148213 -0.017555024 0.015324015 -0.0017539929 0.01179941
0.0005039873 0.09503188 0.005963019 0.023311336 -0.031471767 0.00047491738 0.02167336 0.016137652
-0.0008623111 0.070797145 0.008646474 0.037550107 0.008502774 0.0036626367 0.014084847 0.008670163
0.016052928 0.07794562 0.0004805701 0.019617604 -0.03239668 0.029827865 0.002356987 0.054559585

base_model.model.bert.encoder.layer.1.attention.self.query.lora_A.default.weight f4 [8, 768]
00000000: 742f 36bd 95aa 38bc adf3 ccbc e401 d93c
00000010: 1e9c 893d 0e2c 873b 9381 563d 942a 6b3d
00000020: 6c1e f53c 6533 1cbc fe68 0cbd 0316 753d
00000030: 92b0 5cbd 5ca4 30bd c9d1 693a 1deb ef3d
00000040: 2e36 32bd 8a00 873d 642d dab9 e5a8 483c
00000050: fb69 843d f557 58bb 47a0 f5ba 207b 543b
00000060: 89af 423d 4447 c6bc 2f31 703a a5fc 52bc
00000070: 8c00 2d3c 83cd f5bc cb05 e23c cb92 fe3c
00000080: ddb1 1dbd 1362 e5bc 3e55 de3c 1556 e1bc
00000090: 3e9b 8cbc b78e 783d f820 993d 407a 8e3c
000000a0: b0d7 813c c932 4dbc c2fb 503d 5e1f dc3c
000000b0: 60c4 a83b aa0d 8ebd e9b1 8dbd 0ae2 33bd
000000c0: fc70 0e3d c14f 16bc 2f5e 7d3d 0b23 5dbb
000000d0: a7f6 da3d 4ddd 0abd 9df0 cebc 5a01 bbbd
000000e0: bed9 af3d 343c 943c a068 c63a 1183 ea3c
000000f0: b797 6f3c 11d7 19bc 80d3 e3bc 4ae5 54bd
00000100: e7f8 463c bfdf 893c b563 5fbb 734d 363c
00000110: fef7 faba aa17 f23c 4a2a 813c 71e3 a13d
00000120: b0ed c0bc 3def 313b 2f3b 96bb a7b8 d13d
00000130: 7062 fcbc 5fb6 7bbc 2af1 acbc b018 de3c
00000140: cd90 433d f5a1 f5bd 9328 0f3d 0e0f 193d
00000150: 5c67 3539 d48f d93d f031 d03c f8e1 8abc
00000160: 3845 c73b 2441 123d 973a 66bd 570a c5bd
00000170: 0132 9ebc 57e3 b8bc f191 d83c d9ae e93d
00000180: 4c85 d73d eac6 32bd 1d37 483d aef8 273d
00000190: d3a2 103d 387b 2ebd 077f 59bc 1edc 43bc
000001a0: 116f 95bd 64fe 24bd 15a1 8b3d cfbe 1e3d
000001b0: 81bf 77bd 2e72 0d3d 994e 653c 72f8 42bd
000001c0: c6b4 2cbe 1acf 16bd f085 82bc 37b4 0abd
000001d0: 94de 103d f2de 3b3d 61e4 73bd b01b 80bd
000001e0: 9f4d 9a3d a830 dbbd 1e8e 9bbd c2cc 55bd
000001f0: 662b 183b 9986 d7bc e44a dd3b bbac d43d
00000200: 38bf 36bd 6902 d4bc 1415 dcbc a97a eb3c
00000210: 81a7 a2bc e5eb d5bd 7322 94bd e025 273d
00000220: df06 f8bc d412 16bd ebba 753d 8d25 013d
00000230: aeca 36bd 776e 0f3b 4843 d7bb 3db7 4f3d
00000240: b1b6 803d 7ebd 71bc ddeb 903d 99c8 833b
00000250: 53b7 853b 37e3 92bd fd38 8fbd 051f aebc
00000260: 6b34 903c 3b19 e0bc 6cb8 dd3b 857a 81bd
00000270: 150c b23c 884e 03bd 6804 8c3c 50b5 4a3d
00000280: 37b4 563d d53b f23b 2107 863d 53ed a1bd
00000290: 0f7b ac3b abfe 2e3d 5d24 a3bd b13a 9f3d
000002a0: 4e12 ed3c 3837 13bc 2109 bdbd c116 a4bd
000002b0: 2489 8a3c e6d5 a73c b3e4 d13a 06a5 1a3c
000002c0: 9200 0f3c c917 e43b 25b0 883c 8d1d 7e3c
000002d0: 260d 0f3d 17d1 253d d741 893c baf7 733d
000002e0: 369c 72bd f0f0 893d abf0 113d d61e 563d
000002f0: 38c5 a7bc f73f eebc 9d0a 1b3d b1c9 983d
00000300: e0d9 4e3d 6cb4 06bd 1b0c bd3d 9da6 7dbd
00000310: e494 95bc 42e2 883d 28a3 86bb 45d6 79bd
00000320: c8c8 533c f1ab 943d 8402 7dbd d0a3 8d3d
00000330: a958 e03d ada9 b1bd 8b1f 0dbd 8e77 29bd
00000340: 0cf8 48bd ce23 58bb d110 e0ba 841f 6cbd
00000350: 848f 1cbd 9eef fe3c 181c 91bc 6235 103d
00000360: 2a4c acbc bc3b 0c3b c864 193d a019 6d3c
00000370: 1ba9 a93d 67a3 b0bc bb67 9abd cf3b 83bd
00000380: 8a40 27bd 1ebe 1f3d feba 90bc e47d 90bc
00000390: f6fd 12bd 95cc c73d 71ce 3cbd be78 383c
000003a0: 1cdc f1bb b0b3 c8bb 165b 723d 9b9c f4bc
000003b0: 953a 6c3b 94db 663d 2e00 533d 35d6 893c
000003c0: 3f9d aaba 7ade cabb 5b87 4fbd 231b eb3b
000003d0: 8ff8 e5bc 820e b3bc b950 bbbc eaa0 1dbd
000003e0: 6ce2 893c 8223 99bc 1977 b9bc 65cb a43c
000003f0: 9b41 013d d47c 023d 5dab d03d 5ec9 70bb
-0.04447885 -0.011271139 -0.025018537 0.02649016 0.0671923 0.004125125 0.052369665 0.057413653
0.029921733 -0.009533738 -0.034279816 0.059835445 -0.053879328 -0.043125495 0.0008919505 0.11714766
-0.0435087 0.065919 -0.0004161402 0.012247299 0.06465527 -0.003301141 -0.0018739783 0.003242202
0.047530685 -0.024203904 0.00091626024 -0.012877618 0.010559212 -0.030005222 0.027590653 0.031075856
-0.0384997 -0.028000867 0.027140256 -0.027506867 -0.017163869 0.06068298 0.074769914 0.017392278
0.015849918 -0.012524315 0.051021345 0.026870426 0.005150363 -0.069362 -0.06918699 -0.04391674
0.03477572 -0.009174288 0.0618574 -0.003374281 0.106915765 -0.033902455 -0.025261218 -0.09131117
0.08586453 0.018095113 0.0015137382 0.02862695 0.014623574 -0.009389655 -0.027810812 -0.05197648
0.012144304 0.016830323 -0.003408653 0.011126864 -0.0019147394 0.0295523 0.015767235 0.07904709
-0.023550838 0.0027150654 -0.004584692 0.10240298 -0.030808657 -0.015363305 -0.02111109 0.027111381
0.047745515 -0.119937815 0.034950804 0.037367873 0.0001730001 0.10623136 0.025414437 -0.016953453
0.0060812496 0.035706654 -0.05620822 -0.09621113 -0.019310953 -0.022569342 0.026436778 0.11410303
0.10523471 -0.04364673 0.048880685 0.041008644 0.03531153 -0.04259798 -0.013274915 -0.0119543355
-0.07296575 -0.04028167 0.06817833 0.038756188 -0.060485367 0.03453272 0.01399579 -0.047600217
-0.16865835 -0.0368186 -0.015933007 -0.033863273 0.035368517 0.045866914 -0.05954397 -0.06255281
0.07534336 -0.1070264 -0.07595466 -0.052197225 0.0023219227 -0.026309298 0.0067533124 0.10384508
-0.044615954 -0.025880056 -0.02686552 0.028745012 -0.019855263 -0.10445384 -0.07233133 0.040807605
-0.030276714 -0.03663905 0.059992712 0.03152995 -0.044626884 0.002188591 -0.0065693 0.05071186
0.062848456 -0.014754651 0.07076237 0.004021716 0.004080692 -0.07172244 -0.069932915 -0.021255026
0.01760312 -0.02735578 0.0067663696 -0.06322197 0.021734277 -0.032057315 0.017091945 0.04948932
0.05241796 0.0073923864 0.065443285 -0.07906594 0.005263693 0.04272334 -0.0796592 0.07774866
0.028939392 -0.008985333 -0.09230257 -0.080121525 0.016911097 0.020487737 0.0016013592 0.009438759
0.008728163 0.006960843 0.016685555 0.015509975 0.03492465 0.040482607 0.016755028 0.059562422
-0.059231006 0.06735408 0.03562991 0.0522755 -0.020479783 -0.029083235 0.03785192 0.074603446
0.05050075 -0.032886907 0.092308246 -0.061926473 -0.018259473 0.0668378 -0.004108805 -0.06099536
0.012926288 0.07259358 -0.061769977 0.069160104 0.109544106 -0.08674941 -0.03445391 -0.04137378
-0.04906468 -0.0032980326 -0.0017094855 -0.057647243 -0.038222805 0.031120118 -0.017713591 0.03520716
-0.021032412 0.002139791 0.037449628 0.0144714415 0.082842074 -0.021562291 -0.07539316 -0.06407892
-0.040833034 0.03899967 -0.01766729 -0.017638154 -0.035886727 0.09755818 -0.046095315 0.011259256
-0.0073809754 -0.006124936 0.059168898 -0.029859832 0.003604566 0.05636175 0.051513843 0.016825775
-0.0013016834 -0.006191072 -0.050666194 0.007174866 -0.028072624 -0.021857504 -0.02286564 -0.038483538
0.0168316 -0.01869369 -0.022639798 0.020116517 0.031556707 0.031857327 0.10188935 -0.0036741118
