唐雪亮/week02/model.bin (torch, 1612 bytes, 2 tensors)

linear.weight f4 [5, 5]
000000 e3 5d 2e 41 47 96 90 c0 68 bb 83 c0 90 51 87 c0
       10.897922 -4.5183444 -4.1166267 -4.2287064
000010 a5 a1 92 c0 d1 48 8a c0 ed 92 29 41 cf d8 80 c0
       -4.582232 -4.3213887 10.598371 -4.026466
000020 d5 ab 86 c0 b1 a0 90 c0 b1 8f 8b c0 05 de 8f c0
       -4.2084756 -4.5196157 -4.3612905 -4.495852
000030 69 0e 32 41 5a fb 88 c0 f6 8f 94 c0 7a b8 8c c0
       11.128518 -4.2806826 -4.6425734 -4.397519
000040 81 c2 90 c0 a2 47 83 c0 a5 a9 2f 41 14 ed 91 c0
       -4.523743 -4.1024942 10.978917 -4.56019
000050 85 d4 89 c0 22 06 91 c0 da df 7c c0 59 b1 85 c0
       -4.3071923 -4.5319986 -3.9511628 -4.177899
000060 79 87 29 41
       10.595574

linear.bias f4 [5]
000000 86 7f 05 3d fc c2 27 bc 60 0e 49 3d 36 6f 1d 3d
       0.03259232 -0.010239359 0.049085975 0.038436137
000010 0d 3e 0c bd
       -0.034238864
