许洪腓/week13/model_output/epoch_20.pth (torch, 479483 bytes, 23 tensors)

base_model.model.bert.encoder.layer.0.attention.self.query.lora_A.default.weight f4 [8, 768]
0.020537596 -0.03471501 0.05138757 -0.111975856 -0.028894305 -0.031778976 0.037330296 0.016102964
-0.070682056 0.01894535 0.013998348 0.056249246 -0.01979954 -0.018135369 -0.025704574 0.02171534
-0.018091263 0.09180113 0.019591609 -0.060538393 0.014663118 0.08346098 0.029255912 -0.012138601
0.04412057 0.0010780554 -0.042706355 0.019046614 -0.012386254 -0.05544761 0.039090764 0.0067516672
0.055217434 0.0054917457 -0.018141545 -0.062193725 0.043302175 0.10511318 -0.020510118 -0.016006496
-0.018990684 -0.0044337767 -0.035943903 -0.035748646 -0.028207226 0.010097475 0.04187146 0.011056853
0.08381975 -0.050067097 -0.035312854 -0.03325329 0.0020098058 0.03260827 0.033427995 -0.02176085
0.020266214 0.026202736 0.040606435 0.026181832 -0.028544696 -0.02705513 0.010759451 -0.005646446
-0.020481335 0.019432537 0.049611423 0.04240565 -0.02950368 -0.028574195 0.038387284 -0.07899152
-0.0036117854 0.07315579 -0.022864107 -0.025110355 -0.080521405 0.04202191 -0.046883978 -0.09879463
0.05987035 -0.045184407 0.043509215 -0.07288781 0.048385452 -0.036268845 -0.004721391 -0.031109197
0.05951463 -0.012450279 0.009532644 -0.074165456 -0.050786145 -0.0022977986 -0.013630383 -0.07302519
-0.0050874483 -0.04084368 0.012584806 -0.042690676 -0.020614933 -0.035555284 0.08596062 -0.020117568
0.062103353 0.0013976886 0.022995232 -0.04833052 -0.06592165 -0.057468574 0.100602806 0.03654137
0.013705156 -0.020969573 -0.06700116 0.02289726 0.0043721683 0.008596723 -0.03151148 0.042936124
-2.9441202e-05 0.03482919 0.0044148117 -0.01086684 0.07036719 0.007035505 -0.023691567 -0.0034315225
0.015515631 -0.029053116 -0.0040553026 0.09188686 0.03579782 -0.069797724 -0.067394756 0.037626784
-0.0048077507 -0.026628979 -0.000989825 0.116456956 -0.016067117 -0.009162681 -0.01364196 0.03920232
0.007469403 -0.055765793 0.014905747 -0.16263352 -0.07586729 -0.02914047 0.014616141 0.03909745
0.0020616024 -0.011157883 0.011945968 0.02687065 -0.031518783 0.015151121 -0.010470766 0.018572051
0.077621885 0.05746491 0.035630427 -0.06847594 -0.035710286 -0.043103304 -0.052026443 0.041080818
0.0355611 -0.020183507 -0.01750601 0.052717336 -0.10250982 -0.016333586 -0.060180664 0.0014903898
-0.042479847 -0.046629224 0.010248192 0.022591079 -0.06280799 -0.045280088 0.009241307 -0.032796327
-0.033593692 0.0123162195 -0.105199784 0.014700433 -0.003392838 -0.03650895 0.034280755 -0.002871924
0.023606049 0.024436375 0.031836297 -0.032985196 0.030272868 -0.030490803 0.001876612 -0.003266566
-0.046876904 0.023930585 0.043289643 -0.013435881 -0.03288479 0.032715384 0.078856125 -0.0053608804
0.028072532 0.024838269 0.083419025 -0.0005232694 0.062304933 -0.0045461943 -0.029212512 -0.0017048984
-0.0025009017 0.018236907 0.0042553213 -0.030651834 0.013428806 -0.008864522 0.06765243 0.031673156
-0.024819173 0.0497403 0.053214088 0.05241692 0.005478535 0.037362225 -0.056145098 0.060396925
-0.060055796 0.031569384 -0.045568194 -0.044710167 0.036697697 0.0018520677 -0.009226467 0.056544155
0.03452489 -0.03609157 -0.08324931 0.017644482 -0.0031310827 -0.039768163 -0.0525575 -0.015464121
-0.073375694 0.0094411345 0.019137718 -0.03683806 0.06769241 -0.034532357 -0.069265716 -0.09040201
00000000: 763e a83c 5431 0ebd c67b 523d 9953 e5bd
00000010: c0b3 ecbc ac2a 02bd a7e7 183d 5dea 833c
00000020: c1c1 90bd 4733 9b3c 5459 653c 9c65 663d
00000030: a532 a2bc a090 94bc 6692 d2bc 5ee4 b13c
00000040: 2134 94bc 3b02 bc3d 957e a03c 1bf7 77bd
00000050: 933d 703c 97ed aa3d 18aa ef3c fce0 46bc
00000060: c5b7 343d 894d 8d3a dcec 2ebd a507 9c3c
00000070: b7ef 4abc 081d 63bd a31d 203d 173d dd3b
00000080: ad2b 623d 1af4 b33b 949d 94bc d9be 7ebd
00000090: 9f5d 313d 9445 d73d d604 a8bc 0e20 83bc
000000a0: 5a92 9bbc 3749 91bb ea39 13bd 2c6d 12bd
000000b0: d712 e7bc e16f 253c 6881 2b3d ce27 353c
000000c0: b0a9 ab3d 2813 4dbd 36a4 10bd 9a34 08bd
000000d0: f2b6 033b 4090 053d cbeb 083d cf43 b2bc
000000e0: 5505 a63c 1fa7 d63c ef52 263d 487b d63c
000000f0: 91d6 e9bc b8a2 ddbc 6948 303c d205 b9bb
00000100: 79c8 a7bc fc30 9f3c 5935 4b3d 8cb1 2d3d
00000110: b4b1 f1bc 6e14 eabc fc3b 1d3d 4ec6 a1bd
00000120: b4b3 6cbb b4d2 953d 824d bbbc 3bb4 cdbc
00000130: 68e8 a4bd 2b1f 2c3d 6a09 40bd d754 cabd
00000140: 9d3a 753d 4913 39bd b836 323d 3446 95bd
00000150: d32f 463d a48e 14bd e6b5 9abb b7d8 febc
00000160: 9dc5 733d 41fc 4bbc cf2e 1c3c 0fe4 97bd
00000170: 2205 50bd aa96 16bb f851 5fbc 3b8e 95bd
00000180: 9cb4 a6bb b44b 27bd 8130 4e3c 6bdc 2ebd
00000190: a6e0 a8bc 6ba2 11bd 1f0c b03d 99cd a4bc
000001a0: 1660 7e3d a632 b73a 7f60 bc3c 39f6 45bd
000001b0: ee01 87bd 2b64 6bbd d808 ce3d 67ac 153d
000001c0: 978b 603c 62c8 abbc e737 89bd 0993 bb3c
000001d0: 6844 8f3b 45d9 0c3c 2f12 01bd cadd 2f3d
000001e0: 80f8 f6b7 0da9 0e3d 20aa 903b d50a 32bc
000001f0: ac1c 903d 188a e63b d114 c2bc 65e3 60bb
00000200: 4635 7e3c cd00 eebc 58e2 84bb 2e2f bc3d
00000210: bca0 123d 1cf2 8ebd 4306 8abd 8b1e 1a3d
00000220: 568a 9dbb 0425 dabc 04bd 81ba fc80 ee3d
00000230: 309f 83bc 121f 16bc 8782 5fbc 9d92 203d
00000240: e5c1 f43b ac6a 64bd 3c37 743c 6789 26be
00000250: 4f60 9bbd ffb7 eebc 8a78 6f3c a624 203d
00000260: f31b 073b 8ecf 36bc 05b9 433c d61f dc3c
00000270: d719 01bd 683c 783c 938d 2bbc 6a24 983c
00000280: 39f8 9e3d 5360 6b3d 36f1 113d 1d3d 8cbd
00000290: f344 12bd 178d 30bd ae19 55bd 5c44 283d
000002a0: 84a8 113d e257 a5bc c468 8fbc 22ee 573d
000002b0: abf0 d1bd 03ce 85bc 0080 76bd 2f59 c33a
000002c0: 59ff 2dbd 49fe 3ebd 08e8 273c ed10 b93c
000002d0: 7aa1 80bd 9d77 39bd da68 173c 7155 06bd
000002e0: 8a99 09bd f8c9 493c fc72 d7bd 16da 703c
000002f0: 605a 5ebb 698a 15bd fa69 0c3d e436 3cbb
00000300: 7961 c13c cb2e c83c c766 023d 7c1b 07bd
00000310: cefe f73c d9c7 f9bc a6f8 f53a e213 56bb
00000320: ff01 40bd 130a c43c 7b50 313d 2b22 5cbc
00000330: 34b2 06bd 9100 063d 527f a13d 53aa afbb
00000340: 5ef8 e53c a079 cb3c 98d7 aa3d 042c 09ba
00000350: 7533 7f3d 3ef8 94bb 144f efbc e676 dfba
00000360: 2be6 23bb 9165 953c 3970 8b3b 8e19 fbbc
00000370: 7f04 5c3c 803c 11bc 5b8d 8a3d b6bb 013d
00000380: 9451 cbbc 7cbc 4b3d 04f7 593d 20b3 563d
00000390: 4885 b33b 2209 193d 67f8 65bd c462 773d
000003a0: 11fd 75bd e64e 013d b7a5 3abd 0222 37bd
000003b0: 5350 163d 14c1 f23a 9c2a 17bc d89a 673d
000003c0: f969 0d3d c1d4 13bd 9d7e aabd 298b 903c
000003d0: da32 4dbb f1e3 22bd 8846 57bd 395d 7dbc
000003e0: ff45 96bd fdae 1a3c b4c6 9c3c 81e3 16bd
000003f0: 51a2 8a3d cd71 0dbd 2fdb 8dbd b024 b9bd

base_model.model.bert.encoder.layer.0.attention.self.query.lora_B.default.weight f4 [768, 8]
0.014379576 -0.031955577 0.046672802 -0.038846288 -0.069795355 -0.0003594443 -0.0066013434 0.06556443
-0.020344345 0.04705308 -0.00015716132 -0.05046138 -0.05767072 -0.02970237 -0.009754353 -0.007200693
-0.0033174418 -0.0019090651 0.033362314 -0.0276864 0.01899163 0.021042358 0.004864808 0.021222217
0.024213437 -0.014514339 -0.011601873 -0.032179248 -0.0036559775 0.032043856 -0.04574892 0.051163875
-0.028019745 0.02229599 -0.014572068 -0.042061623 0.05795555 -0.06723084 0.018901834 -0.07927132
-0.043927923 0.020610804 -0.08213172 0.032701798 -0.046321668 -0.012446383 -0.031083189 -0.05525416
-0.011799755 0.021538578 -0.019316262 0.0018181589 -0.027646296 -0.049118772 -0.01317691 -0.034808137
0.0073213214 0.021554103 -0.003848603 0.017788457 -0.013455231 0.0062208064 -0.048391197 -0.009099926
0.00036682835 0.008705351 0.03031238 -0.05468865 -0.018395828 -0.06120369 0.051555037 0.0325253
0.039635 0.048301406 0.021338608 -0.03619177 -0.04783802 0.06808555 0.038768806 0.042797618
0.0065039913 -0.01324977 0.02589276 0.051862057 -0.009096589 0.004013444 -0.08814968 0.017674396
-0.018792808 -0.006086495 0.033432037 -0.05776748 0.05425619 -0.014977678 -0.00683077 0.020204963
0.017697062 -0.019375175 0.008013575 0.054917533 0.0040919418 -0.032957256 0.04029924 0.005806918
-0.020919073 0.059246987 -0.025488714 0.036456466 -0.016404474 0.024891607 0.041078106 -0.04455369
0.0502703 -0.038565923 -0.05334175 0.023390427 0.018333998 0.055862695 -0.040208466 0.054253303
-0.03619284 -0.008922032 -0.040321045 0.017545158 -0.016195217 0.02235102 0.046628106 0.031283356
-0.020584324 0.0352918 -0.015071999 0.021283217 -0.0055753514 0.06008895 0.012086611 0.013703965
-0.011704194 -0.046786766 0.016158372 -0.056231685 0.042012278 0.034725215 -0.035264514 -0.0024680027
0.036096647 -0.0067462004 -0.018956354 0.04391144 -0.08365282 -0.0075447867 -0.042627163 -0.053614005
-0.064642124 0.016275916 -0.028614685 -0.036242552 0.03506938 0.059844874 0.015659861 -0.0018890697
-0.017688105 -0.06447163 0.0073454585 0.007722445 0.057138808 -0.021674752 0.055309493 0.03709939
0.0022555378 0.07966347 -0.00074385875 -0.034974713 -0.006486204 -0.025938226 0.072711244 0.0063620177
0.0010228263 0.01730703 0.0015716242 -0.022052197 -0.020159986 0.010314255 -0.049167488 -0.0008002911
0.033283923 0.02222513 0.023377934 -0.07181408 -0.08033223 0.004038713 -0.012591698 0.0050998908
0.036190793 -0.058549155 0.0023852265 -0.00461285 0.04845873 0.022496369 -0.016629253 0.03464824
0.005643758 0.008673601 0.08562166 0.03549732 -0.03291589 -0.11855739 0.07707877 0.07657758
-0.0023259753 -0.0056283097 -0.048607763 -0.03185026 -0.02007435 -0.013672099 -0.013433274 -0.004238911
-0.040090036 0.035376422 -0.057782292 0.043583777 -0.0104794 0.027349856 -0.0337525 -0.080695115
0.019928193 0.062901735 -0.003029528 -0.035011694 -0.022204356 -0.032925714 0.02977992 -0.03308928
0.009952831 0.08743848 0.04041397 0.003075922 -0.048038907 2.3449538e-05 -0.03651326 -0.020322371
0.005838261 -0.006067213 0.003771869 -0.02626771 0.0045773652 -0.066072956 0.045371056 -0.0621169
0.05157306 -0.059984595 0.03926689 0.0025355297 0.0032065434 0.018891968 0.035273656 0.042798795
00000000: 5098 6b3c dae3 02bd fb2b 3f3d 491d 1fbd
00000010: def0 8ebd cc73 bcb9 1550 d8bb a546 863d
00000020: 2fa9 a6bc bbba 403d accb 24b9 98b0 4ebd
00000030: 2238 6cbd 6252 f3bc b9d0 1fbc caf3 ebbb
00000040: 7069 59bb 9839 faba eca6 083d 97ce e2bc
00000050: 5694 9b3c 0661 ac3c f868 9f3b 37da ad3c
00000060: 425b c63c 8dcd 6dbc c815 3ebc 63ce 03bd
00000070: 2099 6fbb 6b40 033d 3863 3bbd 3691 513d
00000080: aa89 e5bc 14a6 b63c afbf 6ebc cf48 2cbd
00000090: cc62 6d3d 53b0 89bd 05d8 9a3c 0059 a2bd
000000a0: c4ed 33bd fdd7 a83c ad34 a8bd 52f2 053d
000000b0: cabb 3dbd eaeb 4bbc 2ca2 febc 3052 62bd
000000c0: c253 41bc ac71 b03c 233d 9ebc 4a4f ee3a
000000d0: 7c7a e2bc c430 49bd f7e3 57bc fa92 0ebd
000000e0: b2e7 ef3b 3b92 b03c d838 7cbb 19b9 913c
000000f0: 5473 5cbc e8d7 cb3b d935 46bd db17 15bc
00000100: de52 c039 e3a0 0e3c ab51 f83c 3501 60bd
00000110: d9b2 96bc b8b0 7abd 602b 533d 4039 053d
00000120: 4f58 223d b2d7 453d 4ece ae3c d23d 14bd
00000130: cdf1 43bd 7070 8b3d 0acc 1e3d 8e4c 2f3d
00000140: 6f1f d53b 9015 59bc 0e1d d43c 4f6d 543d
00000150: dc09 15bc 3583 833b d287 b4bd e5c9 903c
00000160: 60f3 99bc 3871 c7bb 08f0 083d 989d 6cbd
00000170: bd3b 5e3d ef64 75bc a7d4 dfbb e184 a53c
00000180: 6ef9 903c b0b8 9ebc 5f4b 033c 35f1 603d
00000190: b215 863b 30fe 06bd d110 253d f547 be3b
000001a0: 7a5e abbc f8ac 723d b5cd d0bc 6053 153d
000001b0: ad62 86bc 7ce9 cb3c 8441 283d ee7d 36bd
000001c0: 3be8 4d3d 4df7 1dbd e17c 5abd 489d bf3c
000001d0: 2e31 963c 48d0 643d a2b1 24bd b638 5e3d
000001e0: f23e 14bd b72d 12bc ae27 25bd ddba 8f3c
000001f0: d5ab 84bc 7c19 b73c 1dfd 3e3d fa22 003d
00000200: 75a0 a8bc 228e 103d 8cf0 76bc 245a ae3c
00000210: 70b1 b6bb d51f 763d ec06 463c 9886 603c
00000220: f3c2 3fbc 7ba3 3fbd 905e 843c 3253 66bd
00000230: 1115 2c3d 073c 0e3d 8671 10bd 37be 21bb
00000240: 14da 133d 3b0f ddbb 5b4a 9bbc 7bdc 333d
00000250: 2b52 abbd 423a f7bb d299 2ebd 5c9a 5bbd
00000260: 1763 84bd 1255 853c 5869 eabc 1273 14bd
00000270: e9a4 0f3d e61f 753d 1c49 803c a99a f7ba
00000280: a5e6 90bc b409 84bd 2cb2 f03b 900c fd3b
00000290: 620a 6a3d 408f b1bc 358c 623d 88f5 173d
000002a0: a5d1 133b 9a26 a33d 84ff 42ba a541 0fbd
000002b0: 398a d4bb 677c d4bc a2e9 943d 7978 d03b
000002c0: 5b10 863a 79c7 8d3c f5fe cd3a cfa6 b4bc
000002d0: 8e26 a5bc 1ffd 283c d963 49bd a0ca 51ba
000002e0: b954 083d 7a11 b63c 1583 bf3c 4313 93bd
000002f0: 3985 a4bd 2e57 843b 694d 4ebc fc1c a73b
00000300: cc3c 143d 3dd1 6fbd 7651 1c3b 6427 97bb
00000310: a97c 463d 4e4a b83c 123a 88bc 50eb 0d3d
00000320: 46ef b83b b81b 0e3c 695a af3d a365 113d
00000330: d0d2 06bd 38ce f2bd 79db 9d3d b5d4 9c3d
00000340: 646f 18bb af6d b8bb ef18 47bd 6b75 02bd
00000350: f772 a4bc f100 60bc 3c17 5cbc 90e6 8abb
00000360: 7335 24bd dee6 103d 20ad 6cbd e784 323d
00000370: cab1 2bbc ce0c e03c 1040 0abd 7b43 a5bd
00000380: 7340 a33c a0d2 803d 0c8b 46bb 6c68 0fbd
00000390: e9e5 b5bc 1ddd 06bd 05f5 f33c a088 07bd
000003a0: 3311 233c f212 b33d 1e89 253d 6895 493b
000003b0: 72c4 44bd 80b5 c437 ee8e 15bd 1a7b a6bc
000003c0: e24e bf3b 79cf c6bb 7631 773b 612f d7bc
000003d0: b9fd 953b 4251 87bd 00d7 393d 4a6e 7ebd
000003e0: 463e 533d 68b2 75bd 52d6 203d 212b 263b
000003f0: df24 523b 54c3 9a3c 1c7b 103d ca4d 2f3d

base_model.model.bert.encoder.layer.0.attention.self.key.lora_A.default.weight f4 [8, 768]
-0.016911576 -0.013351174 0.0011081985 0.03992899 -0.014321533 -0.012490447 0.004509734 -0.082763754
0.028734613 0.04352886 0.050558727 -0.03442415 -0.014767965 0.027512379 -0.040340524 0.09143492
0.05683396 0.09077558 0.025244066 -0.049829274 0.041601237 -0.011266349 0.057467803 -0.0030646003
-0.01618355 -0.0012184478 -0.009724944 0.0019840081 0.015042283 -0.043941155 0.083668314 0.021023415
-0.045536675 -0.06860484 0.008459454 0.008448327 0.041191667 0.042475745 0.014163164 -0.0340601
0.0045529013 0.10542544 0.057061445 0.0036996263 0.00022166604 -0.03817678 0.10387832 0.018433766
-0.04560877 -0.036464985 -0.069983944 0.015894217 -0.10245663 0.02879749 0.014820932 0.06664074
-0.0157022 0.0009219836 -0.038410377 0.003694345 -0.006531343 -0.026947947 0.013190173 0.009726999
0.008653234 -0.00974005 -0.13054048 -0.016573412 0.047363963 -0.023945412 0.007701614 0.0429853
-0.049273737 0.043746613 -0.046376057 0.057539195 0.03605601 -0.06131287 0.048435308 0.07053055
0.044611227 0.005196055 -0.016718458 0.016162606 0.043985635 -0.027072875 0.052658416 -0.052071523
0.0056087133 -0.017406296 0.009217775 -0.048075333 0.031966705 0.046969086 -0.078603856 0.024284622
0.010151045 -0.08869965 0.003951445 0.021808878 0.048682664 -0.008044577 -0.052368272 0.12909062
0.009192835 0.013318836 0.022884468 0.0036591585 0.07213035 0.020949125 0.05183714 0.00020936324
-0.0670468 -0.026026906 0.086682044 -0.012042317 0.11079429 -0.007137872 -0.047516797 -0.076070905
0.07000023 0.016554125 0.038279437 -0.087509654 -0.016644524 -0.031210247 0.029105466 0.035834406
-0.034338735 -8.0343976e-05 -0.008298479 0.059813693 -0.004536212 0.04780959 0.0019102675 -0.046953738
-0.043220006 0.009558837 -0.010637669 0.018934187 -0.10043087 -0.014235001 0.06928381 -0.028666958
-0.06633212 0.014011705 -0.021032607 -0.01547427 0.023730962 -0.012883263 -0.03653471 -0.0256954
0.003601237 0.036311682 0.084961765 0.0980929 -0.04715516 -0.026533836 -0.022722514 -0.08551335
-0.049102847 -0.02189275 0.0052094967 -0.045867674 -0.09602868 0.021788683 0.018259553 0.053328086
0.05514949 0.04290182 -0.002040322 0.10331043 -0.032843497 0.01642539 0.057457242 0.06695223
-0.012537697 -0.008442494 -0.03547586 0.013388243 -0.028453885 -0.039963 -0.017725153 0.009967452
0.009313864 0.07253587 -0.022545138 0.040213738 0.06791605 -0.037894152 -0.07820524 9.644663e-05
0.07811587 0.057678796 -0.0014658356 0.035623092 -0.06512368 -0.020387204 0.0006422826 0.054200467
-0.016476119 -3.940134e-05 -0.060001593 -0.023357721 0.05322665 -0.10982519 -0.020766653 -0.000266365
-0.0087371785 0.0033104362 0.032936938 0.0018467346 0.021803532 -0.04696778 0.011398285 -0.06905508
-0.011449441 0.0836352 -0.022819642 -0.0064346534 -0.012376895 0.07414082 0.0003103234 0.011192991
0.043130025 -0.009718242 -0.07077479 -0.029810794 -0.06646424 -0.045800827 0.06617344 0.021499956
-0.009385992 0.04438785 0.08935233 0.050634813 -0.07045748 0.030078948 -0.051158525 0.03699465
-0.04995044 0.021971812 0.052299745 -0.017308911 -0.06181148 0.032757264 0.020607606 -0.050359547
0.043440554 0.02493728 -0.0071762577 -0.03059652 0.056136 0.003724925 -0.11561599 -0.06340845
00000000: 258a 8abc e2be 5abc f940 913a 958c 233d
00000010: dda4 6abc bba4 4cbc 64c6 933b 0b80 a9bd
00000020: da64 eb3c 514b 323d ab16 4f3d 5600 0dbd
00000030: 56f5 71bc a461 e13c 1b3c 25bd 3b42 bb3d
00000040: baca 683d 8ce8 b93d a5cc ce3c c819 4cbd
00000050: 0f66 2a3d 7e96 38bc 5c63 6b3d 76d7 48bb
00000060: 5d93 84bc 53b4 9fba 5f55 1fbc 2206 023b
00000070: e873 763c a4fb 33bd 4b5a ab3d 4c39 ac3c
00000080: aa84 3abd b280 8cbd 8699 0a3c da6a 0a3c
00000090: 98b8 283d 0cfb 2d3d 9e0c 683c 9a82 0bbd
000000a0: 8130 953b 4be9 d73d 43b9 693d 6e75 723b
000000b0: 066f 6839 415f 1cbd 28be d43d 6902 973c
000000c0: 43d0 3abd 4f5c 15bd be53 8fbd 9734 823c
000000d0: c8d4 d1bd b7e8 eb3c 7fd3 723c f17a 883d
000000e0: e6a1 80bc 46b1 713a 3354 1dbd d31c 723b
000000f0: e004 d6bb f1c1 dcbc 981b 583c fe5d 1f3c
00000100: 4bc6 0d3c bb94 1fbc 67ac 05be f7c4 87bc
00000110: b700 423d 2b29 c4bc d25d fc3b 5b11 303d
00000120: 42d3 49bd a62f 333d d2f4 3dbd 38ae 6b3d
00000130: 77af 133d 3423 7bbd 1a64 463d 5272 903d
00000140: 43ba 363d ab43 aa3b 26f5 88bc 7167 843c
00000150: 482a 343d efc7 ddbc 5ab0 573d f348 55bd
00000160: 4cc9 b73b a697 8ebc 2706 173c a4ea 44bd
00000170: 85ef 023d a862 403d 0ffb a0bd 8bf0 c63c
00000180: 9250 263c 29a8 b5bd 207b 813b 88a8 b23c
00000190: 7967 473d 67cd 03bc 1d80 56bd 5530 043e
000001a0: 8b9d 163c 3f37 5a3c 3578 bb3c 7ece 6f3b
000001b0: 14b9 933d 809d ab3c 2e53 543d 8488 5b39
000001c0: d54f 89bd 6136 d5bc 5b86 b13d 234d 45bc
000001d0: 1ee8 e23d cfe4 e9bb f9a0 42bd 10cb 9bbd
000001e0: 485c 8f3d 849c 873c e6ca 1c3d 4338 b3bd
000001f0: 195a 88bc a2ac ffbc 966e ee3c 19c7 123d
00000200: c6a6 0cbd 587e a8b8 58f6 07bc 34ff 743d
00000210: 81a4 94bb fdd3 433d f161 fa3a 9052 40bd
00000220: 7607 31bd ab9c 1c3c 9e49 2ebc de1b 9b3c
00000230: b3ae cdbd ec39 69bc ace4 8d3d f8d6 eabc
00000240: 22d9 87bd 5a91 653c 934c acbc cb87 7dbc
00000250: 6f67 c23c 5214 53bc 6ca5 15bd 297f d2bc
00000260: bb02 6c3b 8fbb 143d 6f00 ae3d eee4 c83d
00000270: c525 41bd 7d5d d9bc 9124 babc a021 afbd
00000280: 1120 49bd 6d58 b3bc 6db4 aa3b bedf 3bbd
00000290: afaa c4bd 2e7e b23c 0f95 953c 8d6e 5a3d
000002a0: 6ee4 613d d2b9 2f3d ecb6 05bb 6b94 d33d
000002b0: e786 06bd 8a8e 863c 4958 6b3d 401e 893d
000002c0: ea6a 4dbc 6352 0abc 234f 11bd 5c5a 5b3c
000002d0: 1f18 e9bc 3eb0 23bd 5734 91bc 864e 233c
000002e0: 2d99 183c b08d 943d 95b0 b8bc 29b7 243d
000002f0: 9217 8b3d e636 1bbd 122a a0bd 6443 ca38
00000300: 37fb 9f3d 9a40 6c3d 4821 c0ba 85e9 113d
00000310: 905f 85bd 1103 a7bc db5e 283a 4f01 5e3d
00000320: edf8 86bc de42 25b8 3bc4 75bd b158 bfbc
00000330: 3004 5a3d 07ec e0bd d41e aabc e8a6 8bb9
00000340: 6226 0fbc e7f3 583b e2e8 063d 210e f23a
00000350: 529d b23c 4961 40bd dfbf 3a3c c06c 8dbd
00000360: 7096 3bbc ef48 ab3d 42f0 babc c9d9 d2bb
00000370: 76c8 4abc 24d7 973d e7b2 a239 cf62 373c
00000380: 1ca9 303d 4339 1fbc 60f2 90bd c435 f4bc
00000390: 671e 88bd a699 3bbd f185 873d ad20 b03c
000003a0: b4c7 19bc 09d0 353d 5bfe b63d 7366 4f3d
000003b0: 034c 90bd 2068 f63c 9a8b 51bd b487 173d
000003c0: d598 4cbd 3bfe b33c 4238 563d 6bcb 8dbc
000003d0: 092e 7dbd 7b2c 063d 48d1 a83c d045 4ebd
000003e0: b9ee 313d 4449 cc3c d026 ebbb 8ea5 fabc
000003f0: ddee 653d df1d 743b 13c8 ecbd 4adc 81bd

base_model.model.bert.encoder.layer.0.attention.self.key.lora_B.default.weight f4 [768, 8]
0.03406744 -0.0010477602 0.034488875 -0.014275465 -0.0045816367 -0.022809172 -0.02626416 0.06759748
-0.009168682 0.035790928 0.039844245 0.022439867 -0.012143075 0.011471906 -0.006315989 0.030292843
-0.044089597 0.040586367 0.013690579 -0.00095106603 -0.018329542 0.0025666617 -0.04491841 0.0069777863
-0.0154639315 -0.028320191 0.0084722005 -0.03450026 0.019003375 0.0142568685 0.003711181 0.018350558
0.008574584 -0.063837424 0.016268749 -0.009162257 -0.03285522 -0.0051248875 0.04255499 0.03337308
-0.049892247 -0.044784535 0.027227342 0.009479654 -0.0015309153 0.048500255 0.010009735 -0.02563992
0.008001407 0.02364937 -0.01919396 0.019456971 -0.005258133 0.0002861757 -0.005972603 0.0033703921
0.022663783 0.015728861 0.004750706 0.019376576 -0.033661004 -0.0069052326 -0.018432494 0.0013324716
0.009795613 0.055035397 -0.0010955778 0.009654444 -0.0064328313 0.014523831 -0.02576589 0.018939164
0.003851812 -0.042029995 0.011164512 -0.009661622 0.023346815 0.022518968 0.028422887 -0.029106868
-0.027743349 -0.0324899 0.021166513 0.02332345 -0.00737095 -0.0056695086 -0.03400662 0.036450107
0.045665268 0.034865186 0.05412524 0.044717837 0.001847603 0.02924698 0.03518063 0.0066101355
0.016912619 0.015926497 0.016485745 0.028439056 -0.034161557 0.030899305 -0.020558214 -0.0051455772
0.029015917 0.03782121 -0.012162276 -0.015888289 0.02191067 0.046847645 0.022237994 -0.0020299794
-0.026023269 -0.032484997 -0.026367689 -0.0103317 0.012681201 0.006488427 0.06256768 -0.025222195
0.004015481 -0.002916718 0.012747178 0.027142089 0.06208522 0.01407676 0.011063937 0.04275766
0.02644606 0.0098255575 -0.039213702 1.7569808e-05 -0.017641524 -0.024423748 0.028104248 -0.020895414
0.047766875 -0.025160247 0.049184322 0.015768345 0.035895627 -0.019517945 -0.03731666 -0.0022393279
-0.009018647 0.017430214 -0.008761658 -0.001008431 -0.043396022 -0.034767374 0.009692317 0.003510147
-0.009340806 -0.06440644 -0.015309676 -0.041990627 -0.045939676 -0.05069374 0.03131499 -0.0026767305
0.012436985 0.04175583 0.030334914 -0.013114086 0.0069884635 0.032446507 -0.048692066 -0.03925387
-0.016476063 -0.019404018 -0.013400924 0.0076283785 -0.03861296 0.0059256493 0.022137262 0.035226014
0.01219027 -0.0037261767 -0.019841023 0.015734669 -0.025205666 -0.042652175 0.04085657 -0.06378676
-0.02974675 -0.02875924 0.012346115 -0.013760088 0.05790601 0.0008118355 0.060374785 0.010649872
0.06652561 0.054350156 0.034430955 0.036980197 0.027720703 -0.024753198 0.049287196 0.029338676
0.037779763 -0.010187316 -0.043225136 0.031398147 -0.066789605 -0.027534228 -0.0074775214 0.035767484
0.023433093 0.06960614 0.008358814 0.04253851 -0.018830188 -0.026932597 0.03528971 -0.061074533
-0.04654349 0.029110854 0.0022413647 0.018394485 0.022999624 0.0049176067 -0.0061547207 -0.038390774
0.027464947 0.036810372 0.0307475 0.0024180303 0.0037705565 -0.0009397806 0.011113407 -0.006737487
-0.0452748 -0.018567115 0.017893212 0.045818724 0.0079492135 -0.04250164 0.003499928 0.041342806
-0.020582974 0.0070582717 -0.03974525 0.013472709 0.020614134 -0.009490229 0.006168724 -0.075800784
-0.0045293807 0.0037304666 -0.032069366 0.009732978 0.030549658 -0.0117005445 0.03847689 0.011957274
00000000: 4d8a 0b3d 0055 89ba 3544 0d3d a4e3 69bc
00000010: 8e21 96bb 4dda babc f027 d7bc 8c70 8a3d
00000020: 3d38 16bc 8299 123d b833 233d d0d3 b73c
00000030: bff3 46bc a9f4 3b3c 5bf6 cebb b228 f83c
00000040: 4b97 34bd e43d 263d 734e 603c f650 79ba
00000050: d627 96bc 7035 283b 5efc 37bd eaa5 e43b
00000060: 6e5c 7dbc bfff e7bc fcce 0a3c 2550 0dbd
00000070: f7ac 9b3c a495 693c 4937 733b e953 963c
00000080: 697c 0c3c 32bd 82bd 0a46 853c 4b1d 16bc
00000090: 3293 06bd acee a7bb 244e 2e3d 36b2 083d
000000a0: d05b 4cbd fd6f 37bd e00b df3c 8d50 1b3c
000000b0: fea8 c8ba 34a8 463d dfff 233c cf0a d2bc
000000c0: 5518 033c 53bc c13c a73c 9dbc 3a64 9f3c
000000d0: 6b4c acbb da09 9639 d3b5 c3bb cce1 5c3b
000000e0: 66a9 b93c d0d9 803c cfab 9b3b a0bb 9e3c
000000f0: 1fe0 09bd 4a45 e2bb beff 96bc 54a6 ae3a
00000100: c77d 203c cc6c 613d 7e99 8fba ac2d 1e3c
00000110: 80ca d2bb 5df5 6d3c fd12 d3bc 4e26 9b3c
00000120: af6e 7c3b a527 2cbd 5beb 363c c84b 1ebc
00000130: d241 bf3c b379 b83c 1dd7 e83c 8771 eebc
00000140: 0546 e3bc 2114 05bd 6565 ad3c d210 bf3c
00000150: 0388 f1bb 49c7 b9bb 874a 0bbd b54c 153d
00000160: 810b 3b3d ccce 0e3d 6db2 5d3d 0d2a 373d
00000170: 452b f23a 5d97 ef3c 9019 103d d699 d83b
00000180: 558c 8a3c 4978 823c 1d0d 873c 06f9 e83c
00000190: fdec 0bbd 8a20 fd3c b369 a8bc 3b9c a8bb
000001a0: cab2 ed3c 6aea 1a3d 4844 47bc 2828 82bc
000001b0: 017e b33c 51e3 3f3d 742c b63c 6709 05bb
000001c0: c02e d5bc fd0e 05bd 0d01 d8bc 4a46 29bc
000001d0: d0c4 4f3c df9c d43b 7c23 803d c79e cebc
000001e0: 4c94 833b 6826 3fbb 8ad9 503c 1659 de3c
000001f0: 124d 7e3d 36a2 663c 8445 353c a822 2f3d
00000200: 68a5 d83c 60fb 203c 8c9e 20bd e062 9337
00000210: f584 90bc 5014 c8bc e13a e63c dc2c abbc
00000220: 33a7 433d dd1c cebc 8075 493d 9e2c 813c
00000230: 4b07 133d 19e4 9fbc 5bd9 18bd b0c1 12bb
00000240: f2c2 13bc cfc9 8e3c 0f8d 0fbc 542d 84ba
00000250: 07c0 31bd 3c68 0ebd 86cc 1e3c 7f0a 663b
00000260: 2e0a 19bc 86e7 83bd 6fd5 7abc 5dfe 2bbd
00000270: 3e2b 3cbd 3da4 4fbd 2644 003d 166c 2fbb
00000280: 7fc4 4b3c 2908 2b3d ed80 f83c 77dc 56bc
00000290: 7bff e43b a1e6 043d 5571 47bd aac8 20bd
000002a0: cff8 86bc 2df5 9ebc 8d8f 5bbc 7af7 f93b
000002b0: a028 1ebd f32b c23b 3459 b53c 2749 103d
000002c0: b3b9 473c df32 74bb a489 a2bc fee5 803c
000002d0: 1d7c cebc 0cb4 2ebd 3859 273d a2a2 82bd
000002e0: 75af f3bc 7f98 ebbc 5c47 4a3c fe71 61bc
000002f0: da2e 6d3d 5cd1 543a 8d4b 773d cd7c 2e3c
00000300: 943e 883d 459e 5e3d 7907 0d3d 8c78 173d
00000310: 8716 e33c 38c7 cabc 5fe1 493d aa57 f03c
00000320: f4be 1a3d b3e8 26bc d70c 31bd 589b 003d
00000330: fdc8 88bd 768f e1bc ff05 f5bb ed80 123d
00000340: c2f6 bf3c aa8d 8e3d 68f3 083c dc3c 2e3d
00000350: c441 9abc c0a1 dcbc f18b 103d 4a29 7abd
00000360: 63a4 3ebd e379 ee3c dce3 123b 08b0 963c
00000370: b569 bc3c e023 a13b 8aad c9bb a53f 1dbd
00000380: 2bfe e03c 79c6 163d 2ee2 fb3c d177 1e3b
00000390: 711b 773b 9c5b 76ba 0215 363c 23c6 dcbb
000003a0: 1272 39bd 101a 98bc c994 923c 6aac 3b3d
000003b0: 6b3d 023c 3316 2ebd 0c5f 653b 1357 293d
000003c0: a09d a8bc 1349 e73b eacb 22bd a3bc 5c3c
000003d0: f9de a83c e87c 1bbc 0223 ca3b 713d 9bbd
000003e0: 336b 94bb d87a 743b 2b5b 03bd 1277 1f3c
000003f0: 4743 fa3c a4b3 3fbc f299 1d3d 71e8 433c

base_model.model.bert.encoder.layer.0.attention.self.value.lora_A.default.weight f4 [8, 768]
-0.09023879 -0.08069284 -0.026203558 0.001000866 -0.0125404205 0.051311318 0.068141066 -0.008094784
0.0088340165 0.056078315 -0.041083004 -0.04037692 0.020849206 -0.01058466 -0.018906636 0.020739337
-0.013796847 0.02423608 0.020880515 0.004807082 -0.01056841 0.03571156 -0.005873617 -0.016964879
-0.013820576 -0.000661839 0.055108223 -0.028754378 -0.029066583 -0.028957088 -0.030913556 0.016059913
0.07304359 -0.026691223 0.049023 0.020693522 0.032671917 -0.01402733 -0.023260942 0.023865769
0.014537676 0.0486531 0.014071853 -0.04779084 -0.042817373 -0.0710127 0.02912125 0.033476867
-0.016507462 -0.05056292 0.072975844 0.016190268 0.05777609 0.0053093275 -0.051002126 -0.006176117
-0.004153012 0.015792748 0.006484693 -0.004396177 0.02864786 0.008569805 0.044912275 0.005329024
0.046740852 0.042411514 -0.074620716 -0.046113107 0.019899439 -0.027249027 -0.0060810363 -0.06748982
0.028815424 -0.10936798 0.024190854 -0.030842662 -0.01976001 0.0180002 0.033859618 -0.06734968
0.08649771 -0.0295736 -0.0077103996 0.053188663 0.048266686 0.021523707 0.011877802 0.0124339955
-0.03934221 0.026090715 -0.05943124 -0.003584376 0.03647753 0.043075353 0.04207545 -0.037370637
0.051045176 -0.03041075 0.0043769944 0.045981027 0.012172256 0.0021672403 0.020795658 -0.020226395
0.001596407 0.05059448 -0.02224643 0.0034273623 -0.015867656 0.0051601385 -0.001501927 0.015991842
-0.0455816 0.042256586 -0.011237684 0.0474138 0.008921835 0.029984295 0.08922022 0.02292117
-0.063120745 0.008068443 -0.096246615 0.042283688 0.040942833 -0.008736185 -0.021271696 -0.06985181
0.022032004 0.07988247 0.012034158 0.032614052 -0.07643281 0.09298737 -0.019639088 0.026556015
-0.0049125156 0.0051122843 -0.010403867 -0.027661547 -0.07858888 0.017232021 -0.05389382 -0.003082989
0.009649115 -0.028326053 -0.041027196 -0.06387623 -0.0061186766 -0.04735301 -0.008555552 -0.0081208125
0.107477434 -0.022387188 -0.007816909 -0.03880975 0.10834238 0.02024377 0.027506607 0.056361467
-0.015880302 0.015157546 -0.0117771905 -0.004948869 -0.0009210865 -0.05516872 0.023047082 -0.041930612
0.0015749136 0.07594978 0.0328998 0.034967065 0.06059636 -0.009601518 -0.030051043 0.030594753
-0.08733308 0.038909744 -0.03350645 0.07753944 -0.025167586 0.14619724 0.014281009 0.028601008
-0.05826953 0.0409348 0.018542787 0.058690716 -0.008177902 0.050193354 -0.014255882 -0.04263456
-0.0026981921 -0.029514689 0.043423384 -0.008723271 -0.070734024 -0.025885241 0.05154547 0.031855892
0.011741647 0.00040199436 -0.035683155 0.0055700135 -0.0035662744 0.0008624451 0.06562695 0.035244808
0.10811573 0.018947357 -0.05266864 -0.011548919 -0.030632276 0.009622357 -0.004422176 0.0107927825
0.017950056 -0.03492367 0.02944021 0.0067930985 0.026919749 -0.028081743 -0.045460586 -0.03168721
-0.019610664 -0.0449685 0.0045678117 -0.027240966 -0.00023847965 0.001852517 0.033840712 0.013244398
0.0052232686 0.04667025 0.030967342 -0.005177728 0.048159696 0.015870648 -0.0245034 -0.0155259315
-0.010300649 0.02991113 -0.017145734 -0.04361261 -0.08240587 0.05276371 0.046844333 0.081456944
-0.011437782 -0.0026144816 0.007595659 -0.028422324 0.03312154 -0.025673987 0.032770235 -0.021620788
00000000: 1dcf b8bd 4a42 a5bd d8a8 d6bc 7d2f 833a
00000010: 5676 4dbc d12b 523d 8b8d 8b3d fc9f 04bc
00000020: 8dbc 103c 60b2 653d a746 28bd 4562 25bd
00000030: f4cb aa3c 486b 2dbc 17e2 9abc 8be5 a93c
00000040: 2c0c 62bc be8a c63c 9d0d ab3c ba84 9d3b
00000050: 2027 2dbc 4946 123d 7877 c0bb eef9 8abc
00000060: b26f 62bc 437f 2dba 29b9 613d 4d8e ebbc
00000070: 0b1d eebc 6a37 edbc 6d3e fdbc 1490 833c
00000080: e197 953d 8da7 dabc 57cc 483d 7685 a93c
00000090: fdd2 053d e3d2 65bc bb8d bebc 2582 c33c
000000a0: 6f2f 6e3c 7948 473d a18d 663c 54c0 43bd
000000b0: 4561 2fbd 1b6f 91bd b08f ee3c 0a1f 093d
000000c0: a83a 87bc 101b 4fbd 5c74 953d 74a1 843c
000000d0: 9fa6 6c3d def9 ad3b 9be7 50bd 0661 cabb
000000e0: fd15 88bb cb5f 813c 8c7d d43b ce0d 90bb
000000f0: ebae ea3c 5e68 0c3c eff5 373d 189f ae3b
00000100: 5673 3f3d b2b7 2d3d bfd2 98bd 19e1 3cbd
00000110: 2604 a33c 5a39 dfbc 6e43 c7bb 1a38 8abd
00000120: 530e ec3c 52fc dfbd e62b c63c c0a9 fcbc
00000130: bfdf a1bc 2875 933c 62b0 0a3d a1ee 89bd
00000140: b625 b13d 5644 f2bc 85a7 fcbb 5bdc 593d
00000150: 4ab3 453d 7c52 b03c 1d9b 423c f5b7 4b3c
00000160: 4c25 21bd 32bc d53c 2c6e 73bd dae7 6abb
00000170: 7669 153d c86f 303d 4f57 2c3d f411 19bd
00000180: bf14 513d f71f f9bc e46c 8f3b 9a56 3c3d
00000190: 246e 473c 4208 0e3b a85b aa3c d3b1 a5bc
000001a0: 883e d13a 283c 4f3d 253e b6bc 999d 603b
000001b0: e3fc 81bc 6116 a93b 4fdc c4ba 5301 833c
000001c0: c6b3 3abd 3e15 2d3d 431e 38bc f934 423d
000001d0: e32c 123c a0a1 f53c 17b9 b63d 2dc5 bb3c
000001e0: 7345 81bd 8131 043c f21c c5bd a931 2d3d
000001f0: acb3 273d 3722 0fbc fb41 aebc 770e 8fbd
00000200: 767c b43c 6c99 a33d eb2a 453c 5096 053d
00000210: ce88 9cbd 2a70 be3d 27e2 a0bc 008c d93c
00000220: 2bf9 a0bb f384 a73b fb74 2abc 789a e2bc
00000230: 35f3 a0bd 2b2a 8d3c c4bf 5cbd f90b 4abb
00000240: 5217 1e3c 0a0c e8bc 220c 28bd 8ad1 82bd
00000250: 2e7f c8bb 3bf5 41bd 962c 0cbc 280d 05bc
00000260: 211d dc3d 5665 b7bc 7e12 00bc f9f6 1ebd
00000270: 9ce2 dd3d 43d6 a53c 8955 e13c 48db 663d
00000280: 6817 82bc 5b57 783c 1ef5 40bc 1f2a a2bb
00000290: 1275 71ba 99f8 61bd 3ccd bc3c 6fbf 2bbd
000002a0: 556d ce3a 8f8b 9b3d f1c1 063d a039 0f3d
000002b0: e433 783d af4f 1dbc 9b2d f6bc d9a1 fa3c
000002c0: b0db b2bd d35f 1f3d 0f3e 09bd ffcc 9e3d
000002d0: 412c cebc bbb4 153e e5fa 693c a94c ea3c
000002e0: 08ac 6ebd 40ab 273d 0be7 973c ad65 703d
000002f0: 9bfc 05bc 8c97 4d3d 8191 69bc 94a1 2ebd
00000300: 27d4 30bb cac8 f1bc b8dc 313d 0dec 0ebc
00000310: 00dd 90bd 490d d4bc 5821 533d 537b 023d
00000320: 0960 403c c5c2 d239 8028 12bd a984 b63b
00000330: 28b8 69bb b615 623a 6c67 863d dc5c 103d
00000340: c86b dd3d 7d37 9b3c 12bb 57bd ad37 3dbc
00000350: 8af0 fabc 17a7 1d3c e7e7 90bb 36d4 303c
00000360: ff0b 933c 1f0c 0fbd 982c f13c a498 de3b
00000370: ce86 dc3c af0b e6bc e134 3abd 73ca 01bd
00000380: 8ba6 a0bc e430 38bd 95ad 953b 7228 dfbc
00000390: 6510 7ab9 28d0 f23a 8f9c 0a3d 08ff 583c
000003a0: f427 ab3b 4e29 3f3d 39af fd3c eea9 a9bb
000003b0: 1a43 453d 2903 823c 5bbb c8bc 7a60 7ebc
000003c0: 0ec4 28bc 3008 f53c 3675 8cbc 23a3 32bd
000003d0: 69c4 a8bd c31e 583d d8df 3f3d e6d2 a63d
000003e0: 8965 3bbc b957 2bbb 01e5 f83b efd5 e8bc
000003f0: 74aa 073d 4152 d2bc 153a 063d 141e b1bc

base_model.model.bert.encoder.layer.0.attention.self.value.lora_B.default.weight f4 [768, 8]
-0.0018680536 -0.015211569 0.00045906892 -0.015032377 0.018376483 0.01951849 0.0068191057 -0.0062188874
0.01013155 0.0053288634 0.006118663 -0.013064689 -0.010427682 0.010172538 0.0025809323 -0.009911484
0.017387245 0.018391486 -0.004443203 0.011161677 -0.023394361 0.010064121 -0.041888244 0.0074795843
0.0064204806 0.04438399 -0.015925234 -0.011847583 0.0142527595 -0.042242944 -0.044869985 -0.034153763
-0.011958994 -0.030261684 -0.012312997 0.0146263745 0.023535797 0.0042410945 0.021902002 -0.056760434
0.01239055 -0.0037584952 0.007207027 0.0007088386 0.030169368 0.013058053 0.032637313 -0.016726635
0.035089467 -0.03846907 0.028532147 0.030869868 -0.0139949 -0.06354024 0.020694224 0.008781198
0.0005572699 -0.009518258 -0.022072978 -0.028522888 -0.045568388 0.018774578 -0.015905159 0.009235065
0.017285822 0.0068649664 0.014467684 0.0146241095 0.00029885778 -0.004981338 -0.015436798 -0.001407845
-0.016172957 0.040131863 -0.005515271 -0.041106254 -0.047408603 0.016078804 0.010152772 0.04027097
-0.0028522534 -0.0041185617 -0.0018614155 -0.0022807252 0.009056588 -0.019450542 0.025266403 -0.023941927
0.02280753 0.029071838 0.033936884 0.039926954 0.011851342 0.0013345112 -0.009253552 0.020795843
-0.010728962 -0.008938417 -0.035143435 0.0027195588 -0.007765915 -0.037097342 0.0493578 -0.027640132
0.008668774 -0.0027099007 -0.0005377739 -0.0137900775 -0.00022055623 -0.016192246 0.038739163 0.0034539723
-0.016263142 -0.005439705 -0.009426024 -0.019927708 -0.021467634 0.02466524 -0.115916096 0.032793265
-0.014189931 0.016925775 0.0087344255 0.012468221 0.01824108 -0.0065534115 0.03000616 0.02282882
0.0005789309 0.029145513 0.011361623 0.015564287 -0.006223079 0.021462157 0.0017327612 0.039070744
-0.0044160816 -0.009130351 -0.018551236 -0.013540521 -0.09059873 -0.025176635 -0.0017654942 0.010351252
0.007945361 -0.005935705 -0.0075928136 -0.013296314 0.006860213 0.021756079 0.021808982 -0.0003335022
-0.04366517 -0.011471601 -0.030539144 -0.02872714 -0.053597346 -0.0012820486 -0.048842944 0.04445454
0.022863023 0.006812325 0.03792825 0.04857126 0.006843505 0.0023477257 -0.07033839 -0.017912826
0.023674352 -0.02540957 0.056504324 0.025778493 0.04402856 0.0051350216 0.002925281 0.03195362
-0.035774432 0.024816018 -0.014931034 -0.030054195 -0.0053295377 -0.020881727 -0.024430588 0.03995073
0.005405614 0.019625962 -0.006078579 0.019899884 0.026401125 0.004925315 0.013597758 -0.013720392
0.006646953 0.023109408 -0.02048155 -0.023969715 0.030622048 -0.013024311 0.054215625 -0.0358687
-0.017820857 -0.020077648 -0.0011046153 -0.0040019727 -0.038447242 -0.022230377 -0.012319788 -0.0072708228
-0.007604703 -0.0051009892 -0.033257455 -0.017733406 -0.03346998 0.0049223215 0.028916836 -0.00662147
0.028269557 0.069642566 0.017063363 0.012074237 0.019675124 -0.039436176 0.01215739 0.02789264
0.03462689 0.017079446 0.029763917 0.031507388 0.05833267 0.05847296 0.00601506 0.019971095
-0.02720165 0.016876597 -0.021121105 -0.04460384 -0.047370486 0.041930348 -0.048778657 0.024899589
0.052338064 0.038242996 0.04557778 0.054209482 -0.009505855 0.013659665 0.0070568454 0.02660102
-0.0057752905 -0.048529137 -0.011629395 0.0029730913 -0.0053224456 0.052511044 0.0008470583 0.0036196692
00000000: 7ad9 f4ba f239 79bc 30af f039 5c4a 76bc
00000010: 478a 963c 3ee5 9f3c ce72 df3b cfc7 cbbb
00000020: cdfe 253c bf9d ae3b 117f c83b 470d 56bc
00000030: ded8 2abc b8aa 263c dc24 293b c763 22bc
00000040: b26f 8e3c bea9 963c 4a98 91bb 77df 363c
00000050: 88a5 bfbc fce3 243c 0293 2bbd 4d17 f53b
00000060: e562 d23b fdcb 353d a375 82bc 5d1c 42bc
00000070: 6884 693c f006 2dbd 97c9 37bd d1e4 0bbd
00000080: a8ef 43bc 5ae7 f7bc 74bc 49bc 76a3 6f3c
00000090: 25ce c03c e1f8 8a3b d46b b33c a17d 68bd
000000a0: bc01 4b3c 1651 76bb ed28 ec3b 5ad1 393a
000000b0: c025 f73c 72f1 553c b4ae 053d 4c06 89bc
000000c0: f9b9 0f3d be91 1dbd 40bc e93c cee2 fc3c
000000d0: dd4a 65bc 6321 82bd ef86 a93c 04df 0f3c
000000e0: c015 123a 78f2 1bbc 64d2 b4bc d5a8 e9bc
000000f0: eba5 3abd 25cd 993c 894b 82bc ac4e 173c
00000100: ff9a 8d3c 83f3 e03b dd09 6d3c f699 6f3c
00000110: 03b0 9c39 7e3a a3bb a0ea 7cbc 7087 b8ba
00000120: 267d 84bc 4f61 243d 72b9 b4bb 085f 28bd
00000130: 862f 42bd b2b7 833c d057 263c 2cf3 243d
00000140: dfec 3abb 00f5 86bb bdfa f3ba 3878 15bb
00000150: 1562 143c be56 9fbc 7dfb ce3c dc21 c4bc
00000160: dbd6 ba3c 1028 ee3c 6701 0b3d 728a 233d
00000170: 222c 423c c4ea ae3a 369c 17bc 0b5c aa3c
00000180: 87c8 2fbc 7072 12bc 90f2 0fbd a03a 323b
00000190: 3779 febb 62f3 17bd 682b 4a3d 8f6d e2bc
000001a0: 7907 0e3c 9798 31bb 65f9 0cba c7ef 61bc
000001b0: 1d45 67b9 9aa5 84bc f5ac 1e3d 0a5c 623b
000001c0: 483a 85bc 8e3f b2bb 9c6f 1abc 6f3f a3bc
000001d0: e4dc afbc c20e ca3c 6b65 edbd 3b52 063d
000001e0: e27c 68bc eca7 8a3c d61a 0f3c 8247 4c3c
000001f0: 516e 953c 00be d6bb 7acf f53c 8103 bb3c
00000200: 65c3 173a 92c2 ee3c 1a26 3a3c 5a01 7f3c
00000210: f8ea cbbb 68d1 af3c d11d e33a a508 203d
00000220: c7b4 90bb 7897 15bc c3f8 97bc 10d9 5dbc
00000230: d48b b9bd 3b3f cebc 2868 e7ba 4c98 293c
00000240: 422d 023c 4d80 c2bb 23cd f8bb c8d8 59bc
00000250: a3cb e03b ce39 b23c c0a8 b23c e8d9 aeb9
00000260: 40da 32bd 62f3 3bbc 3a2d fabc 2e55 ebbc
00000270: e488 5bbd 6a0a a8ba 8a0f 48bd f715 363d
00000280: 3c4b bb3c ed39 df3b a75a 1b3d a8f2 463d
00000290: 7b3f e03b 4ddc 193b 930d 90bd ebbd 92bc
000002a0: b7f0 c13c bb27 d0bc 1471 673d 6b2d d33c
000002b0: 4b57 343d af43 a83b 12b6 3f3b cde1 023d
000002c0: 3688 12bd f64a cb3c 4ca1 74bc 3734 f6bc
000002d0: 67a3 aebb 2810 abbc a822 c8bc 60a3 233d
000002e0: 9421 b13b a0c6 a03c d12e c7bb 1505 a33c
000002f0: 2c47 d83c 8964 a13b 21c9 5e3c 7fcb 60bc
00000300: afce d93b f14f bd3c ecc8 a7bc 235c c4bc
00000310: 17db fa3c eb63 55bc 3411 5e3d 0feb 12bd
00000320: 0cfd 91bc e179 a4bc bdc8 90ba fb22 83bb
00000330: db7a 1dbd 7b1c b6bc f0d8 49bc 1540 eebb
00000340: df30 f9bb 3326 a7bb f838 08bd a645 91bc
00000350: d117 09bd 6d4b a13b 00e3 ec3c ebf8 d8bb
00000360: 8f95 e73c c3a0 8e3d 77c8 8b3c 05d3 453c
00000370: ba2d a13c d487 21bd ca2f 473c 1b7f e43c
00000380: edd4 0d3d 32ea 8b3c 75d3 f33c e40d 013d
00000390: 3dee 6e3d 5881 6f3d fb19 c53b 6c9a a33c
000003a0: ffd5 debc ca40 8a3c 2b06 adbc 84b2 36bd
000003b0: 8e07 42bd 28bf 2b3d 21cc 47bd 39fa cb3c
000003c0: 7060 563d b0a4 1c3d c4af 3a3d c30a 5e3d
000003d0: 72be 1bbc cacc 5f3c 1c3d e73b 62ea d93c
000003e0: a63e bdbb 7dc6 46bd 3889 3ebc 32d8 423b
000003f0: e967 aebb d215 573d 1f0d 5e3a f937 6d3b

base_model.model.bert.encoder.layer.1.attention.self.query.lora_A.default.weight f4 [8, 768]
-0.028981874 0.06307647 -0.027846074 0.055681698 0.010142265 -0.03812382 0.046812143 0.0103133535
-0.0047788685 -0.017770031 -0.065033585 -0.0026642978 0.025706153 -0.00431359 -0.016461337 -0.023811815
-0.102735825 -0.0046287165 0.0519314 -0.035766225 -0.017367404 0.036168817 0.0067940354 0.04143056
0.0617923 -0.013264424 0.029722907 0.04397836 0.03903592 -0.016792934 0.029939456 0.010966884
-0.0047541778 -0.053437643 -0.010730913 0.024309756 -0.030520841 -0.020181444 0.09791177 -0.053018685
-0.05008346 -0.07157558 0.048535753 0.00022111012 -0.01268062 -0.02017751 -0.043579675 -0.01866405
0.053312015 -0.05850287 0.040975183 0.06984812 0.00018789335 -0.049406037 -0.014523273 0.0055030547
0.02279951 0.08491284 -0.013994629 0.017535252 -0.010840074 -0.053822394 0.029820187 0.0934397
0.017569607 0.07326763 -0.08006577 -0.023052793 -0.05479814 -0.0127034625 -0.03171522 -0.048744228
-0.07257573 0.01525222 0.030176999 0.051532842 0.002991351 -0.06857446 0.013454737 0.006121137
0.016576799 -0.011565548 -0.020123878 -0.0057115154 -0.047691163 0.014773547 -0.01697374 0.014052824
0.027504617 0.008790018 0.021179225 0.036117204 -0.068460375 0.02863586 0.052274823 0.008572317
0.037575483 -0.08149697 -0.019393954 -0.025810547 0.055318438 0.03339116 0.023423038 0.012668867
0.032225374 -0.05620993 0.017095994 0.040141653 -0.027615212 -0.020381832 0.041053712 -0.06057251
0.02376939 0.006831975 0.03708693 -0.027762134 -0.05991705 0.02203178 -0.021002162 -0.07232818
-0.022694109 0.034862705 -0.06380666 -0.07654261 -0.0058145407 -0.0037743358 0.039267693 0.058400046
0.032950323 -0.118635714 0.045211863 -0.008813374 0.05115092 -0.024645224 -0.028705634 0.052976232
0.010647142 -0.014095203 -0.007185901 0.0029677995 0.013329211 0.040074285 -0.00836045 0.0041475934
0.06848035 0.0036528208 -0.0034946983 -0.08349773 0.094822675 -0.08160374 -0.099867955 -0.05475759
0.034868218 -0.019018548 0.015641361 -0.017243976 0.015168471 -0.023709202 0.060286622 0.0021014381
-0.083820954 0.006380425 0.018868169 -0.022036469 0.006009413 -0.0038099475 -0.039712697 0.015800452
0.067243956 -0.022799794 0.0054421504 -0.02917356 -0.035429865 0.036662567 -0.040485084 -0.047512125
-0.06631437 -0.06385785 0.0050065517 0.043594386 0.026441664 -0.061966695 0.064721264 -0.016283674
0.044067305 -0.014381934 -0.035751328 -0.06509473 0.029675588 -0.036618106 -0.03434162 0.0072898082
0.0119113745 0.0025046556 -0.024611615 -0.030817557 0.07250827 0.036434796 -0.07436359 0.0015595638
0.022710431 0.05292898 -0.0020145907 -0.069769025 0.021839947 0.03354237 -0.035595804 0.02503905
0.023575846 -0.002949467 0.024222612 0.087752 -0.051208884 -0.09034405 -0.046199765 0.14190464
0.014543174 -0.042357616 -0.008388725 0.1484069 0.024765335 0.023902278 0.057682864 -0.0043799095
0.0029800963 0.0050902357 -0.062631205 -0.04302585 -0.07486811 -0.0012252949 0.050349575 0.022425909
0.018630533 -0.024132036 0.03933587 0.03417236 0.01906197 0.033258926 0.03235268 -0.02826984
0.013840052 -0.06933779 -0.051648974 0.034858122 0.02854947 0.008315033 -0.008304865 -0.03771706
0.0066982405 -0.0053642704 -0.032781243 0.013960823 -0.05171285 -0.053985007 -0.017564053 -0.0034189133
00000000: 656b edbc 3c2e 813d 731d e4bc 7e12 643d
00000010: be2b 263c b927 1cbd 17be 3f3d 57f9 283c
00000020: 0e98 9cbb 7592 91bc 5430 85bd 809b 2ebb
00000030: b695 d23c 0459 8dbb edd9 86bc ff10 c3bc
00000040: 2967 d2bd 7dac 97bb 05b6 543d 9b7f 12bd
00000050: 1646 8ebc c125 143d 80a0 de3b 17b3 293d
00000060: ec19 7d3d 0753 59bc 747d f33c a722 343d
00000070: 21e4 1f3d 5691 89bc 9743 f53c 72ae 333c
00000080: efc8 9bbb 6ee1 5abd b6d0 2fbc 4125 c73c
00000090: d806 fabc 8e53 a5bc f785 c83d 1f2a 59bd
000000a0: 5024 4dbd 3896 92bd 6dcd 463d ccd9 6739
000000b0: 60c2 4fbc 4e4b a5bc 9a80 32bd 5ae5 98bc
000000c0: b35d 5a3d b5a0 6fbd 98d5 273d 880c 8f3d
000000d0: 3d05 4539 fc5d 4abd 06f3 6dbc f852 b43b
000000e0: 0ac6 ba3c c8e6 ad3d ba49 65bc 17a6 8f3c
000000f0: 919a 31bc df74 5cbd 7749 f43c 505d bf3d
00000100: 23ee 8f3c 570d 963d 86f9 a3bd 36d9 bcbc
00000110: 0474 60bd 2f22 50bc d2e7 01bd 07a8 47bd
00000120: 96a2 94bd 73e4 793c c135 f73c 1a14 533d
00000130: 8b0a 443b c470 8cbd 4271 5c3c d293 c83b
00000140: 11cc 873c 6d7d 3dbc d5da a4bc aa27 bbbb
00000150: cf57 43bd bf0c 723c 830c 8bbc d13d 663c
00000160: 5d51 e13c 0204 103c 0e80 ad3c a2ef 133d
00000170: f434 8cbd c095 ea3c 201e 563d e772 0c3c
00000180: c0e8 193d e2e7 a6bd 12e0 9ebc a470 d3bc
00000190: 9695 623d 2bc5 083d ace1 bf3c 1491 4f3c
000001a0: c1fe 033d 623c 66bd e60c 8c3c 936b 243d
000001b0: 4c39 e2bc cdf7 a6bc f027 283d e11a 78bd
000001c0: 06b8 c23c c3de df3b 77e8 173d 6a6d e3bc
000001d0: 956b 75bd fe7b b43c ba0c acbc cc20 94bd
000001e0: ffe8 b9bc 32cc 0e3d 11ad 82bd 5fc2 9cbd
000001f0: e787 bebb d95a 77bb 29d7 203d e334 6f3d
00000200: ebf6 063d 48f7 f2bd 1330 393d f865 10bc
00000210: a183 513d c8e4 c9bc 1428 ebbc 9bfd 583d
00000220: 5a71 2e3c 91ef 66bc b577 ebbb 6a7f 423b
00000230: c362 5a3c ef24 243d 45fa 08bc 89e8 873b
00000240: 6d3f 8c3d 2a64 6f3b 4f07 65bb dc00 abbd
00000250: 6432 c23d dd1f a7bd 9287 ccbd 7f49 60bd
00000260: fad1 0e3d c9cc 9bbc 5022 803c 3d43 8dbc
00000270: 2e85 783c cd39 c2bc 1bef 763d 48b8 093b
00000280: 52aa abbd e212 d13b 6b91 9a3c d385 b4bc
00000290: 9cea c43b 50b0 79bb c8a9 22bd f36f 813c
000002a0: 33b7 893d a2c6 babc 1154 b23b 64fd eebc
000002b0: e81e 11bd 7d2b 163d b0d3 25bd 139c 42bd
000002c0: d4cf 87bd e8c7 82bd 000e a43b 0790 323d
000002d0: 309c d83c cad0 7dbd 958c 843d 5765 85bc
000002e0: eb7f 343d 34a2 6bbc fc6f 12bd 6350 85bd
000002f0: 381a f33c defc 15bd cca9 0cbd 58df ee3b
00000300: ed27 433c 2625 243b 4c9e c9bc 1a75 fcbc
00000310: 377f 943d a73c 153d f04b 98bd 476a cc3a
00000320: 3a0b ba3c 0fcc 583d 3907 04bb 10e3 8ebd
00000330: b0e9 b23c b963 093d e8cc 11bd b21e cd3c
00000340: 2222 c13c d84b 41bb 806e c63c 52b7 b33d
00000350: 68c0 51bd 4d06 b9bd f73b 3dbd 734f 113e
00000360: 7e46 6e3c 2e7f 2dbd dd70 09bc faf7 173e
00000370: ace0 ca3c b6ce c33c de44 6c3d 5885 8fbb
00000380: b84d 433b fecb a63b ca44 80bd e03b 30bd
00000390: 7454 99bd 139a a0ba 5b3b 4e3d 8ab6 b73c
000003a0: 0f9f 983c 8cb0 c5bc a61e 213d 51f8 0b3d
000003b0: d927 9c3c 833a 083d 3e84 043d 2796 e7bc
000003c0: 63c1 623c f900 8ebd e08d 53bd 64c7 0e3d
000003d0: 94e0 e93c c73b 083c 2111 08bc 347d 1abd
000003e0: ea7c db3b c3c6 afbb a045 06bd f0bb 643c
000003f0: dad0 53bd 621f 5dbd 7de2 8fbc d90f 60bb
