唐雪亮/week03/model_week03.pth (torch, 18105 bytes, 5 tensors)

embedding.weight f4 [28, 20]
0.0 0.0 0.0 0.0 0.0 0.0 0.0 0.0
0.0 0.0 0.0 0.0 0.0 0.0 0.0 0.0
0.0 0.0 0.0 0.0 -1.1546606 0.65695345 -0.13069929 -1.139279
-0.36241072 0.2619201 -0.5294917 -1.251769 0.79860634 0.4130297 1.6723766 -0.6111916
0.5331346 1.3168914 -0.3277955 -0.9447689 0.30368346 -0.18831497 0.48039597 -0.24869725
1.6501806 1.2517972 0.5137455 0.42156422 1.4530311 1.1945623 2.4533997 0.34302717
-0.36576587 2.4595077 0.24405889 -1.1522347 -0.19807987 -0.7388408 1.3215468 0.315046
-0.20984866 -1.2596374 -1.1028796 -0.47340402 0.40679234 -0.4856466 -0.4449084 -0.73013026
-1.7902124 -0.15419312 -0.97876173 -1.1137064 0.63521016 1.138502 -0.30716065 1.0459052
-1.3773316 0.76835155 1.4744463 0.2660327 0.0028090575 1.4176764 0.15784723 0.005577225
1.3234606 -0.7213601 -0.2647313 0.7179417 -1.8659084 0.15080142 -0.094267406 -0.8393382
0.44298106 1.7965211 0.43581787 1.7468541 0.13781728 -0.34430727 -0.5932723 -0.8056316
-1.3332613 -0.19615631 -0.5670998 1.400359 -0.699204 -0.14922516 0.45881218 1.6660327
-0.5553505 -1.2961826 0.5211671 0.25163612 -0.64579856 1.1627173 -0.1121569 0.32082626
1.584524 0.4903083 -1.1932799 0.8548942 -2.3253624 -1.5458714 0.560412 -2.158526
0.540725 0.7740958 0.08841679 0.6085646 0.8131984 -1.4528494 0.67672956 0.45979863
-1.4711035 -0.662481 -0.43905076 0.670101 -0.19983657 1.5267564 -0.031675532 0.17285405
-1.2278624 1.135739 -0.28928995 0.902891 0.5300125 -0.9007444 1.6902707 0.17818414
-1.6264406 -2.7222867 0.6355803 0.61005163 -2.3634818 -1.2245396 -0.15553391 0.47423506
1.9316652 0.2355881 2.3372757 -1.1081647 -0.67774713 0.2469955 0.86407703 -1.0916946
-0.3080475 0.5267114 -0.4862756 0.5915953 1.6071619 -0.10790076 1.0416731 0.44123363
1.9563193 1.2431816 0.8060333 -0.08601061 -1.1617432 2.4777362 -0.3659066 0.55079526
0.059206594 -0.67666566 -0.25046426 0.66866946 1.3474921 0.39167655 0.017063498 1.8804238
2.5128682 -0.13276337 -1.4945982 -0.5560023 0.26156533 -0.680928 2.244365 1.6953493
-0.107877195 -1.503497 0.5123983 1.3483925 -2.2167215 -1.028116 -0.21792126 -0.22276345
-0.3337574 0.8096479 -1.0821233 1.6575441 -0.15333219 0.14245035 -0.28551775 1.1938711
0.69894415 0.01644401 1.846424 0.95387185 0.20559545 -1.5987788 0.7332517 -0.5586885
-0.6270382 1.1772202 2.2548025 -1.7517886 0.8786178 -0.17048605 -2.3922784 -0.10303764
-0.079600066 -0.40308657 2.5967672 1.7148843 -1.9343579 -1.3302758 0.7929061 -1.6676298
1.8425348 -1.1632246 -1.0075494 0.30407113 -0.70129365 0.9810165 0.35168487 0.10957846
1.4010835 0.008038857 0.3603969 1.1333723 0.25018817 -2.477881 0.3714602 2.22498
-0.86704636 -2.101715 0.5258607 0.7915599 -1.9724905 -0.837853 1.2718793 1.6676552
00000000: 0000 0000 0000 0000 0000 0000 0000 0000
00000010: 0000 0000 0000 0000 0000 0000 0000 0000
00000020: 0000 0000 0000 0000 0000 0000 0000 0000
00000030: 0000 0000 0000 0000 0000 0000 0000 0000
00000040: 0000 0000 0000 0000 0000 0000 0000 0000
00000050: ebcb 93bf 1a2e 283f 09d6 05be e5d3 91bf
00000060: e68d b9be 641a 863e c58c 07bf f739 a0bf
00000070: 7771 4c3f a178 d33e 7010 d63f 0d77 1cbf
00000080: 827b 083f e68f a83f d0d4 a7be 60dc 71bf
00000090: 667c 9b3e a4d5 40be 76f6 f53e 7eaa 7ebe
000000a0: 1e39 d33f e43a a03f d384 033f 44d7 d73e
000000b0: ecfc b93f 6be7 983f 8004 1d40 42a1 af3e
000000c0: aa45 bbbe 9368 1d40 93ea 793e 6d7c 93bf
000000d0: 73d5 4abe ac24 3dbf 7228 a93f b64d a13e
000000e0: 91e2 56be cc3b a1bf 292b 8dbf 0362 f2be
000000f0: 1647 d03e aca6 f8be 09cb e3be d1e9 3abf
00000100: ae25 e5bf cde4 1dbe 2190 7abf ee8d 8ebf
00000110: 229d 223f 6fba 913f 2944 9dbe 39e0 853f
00000120: 674c b0bf b0b2 443f a8ba bc3f 7035 883e
00000130: 2a18 383b 6c76 b53f b4a2 213e 27c1 b63b
00000140: 2867 a93f 0eab 38bf dc8a 87be 07cb 373f
00000150: 16d6 eebf b06b 1a3e 450f c1bd dede 56bf
00000160: 6ace e23e 67f4 e53f 8523 df3e ea98 df3f
00000170: f91f 0d3e 0b49 b0be b2e0 17bf df3d 4ebf
00000180: 4ea8 aabf 33dd 48be 742d 11bf f73e b33f
00000190: 09ff 32bf 7bce 18be 6ee9 ea3e 8f40 d53f
000001a0: 732b 0ebf 50e9 a5bf 356b 053f 73d6 803e
000001b0: 0e53 25bf ecd3 943f 84b2 e5bd 5743 a43e
000001c0: afd1 ca3f b109 fb3e 65bd 98bf 59da 5a3f
000001d0: bdd2 14c0 1ddf c5bf 2977 0f3f 4a25 0ac0
000001e0: f46c 0a3f 242b 463f dd13 b53d e4ca 1b3f
000001f0: c52d 503f f8f6 b9bf 263e 2d3f ba6a eb3e
00000200: 1f4d bcbf 5b98 29bf 43cb e0be bd8b 2b3f
00000210: f5a1 4cbe c16c c33f 34be 01bd a700 313e
00000220: 982a 9dbf e55f 913f d01d 94be dd23 673f
00000230: e6ae 073f 2f97 66bf ca5a d83f e775 363e
00000240: 352f d0bf f239 2ec0 64b5 223f 582c 1c3f
00000250: 4943 17c0 b7bd 9cbf 4844 1fbe f0ce f23e
00000260: ce40 f73f 023e 713e ed95 1540 57d8 8dbf
00000270: d680 2dbf 63ec 7c3e 2734 5d3f a6bc 8bbf
00000280: 67b8 9dbe 8fd6 063f 1ef9 f8be ca72 173f
00000290: 7bb7 cd3f 13fb dcbd 8b55 853f 60e9 e13e
000002a0: ac68 fa3f 9320 9f3f 3358 4e3f 5526 b0bd
000002b0: 00b4 94bf 3b93 1e40 1c58 bbbe eb00 0d3f
000002c0: 9d82 723d f639 2dbf da3c 80be ec2d 2b3f
000002d0: 9f7a ac3f d489 c83e c0c8 8b3c bab1 f03f
000002e0: d5d2 2040 1ff3 07be fe4e bfbf 2b56 0ebf
000002f0: e4eb 853e 4c51 2ebf ada3 0f40 3501 d93f
00000300: b8ee dcbd 9772 c0bf 892c 033f 2098 ac3f
00000310: c4de 0dc0 4e99 83bf c026 5fbe 1a1c 64be
00000320: 40e2 aabe 1645 4f3f 0483 8abf 682a d43f
00000330: 1d03 1dbe 81de 113e 622f 92be c5d0 983f
00000340: 01ee 323f 97b5 863c 9f57 ec3f f230 743f
00000350: 9d87 523e c9a4 ccbf 62b6 3b3f 3606 0fbf
00000360: 9385 20bf 27af 963f af4e 1040 9c3a e0bf
00000370: 19ed 603f e593 2ebe 171b 19c0 6605 d3bd
00000380: 5c05 a3bd 5d61 cebe 6f31 2640 5481 db3f
00000390: 0a99 f7bf 7a46 aabf e5fb 4a3f e574 d5bf
000003a0: 2ed8 eb3f 8be4 94bf 61f7 80bf 36af 9b3e
000003b0: fb87 33bf e623 7b3f 0a10 b43e ac6a e03d
000003c0: b456 b33f 69b5 033c f185 b83e 5812 913f
000003d0: aa18 803e 9a95 1ec0 0830 be3e 1366 0e40
000003e0: c0f6 5dbf 8082 06c0 cf9e 063f aba3 4a3f
000003f0: 927a fcbf 897d 56bf f1cc a23f ba75 d53f

rnn.weight_ih_l0 f4 [48, 20]
-0.17061202 -0.14568485 0.18136674 0.016796216 0.12324207 0.2237642 0.027510682 -0.011945781
0.032439318 -0.16433398 -0.16022459 0.0726277 -0.00074871304 -0.17163272 -0.041836068 -0.040829316
0.05836606 -0.055826988 -0.08270043 -0.07164871 -0.08039909 -0.2317493 0.09219201 0.015835294
0.15414472 0.054837216 -0.13040325 0.0319754 0.106775 -0.14368905 -0.07346795 -0.035041705
0.025458053 -0.16739 -0.10493892 0.0005735594 0.13614598 0.15765049 -0.09408706 -0.007713477
-0.08699671 0.034854215 0.04549531 -0.1767344 -0.015707454 0.014783613 -0.05827431 -0.09937686
0.11748274 0.12628984 0.022536019 -0.12118477 -0.12008392 0.17338608 -0.15284632 0.086200014
-0.05194005 -0.118303485 -0.049274202 0.038517926 0.16374128 -0.047207937 0.28371814 -0.029784096
0.17674945 0.0798498 0.17646055 -0.06282027 -0.00939409 -0.008019936 0.052859135 -0.16434427
-0.18952848 -0.26487237 0.05158915 -0.22768061 0.13419804 0.001211472 -0.280484 -0.16995619
-0.086870775 0.14873886 -0.033554766 0.12290313 -0.042157806 -0.15668999 0.026960539 0.08185518
0.09387007 0.083473355 -0.048366677 0.15472217 -0.00088179606 -0.06928716 -0.06920965 0.073146366
-0.07954196 -0.13369043 -0.042462833 0.094119005 -0.0217238 0.20210306 -0.14473625 0.048931032
-0.063807145 0.013691092 0.1661651 0.10829839 -0.06481635 0.13811943 0.19567333 -0.11002338
0.21392506 0.15775664 0.055175446 0.097220965 -0.04525293 -0.13666846 0.043886762 -0.09205055
0.15444683 0.03610985 0.17692675 -0.10626665 0.09933298 0.19124797 0.089038834 0.0724474
-0.062356703 0.25032073 -0.0034470828 -0.081773505 -0.23691939 -0.18044625 0.08421693 -0.04663278
-0.03636084 0.028869588 -0.20880365 -0.12819715 0.04794205 0.1512768 0.16376531 -0.026492327
0.073930606 0.09691967 0.22800438 0.06992391 0.13268287 0.05545651 0.14682664 -0.11936984
0.00706585 -0.11762137 0.19432525 -0.16908759 -0.00891169 -0.042817827 -0.064011194 -0.16151226
0.09571832 0.07628283 -0.12552348 -0.08625243 -0.10177944 0.06631666 -0.014033434 -0.053519607
-0.04203017 0.17199685 0.13004705 0.09870558 0.08142935 0.03451121 0.1402087 0.0043870443
-0.1051413 -0.19799894 -0.050229985 -0.08373742 -0.17927687 -0.24631588 0.02842058 -0.16043554
0.029548079 0.00740714 -0.20437896 -0.10537274 -0.09251671 -0.17859235 -0.15651949 0.09762971
-0.20469078 -0.062885 -0.13951783 -0.228573 0.17952235 0.07057504 -0.07086169 -0.08599774
0.15156724 0.20822383 -0.22158207 -0.04490198 -0.04966136 -0.1402201 -0.017241232 -0.003469469
-0.032747183 0.025459249 0.13081682 0.03352334 -0.00813624 0.07074512 0.20773512 0.21716088
-0.19565862 -0.22346075 0.1264275 0.028452026 0.05604046 -0.053333174 -0.30923766 -0.10963313
-0.029419336 -0.059420433 -0.14147483 -0.12803257 0.19598277 -0.21094272 0.1135278 0.14306562
-0.060844187 0.24346052 -0.05118381 0.14755976 -0.2533182 -0.14158389 0.21930546 0.08522071
0.0089266775 -0.19014254 0.08817004 -0.09656402 0.14761011 0.041798793 0.014100331 0.093342096
0.03137149 0.07026853 -0.14513512 -0.03771203 -0.12037269 -0.20802474 -0.093129046 0.025301347
00000000: ebb4 2ebe 692e 15be 34b8 393e 3898 893c
00000010: 5766 fc3d 7122 653e 155e e13c 3db8 43bc
00000020: 17df 043d 2b47 28be ea11 24be d5bd 943d
00000030: 4845 44ba 7dc0 2fbe 4c5c 2bbd a43c 27bd
00000040: 4011 6f3d d7aa 64bd d85e a9bd 8fbc 92bd
00000050: 47a8 a4bd b04f 6dbe 2acf bc3d 05b9 813c
00000060: 1dd8 1d3e fd9c 603d 6e88 05be a3f8 023d
00000070: daac da3d 3923 13be 5d76 96bd e487 0fbd
00000080: 688d d03c 4968 2bbe 37ea d6bd eb5a 163a
00000090: da69 0b3e 216f 213e b7b0 c0bd 56c1 fcbb
000000a0: 552b b2bd 4bc3 0e3d 4a59 3a3d ddf9 34be
000000b0: ebac 80bc f836 723c 0bb1 6ebd 1886 cbbd
000000c0: ca9a f03d 2052 013e 759d b83c b82f f8bd
000000d0: 8fee f5bd 1f8c 313e bf83 1cbe a289 b03d
000000e0: 17bf 54bd 1949 f2bd bfd3 49bd f9c4 1d3d
000000f0: cbab 273e 1c5d 41bd 8143 913e c7fd f3bc
00000100: cffd 343e 4b88 a33d 13b2 343e eaa7 80bd
00000110: abe9 19bc 0d66 03bc d282 583d dd49 28be
00000120: c113 42be 5a9d 87be 254f 533d 1b25 69be
00000130: 366b 093e 41ca 9e3a 999b 8fbe ff08 2ebe
00000140: 4ee9 b1bd 004f 183e b970 09bd a3b4 fb3d
00000150: aaad 2cbd 5773 20be 59dc dc3c b0a3 a73d
00000160: f43e c03d 14f4 aa3d 231c 46bd 7d6f 1e3e
00000170: 5528 67ba 6de6 8dbd cabd 8dbd c3cd 953d
00000180: e5e6 a2bd 25e6 08be 82ed 2dbd 77c1 c03d
00000190: 1cf6 b1bc 1bf4 4e3e bd35 14be e86b 483d
000001a0: 52ad 82bd 9a50 603c 2f27 2a3e 8ccb dd3d
000001b0: 6fbe 84bd 2e6f 0d3e 975e 483e f053 e1bd
000001c0: 2c0f 5b3e f58a 213e a6ff 613d c91b c73d
000001d0: 235b 39bd d1f2 0bbe 9bc2 333d 0085 bcbd
000001e0: 4f27 1e3e ece7 133d 492c 353e 54a2 d9bd
000001f0: 176f cb3d 82d6 433e fe59 b63d 4d5f 943d
00000200: be69 7fbd 0a2a 803e 74e8 61bb de78 a7bd
00000210: ff9a 72be e7c6 38be ed79 ac3d 0402 3fbd
00000220: 1bef 14bd ea7f ec3c a0d0 55be 1d46 03be
00000230: e25e 443d 4ee8 1a3e 18b2 273e 7006 d9bc
00000240: ee68 973d d27d c63d fb79 693e 4434 8f3d
00000250: 05de 073e 5e26 633d b959 163e 2d78 f4bd
00000260: a588 e73b 79e3 f0bd 33fd 463e 4c25 2dbe
00000270: 5602 12bc bf61 2fbd 4d18 83bd 7863 25be
00000280: f707 c43d 2c3a 9c3d 3a89 00be 1da5 b0bd
00000290: bd71 d0bd 07d1 873d 7dec 65bc 6037 5bbd
000002a0: d427 2cbd f11f 303e 0e2b 053e 2726 ca3d
000002b0: 6ec4 a63d a05b 0d3d df92 0f3e 32c1 8f3b
000002c0: 5254 d7bd 3cc0 4abe f5bd 4dbd 867e abbd
000002d0: 5b94 37be 3b3a 7cbe 47d2 e83c 3749 24be
000002e0: d00e f23c 98b7 f23b b848 51be aacd d7bd
000002f0: 6779 bdbd eae0 36be a546 20be 16f2 c73d
00000300: 769a 51be dac9 80bd c3dd 0ebe 0a0f 6abe
00000310: b5d4 373e a689 903d ef1f 91bd 951f b0bd
00000320: 7134 1b3e a138 553e 69e6 62be 23eb 37bd
00000330: b669 4bbd dc95 0fbe 7c3d 8dbc 0860 63bb
00000340: e921 06bd ea8f d03c d8f4 053e c54f 093d
00000350: dd4d 05bc d1e2 903d 84b8 543e 6c5f 5e3e
00000360: bc5a 48be e5d2 64be 3676 013e 3914 e93c
00000370: ae8a 653d e373 5abd 6654 9ebe 5687 e0bd
00000380: d200 f1bc d762 73bd c7de 10be f81a 03be
00000390: b5af 483e 5e01 58be 4381 e83d cb7f 123e
000003a0: c137 79bd b74d 793e 1da6 51bd e819 173e
000003b0: ecb2 81be 5efb 10be 9c91 603e 3288 ae3d
000003c0: 3341 123c bab4 42be 7e92 b43d 5bc3 c5bd
000003d0: 1b27 173e 3635 2b3d 1305 673c 242a bf3d
000003e0: 647f 003d f2e8 8f3d 4d9e 14be ee77 1abd
000003f0: f585 f6bd 7004 55be 71ba bebd c544 cf3c

rnn.weight_hh_l0 f4 [48, 48]
0.057731677 0.007897501 0.0350054 0.09012082 -0.049468767 -0.04466743 -0.1270869 0.10532925
-0.0713794 0.1296087 0.018271348 -0.023329087 0.0869316 -0.06476173 -0.10393948 0.010805898
-0.09478112 -0.047242112 0.13699518 0.10031555 0.006505804 0.0088119935 -0.11247122 0.19560394
0.0032602511 0.10829215 0.065282725 -0.102308914 -0.0011551676 0.03517406 -0.019549346 0.07672586
-0.11029429 0.04779955 0.016905282 -0.003383507 0.017196149 -0.05793748 0.09895255 0.029235022
0.044066958 -0.026507694 0.13262592 -0.00023896407 -0.021834735 -0.06179696 -0.046243526 -0.13083726
-0.0134310145 0.029044062 0.00046482647 0.106712654 0.12539041 -0.115720585 -0.04652791 -0.10751964
0.025473846 0.08893642 -0.04756355 -0.1488129 0.10248622 -0.038689606 -0.092707254 -0.07209751
-0.10764538 0.12302595 -0.009595401 0.01645487 -0.014412858 -0.08284765 -0.16379796 0.09675968
0.10678544 0.13202873 0.020046132 0.12113088 0.1046826 -0.08254388 0.12295779 0.045259286
-0.107957795 0.0013759673 0.11345266 0.10258125 -0.14402124 0.13034575 -0.11290524 0.089864425
0.10163543 0.054395244 0.13641706 -0.18058293 2.4957855e-05 0.024982115 0.027699811 0.12659879
0.14483099 -0.0068876795 -0.02643714 0.025636857 -0.033613365 -0.023495933 0.03428046 0.091472395
-0.1918767 0.021841947 -0.027569408 0.02191477 -0.07536758 -0.03294683 0.06193589 0.06762593
-0.10498759 -0.052223768 -0.06489355 -0.019350993 -0.06623523 -0.15181716 0.026160255 0.15891795
-0.08612485 -0.007996741 -0.0014272801 0.0020512508 -0.12512045 -0.081290275 -0.22106324 -0.10139607
-0.081147276 0.08841226 0.24794972 -0.0029129677 -0.0011635234 -0.025356745 0.039511196 0.041529074
0.10677011 0.2636169 0.15161662 -0.19174509 -0.021578362 -0.048592445 -0.0133854365 0.045247637
0.068496116 0.01792931 -0.115692176 -0.054135006 -0.019381326 0.08101196 -0.16095166 0.06026223
-0.092791624 0.19589044 -0.07360702 0.118350685 0.067423984 -0.0478155 -0.09975358 0.13280016
0.115826465 0.055265523 -0.012575024 -0.047172036 0.11274231 0.1247792 0.07409767 0.026901249
0.07850802 0.016237482 0.152596 -0.026072325 0.036847908 -0.08322698 -0.054660857 0.11031831
-0.16454089 0.15904538 0.081765704 0.15470761 -0.023495857 -0.18030399 -0.013687945 -0.001132208
-0.08780936 -0.07280268 -0.016221305 0.07611397 -0.04852901 -0.06329458 -0.08128686 0.02145418
-0.07688419 0.027973548 0.11288177 -0.005722285 0.046741936 -0.056388866 0.027147576 -0.04270207
0.16286278 -0.0045524393 0.17900904 -0.07652133 -0.18549144 -0.12272872 0.0060763513 0.05052028
-0.05546596 -0.083424084 0.06961546 0.19639742 -0.0675023 0.08423636 0.1355286 -0.050799385
0.08354297 -0.11605932 0.038888887 -0.16024688 0.18546402 -0.025588652 -0.013206706 0.037547275
0.19612421 -0.051174596 -0.11657702 -0.09884518 0.1396053 0.10027304 -0.16978872 -0.11228125
-0.14073965 -0.24070652 -0.010541701 -0.02656458 0.18721846 0.06571699 0.0036536304 -0.04986212
-0.10186642 0.012892856 -0.09867448 -0.051888287 -0.014554859 0.2038827 0.12252571 -0.013595385
0.060717233 -0.18738598 0.1873552 -0.028428445 0.030893134 0.058767524 0.14863582 0.1921441
00000000: 0d78 6c3d 8564 013c d361 0f3d 4491 b83d
00000010: c39f 4abd 32f5 36bd 1123 02be ddb6 d73d
00000020: 5d2f 92bd 25b8 043e cbad 953c a41c bfbc
00000030: 3209 b23d cca1 84bd 39de d4bd 390b 313c
00000040: 9b1c c2bd f280 41bd 7748 0c3e 3d72 cd3d
00000050: a42e d53b 2e60 103c 5057 e6bd 664c 483e
00000060: f0a9 553b 46c8 dd3d f3b2 853d 5687 d1bd
00000070: fe68 97ba ad12 103d f325 a0bc 7322 9d3d
00000080: f9e1 e1bd 76c9 433d f27c 8a3c d4bd 5dbb
00000090: f0de 8c3c da4f 6dbd a2a7 ca3d 497e ef3c
000000a0: 8e7f 343d aa26 d9bc 17cf 073e 6e92 7ab9
000000b0: c2de b2bc cf1e 7dbd da69 3dbd 34fa 05be
000000c0: c20d 5cbc d0ed ed3c f4b3 f339 2a8c da3d
000000d0: 5866 003e eafe ecbd 0d94 3ebd 4233 dcbd
000000e0: 87ae d03c 4c24 b63d ffd1 42bd 6962 18be
000000f0: 4ce4 d13d fe78 1ebd 4ddd bdbd dca7 93bd
00000100: 2e75 dcbd 07f5 fb3d 0736 1dbc 5dcc 863c
00000110: e823 6cbc 07ac a9bd a7ba 27be f029 c63d
00000120: 53b2 da3d 8a32 073e c937 a43c 7813 f83d
00000130: d563 d63d c40c a9bd 4bd1 fb3d cd61 393d
00000140: fa18 ddbd cd59 b43a de59 e83d 1e16 d23d
00000150: 4e7a 13be 5b79 053e dd3a e7bd d70a b83d
00000160: 3c26 d03d 8ccd 5e3d eab0 0b3e bbea 38be
00000170: 965c d137 4ba7 cc3c b7ea e23c 1da3 013e
00000180: 934e 143e 0bb2 e1bb b392 d8bc 6304 d23c
00000190: 2bae 09bd 8b7a c0bc ab69 0c3d e155 bb3d
000001a0: 537b 44be e2ed b23c 3dd9 e1bc 9b86 b33c
000001b0: 515a 9abd 41f3 06bd 7db0 7d3d 777f 8a3d
000001c0: bc03 d7bd 97e8 55bd e9e6 84bd f985 9ebc
000001d0: 56a6 87bd f575 1bbe 084e d63c 63bb 223e
000001e0: 3a62 b0bd c304 03bc 9313 bbba 476e 063b
000001f0: 931f 00be 847b a6bd 675e 62be bea8 cfbd
00000200: 8b30 a6bd 7d11 b53d 88e6 7d3e 7de7 3ebb
00000210: 5e81 98ba f3b8 cfbc 7ed6 213d 641a 2a3d
00000220: 4aaa da3d cbf8 863e 6341 1b3e d358 44be
00000230: 1bc5 b0bc df08 47bd 974e 5bbc 9655 393d
00000240: b147 8c3d 7de0 923c 05f0 ecbd abbc 5dbd
00000250: 96c5 9ebc 99e9 a53d 83d0 24be 87d5 763d
00000260: 8909 bebd 8197 483e 47bf 96bd d861 f23d
00000270: 9615 8a3d 30da 43bd 9b4b ccbd c4fc 073e
00000280: 6d36 ed3d 1a5e 623d 7907 4ebc 7737 41bd
00000290: 71e5 e63d 3d8c ff3d 85c0 973d 0260 dc3c
000002a0: d0c8 a03d 7804 853c 2042 1c3e a195 d5bc
000002b0: d5ed 163d e872 aabd 10e4 5fbd 91ee e13d
000002c0: 687d 28be cbdc 223e c774 a73d ac6b 1e3e
000002d0: 627a c0bc 9ca1 38be 6743 60bc 9966 94ba
000002e0: 65d5 b3bd 9219 95bd 8be2 84bc a4e1 9b3d
000002f0: 5bc6 46bd 97a0 81bd ba79 a6bd adc0 af3c
00000300: 7575 9dbd c828 e53c 8f2e e73d 0182 bbbb
00000310: 7974 3f3d 03f8 66bd 9864 de3c 5ee8 2ebd
00000320: 80c5 263e a12c 95bb 254e 373e 37b7 9cbd
00000330: 78f1 3dbe 3259 fbbd 211c c73b 5aee 4e3d
00000340: 4630 63bd 3fda aabd 8d92 8e3d 681c 493e
00000350: a53e 8abd 1d84 ac3d 02c8 0a3e 0413 50bd
00000360: 9418 ab3d 82b0 edbd f449 1f3d c217 24be
00000370: 48ea 3d3e 4b9f d1bc f160 58bc 2ccb 193d
00000380: c9d4 483e 749c 51bd efbf eebd 576f cabd
00000390: b1f4 0e3e f45b cd3d 18dd 2dbe b6f3 e5bd
000003a0: 0e1e 10be c57b 76be 19b7 2cbc f69d d9bc
000003b0: 32b6 3f3e a196 863d bf71 6f3b 393c 4cbd
000003c0: 579f d0bd 8f3c 533c d915 cabd d088 54bd
000003d0: 8177 6ebc a0c6 503e c2ee fa3d 2dbf 5ebc
000003e0: a2b2 783d 1ce2 3fbe 0bda 3f3e c5e2 e8bc
000003f0: 9913 fd3c 37b6 703d fd33 183e 6cc1 443e

classify.weight f4 [2, 48]
-0.13024384 -0.12333941 0.09682958 -0.3159403 0.055206586 0.093868345 -0.2852008 -0.22506516
-0.12066676 -0.067518756 0.20772602 0.15637586 -0.043027848 0.038545754 0.36508736 0.25038096
0.14702421 -0.2733249 -0.123774186 -0.2107937 -0.12869729 0.08213661 -0.09250512 -0.27191007
0.15201561 -0.105761155 -0.23499213 0.09054076 -0.15177637 0.08091106 0.30943212 -0.23916121
0.1662905 -0.12483941 -0.07433438 -0.22824304 0.19208467 0.1202148 0.19916464 -0.36306804
-0.34209675 -0.23428345 -0.049833927 0.13568357 0.23353443 0.18793641 -0.35211146 0.08564003
-0.07844855 0.025609268 -0.026602084 0.24313137 -0.059137564 -0.13232858 0.18886742 0.1072208
-0.11236956 0.23289758 -0.27585703 -0.37583083 0.26276526 -0.17099224 -0.33014655 -0.3368851
-0.29235592 0.32155642 0.19916719 0.09870504 0.27937198 -0.048955444 -0.0051932316 0.06611126
-0.079782344 0.23397706 0.31551692 -0.15533476 0.33240438 -0.20308667 -0.30905944 0.17123002
-0.14295733 0.29163295 -0.0026084895 0.06667934 -0.16499019 -0.10025249 -0.27532327 0.3266015
0.33238727 0.28293023 -0.043777395 -0.20481472 -0.19082536 -0.44833678 0.24754797 -0.19576086
00000000: a45e 05be 5f99 fcbd 964e c63d edc2 a1be
00000010: 4d20 623d 0c3e c03d d705 92be 7b77 66be
00000020: 2220 f7bd 4647 8abd 21b6 543e fe20 203e
00000030: f83d 30bd 27e2 1d3d bbec ba3e ef31 803e
00000040: 848d 163e 3ef1 8bbe 527d fdbd 4eda 57be
00000050: 39c9 03be 3d37 a83d 5373 bdbd cc37 8bbe
00000060: fba9 1b3e 4e99 d8bd c7a1 70be 6f6d b93d
00000070: 446b 1bbe b3b4 a53d e36d 9e3e ade6 74be
00000080: 0f48 2a3e ceab ffbd a03c 98bd 8bb8 69be
00000090: d8b1 443e 2d33 f63d d1f1 4b3e 0ee4 b9be
000000a0: 4e27 afbe 00e8 6fbe a91e 4cbd a2f0 0a3e
000000b0: a623 6f3e 6772 403e f447 b4be 0a64 af3d
000000c0: a2a9 a0bd 87ca d13c 9dec d9bc 6ef7 783e
000000d0: 3b3a 72bd 2581 07be 7666 413e 9496 db3d
000000e0: 0322 e6bd b47c 6e3e 223d 8dbe e66c c0be
000000f0: 2b89 863e 9718 2fbe f808 a9be 347c acbe
00000100: adaf 95be 0ba3 a43e 7cf2 4b3e de25 ca3d
00000110: d809 8f3e 8185 48bd fc2b aabb 5765 873d
00000120: ed64 a3bd af97 6f3e 6f8b a13e 1310 1fbe
00000130: e830 aa3e f4f5 4fbe 0a3d 9ebe ec56 2f3e
00000140: 6863 12be ea50 953e 31f3 2abb 2e8f 883d
00000150: 30f3 28be 2d51 cdbd 2cf7 8cbe 5038 a73e
00000160: aa2e aa3e 3bdc 903e ed4f 33bd f3ba 51be
00000170: b967 43be 668c e5be 377d 7d3e 8975 48be

classify.bias f4 [2]
0.07502592 -0.22758761
00000000: 31a7 993d ba0c 69be
