张人元/week02/model.bin (torch, 2005 bytes, 2 tensors)

linear.weight f4 [5, 5]
0	0x4060b31a	3.5109315
1	0xbfd1c247	-1.6387414
2	0xbfbb830d	-1.4649369
3	0xbfae31d1	-1.3608953
4	0xbfebf40a	-1.843385
5	0xbfbce858	-1.4758406
6	0x4068eac0	3.639328
7	0xbfac478b	-1.3459333
8	0xbfd5844f	-1.6681002
9	0xbfd77e2b	-1.6835378
10	0xbfd24fe2	-1.6430628
11	0xbfd8cedb	-1.6938127
12	0x4061ba04	3.5269785
13	0xbfc7c074	-1.5605607
14	0xbfdc3ad0	-1.7205448
15	0xbfcc9bab	-1.5985006
16	0xbfd0f8c3	-1.6325916
17	0xbfd1bb30	-1.638525
18	0x406a5adb	3.6617954
19	0xbfd43dc0	-1.6581345
20	0xbfc91f64	-1.5712705
21	0xbfb6d5f7	-1.4284047
22	0xbfb0d7a5	-1.381581
23	0xbfb45de4	-1.4091153
24	0x4050bd1d	3.2615426

linear.bias f4 [5]
0	0x3d5b50e7	0.05354395
1	0xbd1e63b1	-0.038669292
2	0x3e63bb7c	0.22239488
3	0x3ca541ca	0.020172972
4	0xbdfe45a0	-0.12415624
