黄鸿和/week03/model_rnn.pth (torch, 28506 bytes, 7 tensors)

embedding.weight f4 [22, 20]
0	0x00000000	0.0
1	0x00000000	0.0
2	0x00000000	0.0
3	0x00000000	0.0
4	0x00000000	0.0
5	0x00000000	0.0
6	0x00000000	0.0
7	0x00000000	0.0
8	0x00000000	0.0
9	0x00000000	0.0
10	0x00000000	0.0
11	0x00000000	0.0
12	0x00000000	0.0
13	0x00000000	0.0
14	0x00000000	0.0
15	0x00000000	0.0
16	0x00000000	0.0
17	0x00000000	0.0
18	0x00000000	0.0
19	0x00000000	0.0
20	0xbf112205	-0.56692535
21	0x3fc82cd5	1.5638682
22	0xbd555228	-0.052080303
23	0x3f98af0b	1.1928419
24	0x401154cd	2.2708008
25	0xbfd796da	-1.6842911
26	0x3f45f2ca	0.7732359
27	0xbf817efc	-1.0116878
28	0xbec452a8	-0.38344312
29	0xbfddcc05	-1.7327887
30	0x3fe73a16	1.8064601
31	0xbfbcf8ad	-1.476339
32	0x3f8cbbb1	1.0994779
33	0x3f8cc67e	1.0998075
34	0xbe372363	-0.17884593
35	0x40127699	2.2884886
36	0x401dda7a	2.4664598
37	0x3edf78fe	0.43646997
38	0x4035f3e0	2.84301
39	0xbfb3fe7e	-1.406204
40	0x3f611b58	0.8793235
41	0xbe93bb30	-0.2885375
42	0xbfd49e6c	-1.6610847
43	0xc017e640	-2.3734283
44	0x3d77b5e4	0.0604762
45	0x3fc8addb	1.5678056
46	0xbf7223cf	-0.9458589
47	0xbf8b945c	-1.0904651
48	0xbf376038	-0.71631193
49	0xbf9b16f5	-1.2116381
50	0xbf1e495a	-0.61830676
51	0xbe077515	-0.13228257
52	0xbfb22f9a	-1.3920777
53	0xbf569a32	-0.83829033
54	0xbe0f3928	-0.13986647
55	0x3f04cc04	0.51873803
56	0x3f8fea90	1.1243458
57	0x3fb99fe6	1.4501922
58	0x3ff421c9	1.907281
59	0x3f0dc17d	0.55373365
60	0xbf71923c	-0.9436376
61	0x3feea84c	1.864511
62	0xbf74ddce	-0.9565095
63	0x3da53ea4	0.080685884
64	0x3fc7437f	1.5567473
65	0x3d9d56b0	0.0768255
66	0x3f467d2b	0.7753474
67	0x3fba691f	1.456333
68	0x3f4d7d0c	0.8026893
69	0x3f64fd4f	0.8944902
70	0x4003b651	2.0580027
71	0xbfe57649	-1.7926723
72	0xbee6bafc	-0.45064533
73	0x3fad5274	1.3540788
74	0xbf952677	-1.1652364
75	0x403a9070	2.9150658
76	0x3e664e57	0.22490822
77	0x3f9b1673	1.2116226
78	0x4004c8f7	2.074766
79	0x3fe56926	1.7922714
80	0xbfc844a7	-1.5645951
81	0x3f544d53	0.8293049
82	0xbe1c2af2	-0.15250757
83	0xbf618662	-0.88095677
84	0xbf8215fb	-1.0162958
85	0x3fdbfe9a	1.7187073
86	0x3f0de9dd	0.5543497
87	0xbdb91ab1	-0.09038294
88	0xbfae09f2	-1.3596785
89	0x3f6a4918	0.9151778
90	0xbd93e1f8	-0.072208345
91	0x3ff0926a	1.8794682
92	0xbfb2b14e	-1.3960359
93	0xbf56ae4d	-0.8385971
94	0xbefc10e7	-0.49231645
95	0xbfaff848	-1.3747644
96	0xbf1103c5	-0.56646377
97	0x3f324c53	0.6964771
98	0xbf01191f	-0.50428957
99	0xbf69d239	-0.913364
100	0xbf7d2117	-0.98878616
101	0xbf838d74	-1.0277543
102	0xbef606b4	-0.4805199
103	0x3fc55fad	1.5419823
104	0x3f3637a7	0.7117867
105	0xbfe5fe02	-1.7968142
106	0x3dd0def3	0.10198774
107	0x3d946fb6	0.0724787
108	0xbeb84370	-0.3598895
109	0xbf5602ac	-0.83597827
110	0x3fa197ef	1.2624491
111	0x3ec3b9ae	0.382276
112	0x3fa10e43	1.2582477
113	0xbf824e4b	-1.0180143
114	0xbf3e388d	-0.7430504
115	0x3f32f27d	0.6990126
116	0xbe9e816c	-0.30958116
117	0xbf56c77a	-0.8389813
118	0x3fc55510	1.5416584
119	0x3f196272	0.5991584
120	0xbf92f4a5	-1.148091
121	0xbf6286af	-0.8848676
122	0x3ce37a09	0.027768152
123	0xbf512d78	-0.81710005
124	0xbf6cc44b	-0.9248702
125	0xbf4d81ee	-0.8027638
126	0xbecbe3f7	-0.3982236
127	0xbf28552f	-0.6575498
128	0x3f65fb56	0.89836633
129	0xbec46fca	-0.38366538
130	0x3f890efe	1.07077
131	0xbf88e533	-1.0694946
132	0x3f4ed360	0.8079128
133	0xbfadfefa	-1.3593438
134	0xbe919077	-0.2843053
135	0x3d146cbc	0.03623651
136	0xbea090bf	-0.31360433
137	0x3ecb4852	0.39703614
138	0x3dbe577b	0.09294029
139	0x3f9cec39	1.225959
140	0x3ff5f167	1.9214295
141	0x3f1023cb	0.56304616
142	0x3fe5f797	1.7966183
143	0x3f825c97	1.0184506
144	0xbe189e2b	-0.14904086
145	0x3ee8d529	0.45475128
146	0x3f120807	0.570435
147	0x3e84afbb	0.25915322
148	0xbfba3c00	-1.454956
149	0x3fa8ca24	1.3186688
150	0xbfa84d5e	-1.314861
151	0x3ed85cac	0.42258203
152	0x3f7b0d1a	0.98066866
153	0xbea654f1	-0.3248668
154	0x3f48108a	0.78150237
155	0x3fc8ab77	1.5677327
156	0x3fae2688	1.3605509
157	0x3ed6bf0e	0.41942638
158	0x3f724672	0.9463874
159	0x40096a9b	2.1471317
160	0x3f6c1682	0.92221844
161	0xbd4ee831	-0.050514404
162	0x3fc3ec54	1.5306497
163	0xbfb38789	-1.4025737
164	0xbf530c12	-0.8244029
165	0xbeb7f727	-0.3593075
166	0xbf8da8d7	-1.1067151
167	0x3eac963d	0.33708373
168	0xbf5fa6b7	-0.8736376
169	0x3f40348d	0.75080186
170	0xbe6fe5f1	-0.2342756
171	0x3e679c56	0.22618231
172	0xbeec2c11	-0.4612737
173	0x3f800f0a	1.000459
174	0xbe4073d7	-0.1879419
175	0xbd2cb9ff	-0.042169567
176	0xbf8974c5	-1.073876
177	0xbeda7883	-0.42670068
178	0xbf91b649	-1.1383754
179	0x3f92605c	1.1435657
180	0x3ef790d3	0.4835268
181	0x3e8294d6	0.25504178
182	0x3f335dfa	0.7006527
183	0xbfaada52	-1.3347876
184	0xbe4117b9	-0.18856706
185	0xbfc7055b	-1.5548509
186	0xbf4eb6e8	-0.8074784
187	0x3fc3551e	1.5260351
188	0xbf219690	-0.63120365
189	0x3fb61e9f	1.4228095
190	0x3f3bd56a	0.7337252
191	0xbed30764	-0.41216576
192	0xbf84342d	-1.0328423
193	0xbfe288f0	-1.769804
194	0xbec13bba	-0.3774088
195	0x3eeacfd0	0.45861673
196	0xbf9c3ae3	-1.2205471
197	0xc0067b80	-2.1012878
198	0x3e7228ae	0.2364833
199	0xbfb806fc	-1.4377131
200	0x3fd0135f	1.6255912
201	0x3e8ebe05	0.27879348
202	0x3f0e23d0	0.55523396
203	0x3eb3bcf2	0.3510509
204	0x3dd208b9	0.1025557
205	0x3f8beca4	1.0931592
206	0x3f1418d6	0.57850397
207	0xbfefec85	-1.8744055
208	0xbebf1011	-0.37316945
209	0x3f987f88	1.191392
210	0x3f34c8d1	0.7061892
211	0x3ff2ef59	1.8979293
212	0xbe575b1d	-0.2103085
213	0xbee2374b	-0.4418281
214	0xbe812a4b	-0.2522758
215	0x3f95ff7a	1.171859
216	0x3e4d2410	0.20033288
217	0x3ee4f8f5	0.4472119
218	0x3f17df88	0.59325457
219	0x3f882589	1.0636455
220	0x3fa1c5d7	1.2638501
221	0x3c07f9ee	0.008299334
222	0xc0476431	-3.1154902
223	0xbf0cb0ee	-0.54957473
224	0x3edf319b	0.43592533
225	0xbf3b3018	-0.7312026
226	0xbf0f0e11	-0.5588084
227	0xbd046a1f	-0.032327767
228	0xbec217a2	-0.37908655
229	0x3d6b7c05	0.05749132
230	0x3f9d2842	1.2277911
231	0xbdf14eef	-0.117826335
232	0xbe702715	-0.23452409
233	0xbf03df53	-0.5151264
234	0x400e60ef	2.2246664
235	0xbf9b1448	-1.2115564
236	0x3d2da895	0.0423971
237	0x3e83fe40	0.25779915
238	0xbe911b59	-0.28341177
239	0x3fb88132	1.4414427
240	0xc0401b22	-3.001656
241	0x3f613606	0.8797306
242	0xbef9ea50	-0.4881158
243	0xbbcaf8e8	-0.0061942227
244	0xbfc14448	-1.5098963
245	0xbe0609d2	-0.13089684
246	0x3f8ba2d9	1.0909072
247	0xc0184175	-2.3789952
248	0xbfbb0503	-1.4610904
249	0xbf949c0d	-1.1610123
250	0x3fb87ee5	1.4413725
251	0xbf08280f	-0.53186125
252	0xbf723672	-0.94614327
253	0x3edf5d18	0.43625712
254	0xbfbbdb59	-1.4676315
255	0xc02aa592	-2.6663556

rnn.weight_ih_l0 f4 [64, 20]
0	0xbd8bd284	-0.06827262
1	0x3b93a3ba	0.0045056017
2	0xbd250150	-0.040284455
3	0xbe55dbf6	-0.2088469
4	0x3da8e4cb	0.08246764
5	0x3dde9452	0.108681336
6	0x3c591161	0.013248772
7	0x3d0bca8c	0.03412871
8	0xbdffd20e	-0.124912366
9	0xbe1df4f6	-0.15425476
10	0xbd8286c3	-0.0637336
11	0xbe72ce43	-0.23711495
12	0xbe53a66c	-0.20668954
13	0x3e283e0c	0.16429919
14	0xbdef5eb3	-0.11687984
15	0x3e815f73	0.25268134
16	0x3e59196f	0.21201108
17	0x3e73e892	0.23819187
18	0x3e1706f2	0.14748743
19	0xbe028a46	-0.1274806
20	0x3e0d1de4	0.13780934
21	0xbbb6eed0	-0.005582668
22	0x3bfbc773	0.0076836883
23	0xbd8684f8	-0.065683305
24	0x3d861f43	0.065489314
25	0xbda80fb3	-0.082061194
26	0x3d8873cf	0.06662714
27	0xbc8bbf56	-0.01705901
28	0xbd30dc07	-0.043178584
29	0x3daa8783	0.08326628
30	0xbd70fa65	-0.058832545
31	0x3c97058b	0.01843526
32	0x3d6b4859	0.057442043
33	0xbbaff81c	-0.005370153
34	0xbd08d1c9	-0.03340319
35	0xbe10d4c6	-0.14143667
36	0xbe0eb652	-0.13936737
37	0xbe005377	-0.1253184
38	0xbdf1f2c2	-0.118138805
39	0xbca0e2aa	-0.019639332
40	0xbddce415	-0.10785691
41	0x3de91110	0.113802075
42	0x3ceb606e	0.028732505
43	0xbd926a72	-0.07149209
44	0x3d137dd6	0.03600868
45	0xbd0f6359	-0.035006855
46	0xbe2932a4	-0.16523224
47	0x3dc1d622	0.09464671
48	0x3c72eb05	0.014826541
49	0xbe2ae156	-0.16687521
50	0xbd45a7ee	-0.048255853
51	0x3ccbdc74	0.024885394
52	0xbd3d4674	-0.046209767
53	0x3da542f6	0.080694124
54	0x3d6fd6f0	0.05855459
55	0x3dc2b37b	0.095068894
56	0x3d162384	0.036654964
57	0x3c77b0db	0.015117849
58	0x3e132848	0.14370835
59	0x3d9757e2	0.07389809
60	0xbc34bb59	-0.011030995
61	0xbd91bf82	-0.07116605
62	0xbd37f1d0	-0.044908345
63	0x3cdf3a59	0.027249502
64	0x3da4637c	0.08026788
65	0x3d4475f5	0.047964055
66	0x3c5a191f	0.013311653
67	0x3d3e826f	0.04651111
68	0xbd39e9e9	-0.04538909
69	0x3d605e44	0.0547774
70	0xbd33a256	-0.043855987
71	0xbd54db85	-0.051967163
72	0xbde5558b	-0.11197957
73	0x3d9ecf8d	0.07754431
74	0xbca57655	-0.020198027
75	0xbe03ea73	-0.12882404
76	0xbdec3a95	-0.11534611
77	0xbdd2dc61	-0.1029594
78	0xbd7a26b2	-0.06107206
79	0x3c1a5a6c	0.009420972
80	0xbda0f4ab	-0.07859167
81	0x3e38053c	0.17970747
82	0xbc1086ab	-0.00882117
83	0xbd3f570b	-0.04671387
84	0xbccf7e77	-0.025328858
85	0x3e0b4e87	0.13604175
86	0x3d1934e7	0.037403967
87	0x3e14c4bd	0.14528175
88	0xbc8b0363	-0.016969388
89	0xbe245b5e	-0.16050479
90	0x3e25fd39	0.16209878
91	0xbe54abec	-0.20768708
92	0xbcb99049	-0.022651808
93	0x3de83fc4	0.11340287
94	0xbd08cc3f	-0.03339791
95	0x3dd1907b	0.102326356
96	0x3d032b40	0.03202367
97	0x3c17ed05	0.009272818
98	0x3d4890f4	0.048966363
99	0xbcc0a053	-0.023513949
100	0x3d7715d2	0.060323544
101	0x3d9e12e5	0.077184476
102	0xbd9ff96a	-0.07811244
103	0x3d1d039c	0.03833352
104	0xbdced32b	-0.10098871
105	0x3cdcff76	0.026977282
106	0xbc84a047	-0.016189707
107	0xbd347af7	-0.04406258
108	0xbc85393d	-0.016262645
109	0x3bc4e1f3	0.0060083806
110	0x3d8a880d	0.06764231
111	0xbd8313ea	-0.06400283
112	0x3db134aa	0.08652623
113	0xbc8b8673	-0.017031884
114	0x3dadd9dc	0.08488819
115	0x3e412d2d	0.1886489
116	0x3df80743	0.1211076
117	0xbd6bfbb8	-0.057613105
118	0x3e11727a	0.14203826
119	0xbd97848f	-0.073983304
120	0x3d5249c6	0.051339887
121	0xbd9a38dd	-0.07530377
122	0xbda084c6	-0.078378245
123	0xbe0a5cc7	-0.13511954
124	0xbd9acac1	-0.075582035
125	0xbd672284	-0.0564294
126	0xbde34547	-0.11097198
127	0xbd03aef6	-0.032149278
128	0x3d6b3e8a	0.05743269
129	0xbd2ac724	-0.04169382
130	0xbe330d9d	-0.17485662
131	0x3d2f7eda	0.042845584
132	0xbc253eb0	-0.010085747
133	0x3dace834	0.08442727
134	0xbd8cbaf2	-0.068715945
135	0xbcb555a4	-0.022135563
136	0x3ccfc79b	0.025363734
137	0x3d2a72fe	0.04161357
138	0x3d9c09de	0.076190695
139	0x3d7f8b7f	0.062388893
140	0xbbeae09f	-0.00716789
141	0x3d96e392	0.07367624
142	0x3d7685ae	0.06018608
143	0x3db6481f	0.08900475
144	0xbd0976e0	-0.033560634
145	0xbba8ee28	-0.0051553436
146	0xbcfbc9b2	-0.030735824
147	0x3d9ecc0b	0.07753762
148	0x3dccd753	0.10002007
149	0x3cc6bb97	0.024259372
150	0x3da9bbfe	0.0828781
151	0xbde741db	-0.11291858
152	0xbd0c0173	-0.03418107
153	0x3cff2b24	0.0311485
154	0x3c809288	0.015694872
155	0xbbf45d24	-0.0074573923
156	0x3cbfe70d	0.023425603
157	0xbc97c27d	-0.018525356
158	0x3dd082dd	0.1018121
159	0x3db9e98a	0.09077747
160	0x3c347610	0.011014476
161	0x3d119dff	0.035551067
162	0xbdb89580	-0.0901289
163	0x3dabf1b8	0.083957136
164	0xbe1137bd	-0.14181419
165	0xbccffdf2	-0.025389645
166	0xba000e73	-0.00048849656
167	0xbccad644	-0.024760373
168	0x3d8a8ae8	0.067647755
169	0xbd68a4e2	-0.05679787
170	0xbdc8e60c	-0.09809503
171	0xbde7ef24	-0.11324909
172	0x3cd20e5a	0.025641609
173	0xbc5f6f38	-0.013637356
174	0x3da674c3	0.08127739
175	0x3c305454	0.010762293
176	0x3d9ddefb	0.07708546
177	0xbd913780	-0.07090664
178	0xbd3198cc	-0.04335861
179	0xbca543fa	-0.020174015
180	0xbda75c25	-0.08171872
181	0x3d47337d	0.048633087
182	0xbd82bb2c	-0.063833565
183	0x3e31b96d	0.1735589
184	0x3d7901e1	0.060792807
185	0xbcfff0bd	-0.031242723
186	0xbdac7759	-0.08421201
187	0xbd965f24	-0.073423654
188	0xbd043074	-0.03227277
189	0x3e0210de	0.12701747
190	0xbda5738d	-0.0807868
191	0x3dffb065	0.124848165
192	0x3dccc070	0.09997642
193	0xbe026333	-0.12733154
194	0xbd78bea7	-0.060728695
195	0xbd8dbae7	-0.069204144
196	0x3c4d578f	0.012533083
197	0xbd779360	-0.060443282
198	0xbe17c8ee	-0.14822742
199	0x3db0aed0	0.08627093
200	0xbbe09e08	-0.0068547763
201	0x3e293e3b	0.16527645
202	0xbe4a1e20	-0.19738054
203	0xbd01c56f	-0.031682428
204	0x3982a81b	0.0002492078
205	0x3dbc5109	0.09195144
206	0xbd9fc605	-0.07801441
207	0xbd132919	-0.035927866
208	0xbcb217c6	-0.021739852
209	0xbe32535d	-0.17414613
210	0x3d05278b	0.032508414
211	0xbe24ec1e	-0.16105697
212	0xbdaa1934	-0.08305588
213	0x3e1e16d7	0.154384
214	0x3d4207ea	0.04737083
215	0x3db9689b	0.09053155
216	0x3d384999	0.044992063
217	0x3e1d1733	0.15340881
218	0x3e9a4c00	0.30136108
219	0xbdc36510	-0.095407605
220	0xbd7d3bd6	-0.061824642
221	0xbd9fcca0	-0.07802701
222	0x3d24327e	0.040087216
223	0x3d175410	0.036945403
224	0x3cb5e71c	0.022204928
225	0x3bd92892	0.006627151
226	0x3d24084c	0.040046975
227	0xbc4341eb	-0.011917572
228	0x3cb079fa	0.021542538
229	0x3d557f68	0.052123457
230	0xbdd56a6c	-0.10420689
231	0x3da6c6b7	0.081433706
232	0x3d975e06	0.073909804
233	0x3d8995eb	0.06718048
234	0x3ccadaa2	0.024762455
235	0xbd65db79	-0.05611751
236	0xbd8885e2	-0.06666161
237	0xbe09cbdb	-0.13456671
238	0xbe4d838c	-0.20069712
239	0xbcbcd2c2	-0.023049716
240	0x3ca6adf6	0.020346623
241	0xbd231250	-0.039812386
242	0x3c2919a3	0.010321054
243	0xbd5c01d1	-0.05371267
244	0xbdbc5304	-0.091955215
245	0xbcd254ea	-0.025675256
246	0x3dac116f	0.08401763
247	0xbe059645	-0.13045605
248	0x3d8bcb17	0.06825846
249	0x3d662361	0.056186084
250	0xbd42f39c	-0.047595605
251	0x3b92a038	0.004474666
252	0xbdb47ebf	-0.088132374
253	0xbd1096cf	-0.035300072
254	0x3d2a78e4	0.041619197
255	0xbdb02a13	-0.08601775

rnn.weight_hh_l0 f4 [64, 64]
0	0x3de45b10	0.11150181
1	0xbd967bef	-0.07347857
2	0xbc851f14	-0.01625017
3	0xba19d8b3	-0.00058687775
4	0xbced11e3	-0.028939193
5	0x3d9672af	0.07346093
6	0x3e3c5e13	0.18395261
7	0xbe07542d	-0.13215704
8	0x3ca0d073	0.019630646
9	0xbdf726ad	-0.12067924
10	0xbda7f12c	-0.08200297
11	0x3b685abb	0.003545447
12	0x3c12071c	0.008912828
13	0xbd839ec5	-0.06426767
14	0xbdb33487	-0.08750253
15	0xbdee488b	-0.1163493
16	0xbd143892	-0.036186762
17	0x3d08a25e	0.03335797
18	0x3dfa68b4	0.12227002
19	0xbb223849	-0.0024752787
20	0xbdd8545d	-0.10562966
21	0x3e1cbfbb	0.15307514
22	0xbb4a4782	-0.0030865376
23	0xbde4d1a3	-0.111727975
24	0x3cb52fcc	0.022117518
25	0x3d70b176	0.05876299
26	0x3dc14617	0.09437197
27	0xbde3fec2	-0.111325756
28	0x3b0c4562	0.002140366
29	0xbdbcbf91	-0.09216226
30	0x3da55e43	0.080746196
31	0xbda10972	-0.0786313
32	0xbdf7ee2d	-0.12105975
33	0x3a89d3f4	0.0010515437
34	0x3def25ae	0.11677109
35	0x3e163725	0.14669473
36	0x3c26bf12	0.010177391
37	0xbe41fdf7	-0.18944536
38	0xbd8fdeda	-0.070249274
39	0xbd498623	-0.04920019
40	0xbd2cf5f2	-0.04222674
41	0x3b7f9145	0.00389965
42	0xbc49af39	-0.012309843
43	0x3d5f090e	0.054451995
44	0x3d54baf2	0.051936097
45	0x3d64422c	0.05572717
46	0xbc37f93f	-0.0112288585
47	0xbca4f55c	-0.020136528
48	0xbd559903	-0.052147876
49	0x3e257269	0.16156925
50	0xbe06974b	-0.13143651
51	0xbe264f3d	-0.16241165
52	0xbcc5a7da	-0.02412789
53	0x3d295fe2	0.041351207
54	0xbd0dfef7	-0.03466698
55	0xbdd25a67	-0.10271149
56	0xbd69a127	-0.057038452
57	0x3ba2bc65	0.004966306
58	0xbb0e3215	-0.0021697332
59	0xbcfc4e6d	-0.030799115
60	0x3d848ff4	0.064727694
61	0xbe022d20	-0.12712526
62	0x3e29eb42	0.1659365
63	0xbd5b5dd9	-0.053556297
64	0x3e2a80d4	0.16650707
65	0x3d4b21c1	0.049592737
66	0xbe02fbd3	-0.12791376
67	0xbe1f2a6d	-0.15543528
68	0x3d00b916	0.03142651
69	0xbd152798	-0.036414713
70	0x3e614bd1	0.22001578
71	0xbe0df893	-0.13864355
72	0x3d8aedbe	0.06783627
73	0xbd98a7b0	-0.07453859
74	0x3d575bf5	0.05257793
75	0xbd648246	-0.0557883
76	0xbd93b736	-0.07212679
77	0xbe09006e	-0.1337907
78	0x3b5ed98f	0.0034004187
79	0xbe3d5e76	-0.18493065
80	0xbbdea50b	-0.006794577
81	0xbd7d051a	-0.061772443
82	0xbe10ddae	-0.14147064
83	0xbe341ac0	-0.1758833
84	0xbe39984f	-0.18124507
85	0xbcb8309e	-0.02248412
86	0xbe019cb2	-0.12657431
87	0xbd8bfbc6	-0.06835131
88	0x3dcd15d0	0.10013926
89	0x3ced3ee5	0.028960655
90	0x3ddf0564	0.108897
91	0xbd8e39b8	-0.06944603
92	0x3e04af1c	0.12957424
93	0x3c1c4c55	0.009539683
94	0xbe1dcfe4	-0.15411335
95	0x3d9cadf1	0.07650364
96	0xbd8f2d14	-0.0699102
97	0xbd1d6634	-0.038427547
98	0x3b92bd02	0.004478098
99	0x3e220394	0.15821677
100	0x3db0539e	0.08609699
101	0xbe5ddeca	-0.21667019
102	0x3bb9e5cb	0.0056731454
103	0xbe51c925	-0.20486887
104	0x3cb21a35	0.021741012
105	0x3e331af9	0.17490758
106	0xbac21578	-0.0014807424
107	0x3ca8611b	0.020554116
108	0x3ce42d2d	0.027853573
109	0x3dc48bb7	0.09596961
110	0x3e7d9c9d	0.24766774
111	0xbe088460	-0.13331747
112	0xbe3b926e	-0.18317577
113	0x3e1de0ef	0.15417837
114	0x3d075f84	0.033050075
115	0xbd6c5c2e	-0.057705097
116	0xbe4e7230	-0.20160747
117	0x3e153012	0.14569119
118	0x3dccf984	0.10008529
119	0x3d395279	0.045244668
120	0x3d08562d	0.03328531
121	0x3e396faa	0.18109003
122	0x3c4c928a	0.0124861095
123	0xbe05bd27	-0.13060437
124	0xbdceb675	-0.10093395
125	0xbe1693de	-0.14704844
126	0x3e642403	0.22279362
127	0xbaccedde	-0.0015634855
128	0xbe67375f	-0.22579716
129	0x3decc19a	0.11560364
130	0xbe09999b	-0.13437502
131	0x3dace65f	0.08442377
132	0xbd489402	-0.048969276
133	0xbde40dbb	-0.111354314
134	0x3d479559	0.048726413
135	0x3dc4c150	0.09607184
136	0x3deab492	0.11460222
137	0x3c8f3025	0.017479012
138	0xbddd4972	-0.10805024
139	0x3ddae89f	0.106889
140	0x3c36ce92	0.011157649
141	0x3e63ae06	0.22234353
142	0xbd8cb739	-0.068708844
143	0x3e0bbd56	0.13646445
144	0xbd1e3942	-0.038628824
145	0x3db9c4a7	0.090707116
146	0x3c76a359	0.015053594
147	0x3ca0f129	0.019646244
148	0xbd23912a	-0.03993336
149	0x3d496d34	0.04917641
150	0xbc06c095	-0.008224626
151	0x3d28c2a9	0.041201267
152	0x3e1cae62	0.15300897
153	0xbd21a67d	-0.039465416
154	0xbe24ad96	-0.16081843
155	0xbd8b9452	-0.06815399
156	0xbbe315f5	-0.0069301077
157	0xbe1b5dc4	-0.15172487
158	0x3d8c014a	0.06836183
159	0xbd8e5c05	-0.06951145
160	0xbcd11f90	-0.025527745
161	0x3e2244a0	0.15846491
162	0x3c259e56	0.010108551
163	0xbd0f8097	-0.035034742
164	0x3d3cee11	0.046125475
165	0x3c33bdcb	0.010970543
166	0xbd5e117e	-0.0542159
167	0x3e3a8ae6	0.18217048
168	0x3e513c14	0.20433074
169	0x3cef6dcc	0.02922716
170	0xbe88d3ac	-0.26723993
171	0xbda13b2d	-0.07872615
172	0x3d8626aa	0.06550343
173	0xbe7271a8	-0.23676169
174	0xbe61c194	-0.220465
175	0x3d18ce08	0.03730586
176	0xbcebe8be	-0.028797504
177	0xbcaea407	-0.021318449
178	0x3da5e3bd	0.08100078
179	0xbe3a5b4a	-0.18198887
180	0x3d4b63ca	0.049655713
181	0xbdea28a2	-0.11433531
182	0xbda879d9	-0.082263656
183	0xbe0799c7	-0.13242255
184	0xbd6a76f3	-0.057242345
185	0xbd4aa843	-0.049476873
186	0xbd9090c7	-0.07058864
187	0x3e4dc339	0.20094003
188	0xbdc61199	-0.09671325
189	0x3d8d3e73	0.06896677
190	0x3d0c12cc	0.034197614
191	0xbdba60e5	-0.091005124
192	0x3d8cfe6d	0.06884465
193	0x3df82392	0.121161595
194	0xbd92a4da	-0.07160349
195	0xbde56a6e	-0.112019405
196	0x3dab6cf2	0.08370389
197	0xbd0623ab	-0.03274886
198	0xbc839e30	-0.01606664
199	0xbcd3daac	-0.025861107
200	0xbc1c3fcc	-0.009536695
201	0xbd8dc528	-0.0692237
202	0x3e241eab	0.16027324
203	0x3d374032	0.044738956
204	0xbd9cf490	-0.07663834
205	0x3d944299	0.07239265
206	0x3df524bf	0.119698994
207	0x3d364ef1	0.04450888
208	0xbe03c753	-0.12869005
209	0x3df7f471	0.121071704
210	0x3db2f16d	0.087374546
211	0xbc1f2b83	-0.009714964
212	0xbe3982fe	-0.18116376
213	0x3d9c2a1e	0.07625221
214	0xbe268009	-0.16259779
215	0x3c82ada3	0.015951937
216	0x3e4acda5	0.1980501
217	0xbd74e0e2	-0.059784777
218	0x3dd0ac6e	0.10189138
219	0xbe616bfa	-0.22013846
220	0x3c539cb4	0.012915779
221	0x3dbec62b	0.09315141
222	0x3e00357d	0.12520404
223	0x3e44a29a	0.19202653
224	0x3a732a01	0.00092759734
225	0xbe390098	-0.18066633
226	0xbd04d530	-0.032429874
227	0x3e52c13a	0.20581523
228	0x3e067cf5	0.13133605
229	0xbe3d809f	-0.18506096
230	0x3d939a32	0.07207145
231	0xbe0e027a	-0.13868132
232	0xbde8a0ff	-0.113588326
233	0xbd40138d	-0.046893645
234	0xbc8018dc	-0.015636854
235	0x3e798883	0.24368481
236	0xbd6be4f3	-0.05759139
237	0xbdbbd89e	-0.09172176
238	0x3e177947	0.14792357
239	0xbe45de2f	-0.19323038
240	0xbdb71400	-0.089393616
241	0x3d67f4ee	0.056630068
242	0xbdb9af33	-0.0906662
243	0xbcfeac9a	-0.031088162
244	0xbe2ba7de	-0.16763255
245	0x3e3f5eb8	0.18688476
246	0xbbffb58a	-0.0078036236
247	0xbde69213	-0.1125833
248	0xbd233d3a	-0.039853312
249	0x3dcd4d88	0.100245535
250	0xbc559219	-0.013035321
251	0xbcdde4c1	-0.027086617
252	0xbce1a16d	-0.027542794
253	0xbd3c242e	-0.04593294
254	0x3e3f9f2d	0.18713064
255	0x3e334055	0.1750501

rnn.bias_ih_l0 f4 [64]
0	0x3cbe2da3	0.02321512
1	0x3e1545d3	0.14577417
2	0xbdced51a	-0.1009924
3	0xbd54abe3	-0.051921736
4	0xbdb15953	-0.08659615
5	0xbc92e2d1	-0.01793042
6	0xbbc409fc	-0.0059826355
7	0xbd0e2ece	-0.034712605
8	0x3cc7ae2f	0.02437505
9	0xbc81664f	-0.015795855
10	0xbd2d7ff3	-0.04235835
11	0x3d738d0b	0.05946068
12	0xbdab9d32	-0.08379592
13	0x3e058694	0.13039619
14	0x3c2a752a	0.010403911
15	0x3dfe7eea	0.12426551
16	0x3e16dbb6	0.1473225
17	0x3d8fdfe9	0.07025129
18	0xbc997c30	-0.018735975
19	0x3db056dd	0.08610318
20	0x3d93dc05	0.072197
21	0xbd8fa431	-0.07013739
22	0xbd5d1169	-0.05397168
23	0x3d7c6265	0.061617274
24	0xbdb1aaad	-0.08675132
25	0x3bab1b68	0.005221773
26	0xbe070ed6	-0.13189253
27	0xbd6cc2fc	-0.05780314
28	0x3df32e59	0.118740745
29	0x3ce07fdc	0.027404718
30	0x3e2e3f25	0.17016275
31	0xbdc8ddee	-0.09807955
32	0x3da140f1	0.07873715
33	0x3e2a7703	0.16646962
34	0xbd8d5e5c	-0.06902763
35	0x3c400d81	0.01172197
36	0xbd409d1f	-0.047024842
37	0x3e0c422f	0.13697122
38	0x3d74139f	0.059589025
39	0x3c87ff75	0.016601304
40	0xbd221887	-0.039574172
41	0x3c9baf98	0.019004628
42	0x3c5b4b26	0.013384616
43	0x3cee5766	0.02909441
44	0xbd2ec3dc	-0.042667255
45	0xbc8cb716	-0.017177146
46	0x3dbf1375	0.09329883
47	0x3e0bbab9	0.13645448
48	0x3dad85fa	0.084728196
49	0xbbcb1d20	-0.0061985403
50	0x3cb126fa	0.02162503
51	0xbdf4fc40	-0.11962175
52	0x3cba8ce2	0.022772256
53	0xbcf85eb7	-0.030318601
54	0xbd9b6b0a	-0.075887755
55	0x3deaa4cf	0.11457216
56	0x3d91f9b7	0.071277075
57	0xbd2fa52c	-0.04288213
58	0x3cce48cf	0.025181202
59	0x3dedb857	0.11607426
60	0x3cbf2013	0.023330724
61	0x3de9a079	0.11407561
62	0xbdeba76e	-0.11506544
63	0xbde8a1e2	-0.11359002

rnn.bias_hh_l0 f4 [64]
0	0xbd3970bf	-0.04527354
1	0x3d91d775	0.07121173
2	0x3dc16c59	0.09444494
3	0xbdecde8e	-0.115658864
4	0xbde23cb9	-0.11046738
5	0xbb1012cc	-0.002198386
6	0x3d9ee41d	0.07758353
7	0xbd561501	-0.052266125
8	0xbdd0dd52	-0.101984635
9	0xbe01ea06	-0.12686929
10	0xbd42df94	-0.047576502
11	0xbde8a79b	-0.11360093
12	0x3dadb851	0.08482421
13	0x3db41fae	0.08795105
14	0xbd5c2cb9	-0.05375359
15	0x3cd32442	0.025774125
16	0x3dd5df72	0.104430094
17	0xbd2ec975	-0.042672593
18	0xbd3b71ed	-0.045762945
19	0xbd888ba7	-0.066672616
20	0xbd91c7b6	-0.0711817
21	0xbcdf068f	-0.027224807
22	0x3d854af4	0.06508437
23	0xbd8167b4	-0.06318608
24	0xbcd9fed1	-0.026610764
25	0xbdbcf6eb	-0.09226783
26	0xbd7dcb6f	-0.061961588
27	0x3df9b8c2	0.12193443
28	0xbd97ed7c	-0.074183434
29	0xbd285a99	-0.041102026
30	0x3d656e7e	0.056013577
31	0xbdb2eae0	-0.08736205
32	0x3d93d375	0.072180666
33	0x3da5767d	0.080792405
34	0xbc09b21a	-0.008404279
35	0xbdc66f1e	-0.09689163
36	0xbdb5bf0e	-0.088743314
37	0x3d77695f	0.060403224
38	0xbc526f55	-0.012843926
39	0xbdbcad2e	-0.09212719
40	0x3e423da7	0.18968831
41	0x3cf0c510	0.029390842
42	0x3ada8d38	0.0016674167
43	0x3dcc71fa	0.09982677
44	0x3d4f5653	0.050619435
45	0x3dc28ec0	0.09499884
46	0xbde03a05	-0.10948566
47	0xbcaf7dc0	-0.021422267
48	0xbd194ec5	-0.037428636
49	0x3e064619	0.13112678
50	0xbd232508	-0.039830238
51	0x3c972f22	0.018455092
52	0xbda8920f	-0.082309835
53	0xbac850ac	-0.0015282831
54	0xbbc8966b	-0.006121447
55	0x3d5ce83a	0.053932406
56	0x3b7f23a6	0.003893116
57	0xbb7a60c2	-0.0038204645
58	0xbd034ba4	-0.03205456
59	0x3a0883ef	0.0005207648
60	0xbdeff67e	-0.117169365
61	0xbd1ffcf6	-0.0390596
62	0xbd02e409	-0.031955753
63	0x3c68dbc8	0.014212556

classify.weight f4 [7, 64]
0	0xbe08de7d	-0.13366123
1	0xbda01e44	-0.07818273
2	0x3d838127	0.06421118
3	0xbd714fae	-0.05891388
4	0xbe0f1d5f	-0.13976048
5	0xbc09bc9c	-0.008406784
6	0xbe715e49	-0.23571123
7	0x3ce619c3	0.028088456
8	0x3e546923	0.20743231
9	0x3e10238e	0.14076063
10	0x3d1168c6	0.03550031
11	0x3dcfcdab	0.1014665
12	0xbe0f83d5	-0.14015134
13	0x3ccff029	0.025383072
14	0x3d975fba	0.07391305
15	0xbd1bf474	-0.038074926
16	0xbe8d456c	-0.27592027
17	0x3dc25852	0.09489502
18	0x3df744cd	0.120736696
19	0xbe0969e1	-0.13419296
20	0xbe310070	-0.17285323
21	0xbcf7e5d9	-0.030260967
22	0xbe330369	-0.1748177
23	0xbe31a4fd	-0.17348094
24	0x3e65463a	0.2239007
25	0x3e24d805	0.1609803
26	0xbe39d1c6	-0.18146428
27	0xbe410a1d	-0.18851514
28	0xbe7de41d	-0.2479405
29	0x3e0766bb	0.13222782
30	0x3d07084d	0.0329669
31	0xbdc8700e	-0.09786998
32	0x3da6ea7a	0.081501916
33	0x3e10c56b	0.14137809
34	0xbdfbd192	-0.12295832
35	0xbe668518	-0.22511709
36	0x3dc03b94	0.093863636
37	0x3de87cb7	0.113519125
38	0x3e04c08a	0.12964073
39	0x3e33c81b	0.17556803
40	0x3cd9e614	0.026598968
41	0xbe2b7b4a	-0.1674625
42	0xbdc2610b	-0.09491166
43	0x3d7fbb68	0.062434584
44	0x3e95235f	0.29128549
45	0xbe574503	-0.2102242
46	0xbdb0616f	-0.08612334
47	0xbd1c6eb8	-0.038191527
48	0x3e0f1925	0.13974436
49	0xbd6b4195	-0.05743559
50	0x3e284967	0.16434251
51	0x3d356143	0.04428221
52	0xbe208299	-0.15674819
53	0xbe991d71	-0.29905275
54	0xbe0ac205	-0.13550575
55	0xbe66c822	-0.22537282
56	0x3d72e513	0.059300493
57	0xbe2e2314	-0.17005569
58	0xbd68d53f	-0.056843992
59	0x3e558133	0.20850067
60	0x3d63faff	0.05565929
61	0xbd951ebc	-0.07281253
62	0x3e21a76e	0.15786526
63	0xbdd2802a	-0.102783516
64	0x3e186845	0.14883526
65	0x3e49bb6f	0.19700406
66	0x3e6bd312	0.23029736
67	0x3e62b6e2	0.22140077
68	0xbc270a0e	-0.010195268
69	0xbe06c565	-0.13161238
70	0xbe8bb901	-0.27289584
71	0x3e3bd1cf	0.18341754
72	0x3d0fd9d2	0.03511984
73	0xbe8f1b29	-0.2795041
74	0xbdc0bf05	-0.09411434
75	0x3e052c29	0.13005127
76	0x3dc6c26b	0.09705051
77	0x3dbc5d13	0.0919744
78	0x3d56e8b3	0.052468013
79	0xbd3e98c6	-0.046532415
80	0x3e11fbe2	0.14256242
81	0xbe27c4bd	-0.16383643
82	0x3e0e19c7	0.13877021
83	0xbd448a60	-0.047983527
84	0x3e23e4dc	0.16005272
85	0xbdba923b	-0.091099225
86	0x3e53a1cd	0.20667191
87	0x3d884464	0.066536695
88	0xbe35a306	-0.1773797
89	0x3e45d734	0.19320375
90	0x3c3bdaa0	0.0114656985
91	0x3dab78bd	0.083726384
92	0x3d673d77	0.0564551
93	0x3e01100e	0.1260378
94	0x3d85c230	0.06531179
95	0x3dfea89b	0.12434503
96	0x3dd2565b	0.10270377
97	0x3e774409	0.24147047
98	0xbe45a5c5	-0.19301517
99	0xbe4f398b	-0.20236795
100	0xbea8ae07	-0.32945272
101	0x3d84d5c8	0.06486088
102	0x3e770d17	0.24126087
103	0x3dbef553	0.09324136
104	0x3e2b845a	0.16749707
105	0x3d5de6e1	0.05417526
106	0x3d9c09f7	0.07619088
107	0xbe044491	-0.12916781
108	0x3e64f80e	0.2236025
109	0xbd9348ea	-0.07191642
110	0xbea23023	-0.3167735
111	0xbe11b220	-0.14228106
112	0xbdacb8b1	-0.084336646
113	0xbe833eaf	-0.2563376
114	0x3d916818	0.070999324
115	0xbe65000b	-0.22363298
116	0x3ca01ec1	0.019545915
117	0xbe85373d	-0.26018706
118	0xbc8031d0	-0.015648752
119	0xbe15ef05	-0.1464196
120	0xbe2599d2	-0.16171959
121	0x3e850d33	0.25986633
122	0x3dee3ab5	0.11632291
123	0xbe047a3d	-0.12937255
124	0xbca32ad7	-0.019917889
125	0x3de12155	0.10992686
126	0x3dc089bf	0.09401273
127	0x3e8f025c	0.27931488
128	0x3bdc2c08	0.006719116
129	0x3e2a5243	0.16632943
130	0xbe7a6fc2	-0.24456695
131	0xbe2bcc10	-0.16777062
132	0x3e8247d5	0.25445428
133	0xbe61d601	-0.22054292
134	0x3e73f11f	0.23822449
135	0x3b57d4f2	0.0032933322
136	0x3e961de1	0.2931967
137	0xbd396b50	-0.045268357
138	0x3e57bcf2	0.2106817
139	0x3e45305a	0.19256726
140	0x3da9bff3	0.082885645
141	0x3e1a1c49	0.15049852
142	0xbe0d76c7	-0.13814841
143	0x3d8aedf5	0.06783668
144	0xbbb602af	-0.005554519
145	0x3dee7648	0.11643654
146	0x3e0c08d2	0.1367524
147	0x3dba7ebe	0.091062054
148	0xbd434ebd	-0.047682513
149	0xbe319a12	-0.1734393
150	0x3caaf091	0.020866664
151	0x3d875cad	0.066094734
152	0x3e8e1953	0.27753696
153	0xbd8cbfde	-0.06872533
154	0xbbde43ff	-0.006783008
155	0xbe50e275	-0.20398887
156	0x3ded85b4	0.115977675
157	0xbe11b48a	-0.14229026
158	0x3e0a6143	0.13513665
159	0x3d9e760a	0.07737358
160	0xbe4f41f8	-0.20240009
161	0xbdafd544	-0.08585599
162	0xbe44ac0d	-0.19206257
163	0x3d7f513a	0.062333323
164	0x3dbd57d2	0.09245266
165	0xbe6b7d7d	-0.22997089
166	0xbe2df65a	-0.16988507
167	0xbe8d3670	-0.27580595
168	0x3e8844fe	0.26615137
169	0x3ddcd269	0.1078232
170	0xbe58a196	-0.2115539
171	0x3dfa3006	0.12216191
172	0x3df2f8db	0.11863872
173	0xbe786aed	-0.24259539
174	0xbe170cb1	-0.14750935
175	0xbe4c5e03	-0.19957738
176	0xbe2e351e	-0.1701245
177	0x3d1c1f28	0.03811565
178	0xbe7a9371	-0.24470307
179	0xbe0ac309	-0.13550963
180	0xbe28c452	-0.1648114
181	0xbd5953cc	-0.05305843
182	0x3e3771ba	0.17914477
183	0x3d1b9d23	0.037991654
184	0xbe20e019	-0.15710486
185	0x3deb1ad9	0.1147973
186	0xbdfe7ca5	-0.12426118
187	0xbdf8d8fa	-0.1215076
188	0xbc3d5c33	-0.011557627
189	0x3d18ff72	0.037352987
190	0x3e622a00	0.22086334
191	0xbe69c684	-0.22829634
192	0x3d89d179	0.06729407
193	0x3ded5d66	0.1159008
194	0xbdc4d731	-0.09611357
195	0x3d08c0a0	0.033386827
196	0x3e3a4eb7	0.1819409
197	0xbe22da4d	-0.15903588
198	0x3ea1bc4b	0.3158897
199	0xbe52e6fe	-0.20595929
200	0x3d068a54	0.032846764
201	0xbc31806f	-0.010833844
202	0x3e4720a6	0.19446048
203	0xbe375027	-0.1790167
204	0x3ba7332b	0.0051025352
205	0xbe2a73d2	-0.16645744
206	0xbe232ab6	-0.15934262
207	0xbe34c47e	-0.17653081
208	0x3e367dc1	0.17821409
209	0xbe288fc8	-0.16461098
210	0xbc04615b	-0.008079852
211	0x3d72eca6	0.059307717
212	0x3e0ca2a0	0.13733912
213	0xbe49561c	-0.19661754
214	0x3e2441f7	0.16040789
215	0x3e6da65a	0.2320799
216	0xbc38a566	-0.011269903
217	0x3d30e2ef	0.04318517
218	0x3e83933d	0.2569827
219	0x3e2cde4f	0.16881679
220	0x3e2ed642	0.1707392
221	0xbe0ff679	-0.14058866
222	0xbe8b47f2	-0.27203327
223	0xbe18ab57	-0.14909111
224	0xbdfe7293	-0.12424197
225	0x3bd3fc91	0.0064693172
226	0x3c6a7a62	0.014311405
227	0xbaeb8fef	-0.0017971973
228	0xbe6d891d	-0.23196836
229	0xbd8479ab	-0.06468519
230	0x3dda1065	0.10647658
231	0xbe22eb03	-0.15909962
232	0x3e70e6fa	0.2352561
233	0x3e2e3617	0.17012821
234	0x3dd68eaa	0.1047643
235	0xbe80a63e	-0.25126833
236	0xbe26ff0c	-0.1630823
237	0x3e3d3e40	0.18480778
238	0x3e5ffbcf	0.21873401
239	0x3e2623e6	0.16224632
240	0xbe6e7732	-0.23287657
241	0xbd86fbee	-0.065910205
242	0xbe94b972	-0.29047734
243	0x3e60b291	0.21943118
244	0x3e0b94b5	0.13630946
245	0xbe203efd	-0.15649028
246	0x3e76c14a	0.24097171
247	0xbba3e0db	-0.00500117
248	0xbe749596	-0.23885188
249	0x3e08c70c	0.1335718
250	0x3e245ffd	0.16052242
251	0xbe49755b	-0.19673674
252	0xbcc1b7fb	-0.023647299
253	0x3dde1591	0.10843957
254	0xbdf9841f	-0.12183403
255	0xbdd9074e	-0.105970964

classify.bias f4 [7]
0	0x3c810a85	0.015752086
1	0xbe0871c2	-0.13324645
2	0xbc4f4ad2	-0.012652116
3	0xbd3461b9	-0.044038508
4	0x3d2b09e3	0.041757476
5	0xbe122501	-0.14271928
6	0x3db5faba	0.08885713
