唐雪亮/week13/lora_tuning.pth (torch, 178800 bytes, 8 tensors)

base_model.model.bert.encoder.layer.0.attention.self.query.lora_A.default.weight f4 [8, 768]
0.027386239 0.02574827 0.0068154847 -0.0076324176 -0.022636762 -0.053885393 0.0009228042 0.041873034
0.021279745 0.038919464 -0.037509244 -0.009991338 -0.023770312 0.018546961 -0.015362093 -0.03373073
0.016035555 0.021426754 -0.009412876 0.024958879 -0.015490895 -0.014500411 0.039598886 -0.012087509
0.016484171 0.02289014 0.033815764 0.03562866 -0.006010003 -0.035966415 -0.019146757 0.042873383
0.008723049 0.025797514 -0.011933947 -0.014905537 -0.019882917 -0.00017994584 0.012153416 -0.021609649
0.0030050566 0.016825968 -0.014132106 -0.024353733 0.048648562 -0.038903825 0.021102717 -0.00810788
0.011985958 0.03770042 -0.015698064 -0.035551436 0.016645433 -0.007986997 -0.03954945 -0.006304786
0.006342517 -0.015510666 -0.030906763 0.013616165 -0.007478324 -0.04115819 -0.04624564 -0.0068557644
0.028195405 0.012057933 0.014635838 0.0014536568 -0.0077612805 -0.041876215 0.008879698 -0.0053110295
-0.036201794 -0.02120503 0.031786356 -0.023982516 -0.04427257 0.05791165 0.011790601 0.010264324
0.0018063679 0.021885496 -0.027865523 -0.02275287 0.015561668 0.0029055348 -0.016951267 0.025822192
-0.0026007225 0.0047700484 -0.015143671 -0.027402615 -0.00517926 -0.014761858 0.0250682 -0.046647117
-0.01424881 0.028899632 -0.0054004495 0.011754823 -0.045094483 -0.01858595 -0.036691442 -0.011134849
0.013878677 -0.0011964621 -0.0024900055 -0.043134473 -0.02091539 -0.02504372 0.049394414 0.0093675675
0.021037415 0.009554417 0.004913886 -0.013338299 -0.020672759 0.0052512265 -0.04717149 0.013839715
0.01202507 -0.0043171286 -0.0072038434 -0.052524116 0.036386263 0.010524959 0.039962478 -0.03402869
-0.011798666 0.01996253 -0.043986823 0.02667425 -0.04123361 -0.021565065 0.023224838 -0.032406997
0.0149454465 0.0608946 0.035172712 0.037931316 -0.024744546 -0.01541849 -0.016135393 0.012045898
-0.02942598 0.0070850626 -0.038909957 -0.0013136037 0.0052623414 -0.03187008 0.01993647 -0.051031515
-0.017650047 -0.005428172 0.0011151001 0.029062342 0.02835755 -0.0039376807 -0.004445236 0.005608272
0.03085802 0.005966243 0.0006125204 -0.014023847 -0.022158395 -0.020015115 0.004504962 -0.00869433
0.013535787 -0.039457127 -0.029721482 0.026270537 -0.032687485 -0.006107418 -9.354162e-05 0.018363183
-0.026291398 -0.021557499 0.019569505 0.003987747 0.025676465 -0.0045797066 0.018698614 -0.008756396
-0.018327763 0.0025572914 -0.0071714497 -0.02413518 0.0030973086 0.01843176 -0.032323323 -0.024906356
0.035885092 -0.003151671 -0.009061822 0.009584727 0.004908703 0.0058360905 -0.03702869 0.02043376
0.019352702 0.015430621 -0.011127242 -0.027181225 0.018967535 0.018779295 0.013193714 -0.022912078
-0.029404178 -0.00425111 0.0043458017 -0.0015176343 0.0036683485 -0.038232956 -0.017131563 0.02540663
-0.031700704 -0.010802659 0.037500676 0.034574714 -0.007641193 -0.0024421262 -0.021428658 0.0029166515
-0.020765409 0.02827198 0.034500893 0.01730015 -0.025794985 -0.008201414 0.02454681 -0.031266257
-0.013263237 0.030265365 0.053768754 -0.01709237 0.01200704 0.011698318 0.006742942 0.02013474
-0.026440738 -0.040414236 -0.034183964 -0.013655247 0.013647221 -0.017394345 -0.030997522 -0.01812986
-0.041045833 -0.02893935 0.0020376805 0.027911037 -0.028431548 0.014079012 -0.019265015 -0.04586525
00000000: 1b59 e03c 09ee d23c 6e54 df3b 5c19 fabb
00000010: bb70 b9bc eeb6 5cbd 57e8 713a 0f83 2b3d
00000020: dc52 ae3c 046a 1f3d 4ba3 19bd b5b2 23bc
00000030: f5b9 c2bc ccef 973c 4ab1 7bbc 3c29 0abd
00000040: ff5c 833c 2987 af3c 7738 1abc 9076 cc3c
00000050: 86cd 7dbc 2293 6dbc 7132 223d b00a 46bc
00000060: d009 873c 1a84 bb3c 6682 0a3d 5cef 113d
00000070: 8fef c4bb 8551 13bd a9d9 9cbc 009c 2f3d
00000080: 1feb 0e3c 4f55 d33c 9a86 43bc 5a36 74bc
00000090: 80e1 a2bc d8af 3cb9 1f1f 473c b806 b1bc
000000a0: 7cf0 443b 9dd6 893c 598a 67bc 7b81 c7bc
000000b0: b743 473d 9e59 1fbd 9bdf ac3c ead6 04bc
000000c0: c060 443c c16b 1a3d 3a99 80bc 629e 11bd
000000d0: 015c 883c e5db 02bc 9bfe 21bd 6198 cebb
000000e0: e4d4 cf3b 7320 7ebc 2e30 fdbc 5616 5f3c
000000f0: bb0c f5bb 7e95 28bd 116c 3dbd 52a6 e0bb
00000100: 0dfa e63c a38e 453c 27cb 6f3c a188 be3a
00000110: 5752 febb 6586 2bbd 277c 113c 2508 aebb
00000120: 5548 14bd 2cb6 adbc 6932 023d fb76 c4bc
00000130: 2857 35bd c434 6d3d 5d2d 413c b22b 283c
00000140: a6c3 ec3a 3649 b33c 3d46 e4bc 3a64 babc
00000150: 5ef6 7e3c c96a 3e3b 62dd 8abc 1089 d33c
00000160: e270 2abb 114e 9c3b 291d 78bc 737b e0bc
00000170: c8b6 a9bb b8db 71bc d35b cd3c 0c11 3fbd
00000180: d773 69bc ecbe ec3c 41f6 b0bb 4d97 403c
00000190: feb4 38bd 9041 98bc c449 16bd f16e 36bc
000001a0: 6463 633c 9bd2 9cba 5c2f 23bb c6ad 30bd
000001b0: c156 abbc 7d28 cdbc cc51 4a3d 6d7a 193c
000001c0: a856 ac3c 218a 1c3c aa04 a13b e188 5abc
000001d0: eb59 a9bc 7b12 ac3b e436 41bd f9bf 623c
000001e0: cd04 453c b376 8dbb 380e ecbb 8723 57bd
000001f0: c309 153d e170 2c3c b2af 233d ab61 0bbd
00000200: 314f 41bc 7688 a33c 872b 34bd f583 da3c
00000210: 93e4 28bd 38a9 b0bc 0442 be3c 33bd 04bd
00000220: bfdd 743c 9e6c 793d 4311 103d de5d 1b3d
00000230: 13b5 cabc d69d 7cbc 5f2e 84bc 285c 453c
00000240: c10e f1bc d029 e83b 0c60 1fbd 3a2d acba
00000250: b86f ac3b 338a 02bd cf51 a33c 6c06 51bd
00000260: d596 90bc cfde b1bb 8d28 923a 2614 ee3c
00000270: 184e e83c a907 81bb 58a9 91bb 98c5 b73b
00000280: f5c9 fc3c 7980 c33b 8c91 203a 47c4 65bc
00000290: 8685 b5bc bdf6 a3bc 5c9e 933b aa72 0ebc
000002a0: 35c5 5d3c cc9d 21bd 777a f3bc 4f35 d73c
000002b0: 50e3 05bd bc20 c8bb c62b c4b8 636e 963c
000002c0: 0f61 d7bc 5a99 b0bc 3a50 a03c a5ab 823b
000002d0: 7357 d23c 5d11 96bb d62d 993c fd76 0fbc
000002e0: 1b24 96bc 3b98 273b 7bfe eabb 24b7 c5bc
000002f0: 37fc 4a3b 34fe 963c 7665 04bd 6a08 ccbc
00000300: 3ffc 123d 448c 4ebb 0978 14bc 4209 1d3c
00000310: 2fd9 a03b ad3c bf3b 65ab 17bd b364 a73c
00000320: 8f89 9e3c b7d0 7c3c 094f 36bc 29ab debc
00000330: ce61 9b3c 09d7 993c 732a 583c 1cb2 bbbc
00000340: 08e1 f0bc e54c 8bbb 3a67 8e3b 5beb c6ba
00000350: ad68 703b 299a 1cbd 7e57 8cbc 9121 d03c
00000360: 99d8 01bd a3fd 30bc 4f9a 193d 379e 0d3d
00000370: f962 fabb 140c 20bb 278b afbc 4b25 3f3b
00000380: 381c aabc a49a e73c cf50 0d3d 0bb9 8d3c
00000390: 0150 d3bc 395f 06bc 6416 c93c 0c11 00bd
000003a0: 0c4e 59bc 12ef f73c a03c 5c3d 4c05 8cbc
000003b0: 2db9 443c 4daa 3f3c e6f3 dc3b 9cf1 a43c
000003c0: 3f9a d8bc 6689 25bd 7c04 0cbd 42ba 5fbc
000003d0: 9898 5f3c 967e 8ebc 84ee fdbc 1285 94bc
000003e0: ad1f 28bd 3712 edbc 9b8a 053b b0a5 e43c
000003f0: 47e9 e8bc a8ab 663c aad1 9dbc 33dd 3bbd

base_model.model.bert.encoder.layer.0.attention.self.query.lora_B.default.weight f4 [768, 8]
0.018786842 -0.005496464 0.006751406 -0.0012608649 -0.0074246214 0.006140355 0.008533828 -0.008474751
0.00296125 0.004521425 0.00042847113 -0.0053246524 -0.008504668 -0.003143213 0.013906492 0.011164231
0.0029303767 0.018596936 0.009483203 -0.016681042 -0.012962552 -0.016682152 0.014967175 0.014306838
0.0023324771 0.023257246 0.0075715794 -0.018526074 -0.010096685 -0.015377467 0.012595157 0.02487607
0.011036118 -0.022831142 -0.014226232 0.009676055 0.016554689 0.017779838 -0.007450801 -0.012372985
-0.012931225 -0.015008991 -0.013875573 0.00851618 0.015416438 0.018672261 -0.0135977715 -0.011718262
-0.007193069 -0.014293697 -0.01049269 0.012999073 0.011572665 0.013602584 -0.012165805 -0.012216503
0.00078731636 -0.01110749 -0.0072618485 0.01149666 0.006155572 0.008191188 -0.006942822 -0.015699565
-0.0027664774 0.019015063 0.0066477614 -0.009677543 -0.011617944 -0.018167831 0.015052178 0.017509965
-0.0021080668 0.00708482 0.007898631 -0.003608814 -0.0050491896 -0.010587003 0.0030274964 0.014063854
-0.02488426 -0.0013953507 -0.011475066 0.010821186 0.010164344 0.0008006386 -0.02177381 0.0064733494
0.013311612 -0.008820782 0.010013365 -0.0018970795 0.0009787632 0.0004537293 -0.0035437103 -0.008547478
0.008905064 -0.015505415 -0.007554189 0.003533107 0.009506761 0.0071698227 0.0025684203 -0.015053939
-0.012232756 -0.020946369 -0.013249937 0.017871518 0.014567679 0.017992716 -0.01479953 -0.015180586
0.020582784 0.01493718 0.018642323 -0.023559038 -0.015910536 -0.016940838 0.008363971 0.030820994
0.020130502 0.0026926934 0.008190759 -0.014530302 -0.012315231 -0.007369494 0.007365891 0.014368117
0.020484338 0.012704997 0.014919813 -0.015702004 -0.0133936545 -0.014053172 0.015576594 0.007975142
0.017131865 0.007747658 0.0106760925 -0.008428853 -0.011118503 -0.008185674 0.009152778 0.0109517025
-0.017306574 -0.009332301 -0.010267671 0.011693356 0.007262814 0.007388361 -0.0050287424 -0.016411435
0.021991862 0.0021711006 0.017156025 -0.0059816455 -0.0148957325 -0.0018883406 0.011959765 -0.0009013532
0.013536257 -0.010057328 0.009504554 0.0038516084 -0.0019400865 0.0008165045 -0.0011610357 -0.010153695
0.0048121526 -0.033187557 4.607021e-05 0.017917536 0.01428321 0.027956087 -0.0227255 -0.033622093
-0.008758776 -0.012840331 -0.009707663 0.012603376 0.008367171 0.010317165 -0.012278031 -0.0061783786
0.023566877 0.001883004 0.021428907 -0.00061725924 -0.012265122 -0.004218342 0.0042558033 -0.0028139446
-0.0052380036 0.02284565 0.0026233934 -0.016090494 -0.0059988946 -0.013286892 0.009460467 0.020240866
-0.023678765 -0.010728703 -0.01684004 0.018254701 0.015655534 0.016159583 -0.017651848 -0.012739423
-0.005313364 -0.012154924 -0.011225544 0.009473722 0.008580023 0.01021907 -0.008966521 -0.008144326
-0.0033728243 -0.011706743 -0.009031366 0.0135731865 0.009874771 0.01322175 -0.011968322 -0.008912044
-0.00904609 -0.023038346 -0.0116458945 0.018523559 0.011783963 0.018726988 -0.015423666 -0.017975938
0.011196143 -0.019956598 -0.009483578 0.012393926 0.020436568 0.016989365 -0.018367287 -0.013803182
0.00089020585 -0.016105972 -0.006481293 0.014574676 0.012120124 0.017550047 -0.0113572 -0.008359527
0.007161719 0.028239563 0.011967276 -0.024458097 -0.015087893 -0.022339743 0.015772276 0.027105773
00000000: dde6 993c af1b b4bb e63a dd3b 9b43 a5ba
00000010: 3d4a f3bb 0835 c93b 78d1 0b3c afd9 0abc
00000020: 8811 423b 7628 943b 6ca4 e039 6c7a aebb
00000030: 2a57 0bbc 5dfe 4dbb 0ed8 633c 2eea 363c
00000040: 900b 403b 9a58 983c 705f 1b3c aea6 88bc
00000050: e260 54bc 02a9 88bc e238 753c 3a67 6a3c
00000060: 79dc 183b fb85 be3c 031b f83b fec3 97bc
00000070: 916c 25bc c5f1 7bbc eb5b 4e3c e6c8 cb3c
00000080: d5d0 343c 6008 bbbc 2415 69bc 5188 1e3c
00000090: b39d 873c 06a7 913c d925 f4bb 0fb8 4abc
000000a0: 7ddd 53bc 45e8 75bc 5f56 63bc 7387 0b3c
000000b0: 3a95 7c3c 92f6 983c 30c9 5ebc f4fd 3fbc
000000c0: d6b3 ebbb 1c30 6abc 88e9 2bbc 10fa 543c
000000d0: 469b 3d3c 5fdd 5e3c 1653 47bc ba27 48bc
000000e0: e863 4e3a 31fc 35bc cdf4 edbb 7d5c 3c3c
000000f0: aeb4 c93b 5534 063c 9d80 e3bb 609c 80bc
00000100: ca4d 35bb 7ac5 9b3c 77d5 d93b 8f8e 1ebc
00000110: 3059 3ebc b4d4 94bc 699d 763c 0f71 8f3c
00000120: 7e27 0abb c727 e83b 4269 013c da81 6cbb
00000130: ac73 a5bb 1c75 2dbc f668 463b 146c 663c
00000140: 13da cbbc 33e4 b6ba ea01 3cbc 584b 313c
00000150: 5988 263c f2e1 513a fd5e b2bc 641e d43b
00000160: f318 5a3c 0b85 10bc 190f 243c 6da7 f8ba
00000170: d849 803a 84e2 ed39 983d 68bb b90a 0cbc
00000180: 8ce6 113c 6d0a 7ebc 2189 f7bb b38b 673b
00000190: 3fc2 1b3c d5f0 ea3b f152 283b cca4 76bc
000001a0: e66b 48bc b897 abbc 4416 59bc 4a67 923c
000001b0: 46ad 6e3c 7665 933c ba79 72bc feb7 78bc
000001c0: 3a9d a83c 13bb 743c c9b7 983c e2fe c0bc
000001d0: d056 82bc 83c7 8abc 0909 093c 4f7c fc3c
000001e0: b9e8 a43c e677 303b 8932 063c 8110 6ebc
000001f0: d3c5 49bc cc7b f1bb 925d f13b 4068 6b3c
00000200: c5ce a73c 9f28 503c 3b72 743c 7da1 80bc
00000210: 0f71 5bbc 473f 66bc f834 7f3c 2caa 023c
00000220: 2058 8c3c 11e0 fd3b c7ea 2e3c 2c19 0abc
00000230: 622a 36bc 351d 06bc 89f5 153c c56e 333c
00000240: 84c6 8dbc 82e6 18bc bc39 28bc 7d95 3f3c
00000250: e6fc ed3b 101a f23b 26c8 a4bb 4671 86bc
00000260: 4728 b43c 0649 0e3b cb8a 8c3c ae01 c4bb
00000270: 3b0d 74bc 3282 f7ba e4f2 433c ca48 6cba
00000280: 2dc7 5d3c 7ec7 24bc fdb8 1b3c 446b 7c3b
00000290: 804a feba b00a 563a e52d 98ba af5b 26bc
000002a0: 43af 9d3b adef 07bd 833b 4138 ccc7 923c
000002b0: 2004 6a3c 2a04 e53c d42a babc 52b7 09bd
000002c0: f880 0fbc 4060 52bc e40c 1fbc 647e 4e3c
000002d0: 7516 093c 5409 293c cb29 49bc ff73 cabb
000002e0: 530f c13c 21cf f63a ad8b af3c 91cf 21ba
000002f0: a6f3 48bc 043a 8abb 4474 8b3b 286a 38bb
00000300: 8fa3 abbb cd26 bb3c 3ded 2b3b 36d0 83bc
00000310: 6092 c4bb 44b1 59bc 1300 1b3c 2cd0 a53c
00000320: f8f9 c1bc 71c7 2fbc 20f4 89bc e28a 953c
00000330: 0940 803c 1a61 843c 9c9a 90bc 03b9 50bc
00000340: ba1b aebb 7225 47bc 58eb 37bc ac37 1b3c
00000350: 3a93 0c3c e36d 273c 51e8 12bc c76f 05bc
00000360: 9a0a 5dbb a4cd 3fbc 4bf8 13bc 1262 5e3c
00000370: cbc9 213c 0aa0 583c c816 44bc d203 12bc
00000380: 0d36 14bc eaba bcbc 6cce 3ebc b8be 973c
00000390: 8611 413c 5769 993c 8bb3 7cbc 4642 93bc
000003a0: 0770 373c 057c a3bc 0261 1bbc e50f 4b3c
000003b0: 976a a73c 482d 8b3c fe76 96bc be26 62bc
000003c0: b45c 693a acf0 83bc 0761 d4bb 9fca 6e3c
000003d0: 7c93 463c 1ec5 8f3c 8d13 3abc 66f6 08bc
000003e0: daac ea3b a856 e73c 6512 443c 595c c8bc
000003f0: 3633 77bc d601 b7bc dc34 813c ed0c de3c

base_model.model.bert.encoder.layer.0.attention.self.key.lora_A.default.weight f4 [8, 768]
0.022037989 -0.01843066 -0.0069165668 0.0053246464 0.01949346 0.060343344 -0.02795828 -0.029168572
0.010047178 -0.02890936 -0.017615167 0.059655294 -0.018933104 -0.02842089 -0.009782547 0.010825364
-0.024522396 0.052781917 -0.006500736 -0.0004904534 0.030432088 -0.045381334 -0.036386535 -0.01218856
0.032330725 -0.03880663 0.00676982 0.055851113 0.05160412 0.0016219531 0.009696723 -0.0022436392
0.011899607 -0.046248246 -0.011152504 -0.0019091928 0.017830769 -0.015515522 -0.02657365 0.01989098
0.006276949 -0.035753474 -0.024084087 0.007018834 -0.010197404 -0.03582875 0.042233028 0.029302737
0.018711952 -0.033179533 0.009358038 0.04091273 -0.011903713 0.02140415 0.011290716 -0.019865546
-0.016106904 0.04190918 -0.0264236 -0.0071872133 0.05121369 -0.027332872 0.029658157 -0.05223093
0.051043943 0.011110957 -0.0290564 0.004718808 -0.031903937 0.047740657 0.01082374 -0.030526865
0.030668527 -0.017504089 -0.011034653 0.052290197 -0.019674178 -0.04925149 0.033827756 -0.017286642
-0.0049814074 0.07438509 -0.02726601 -0.0045278724 0.01999632 -0.057790413 -0.0143951 -0.0020405254
-0.017963113 -0.022950223 -0.024301011 0.014425033 -0.04059553 -0.012779053 0.0008846426 0.0060865902
-0.04301838 -0.028885188 -0.0069739306 -0.010188962 0.014435378 0.045461636 0.059438646 -0.03873444
0.0020861654 -0.00971735 0.006365021 -0.0042874347 0.016583165 0.01831319 0.006040524 0.015848104
0.025848586 -0.035628844 -0.010367262 -0.018564044 -0.015313731 0.04023634 -0.0005009452 0.002518645
0.0067837774 -0.025865246 -0.064668275 -0.024182146 -0.043377556 -0.021453734 0.012845183 -0.03382112
0.039860435 -0.0084656915 0.01991899 0.07277338 -0.04301028 -0.0047032833 0.008437585 -0.04396199
0.009451652 -0.041108925 0.028599702 -0.03376449 0.013780909 -0.05697124 0.057555202 -0.027102843
-0.047887772 0.0036529358 0.015332152 0.028228996 -0.013072328 -0.031064017 0.0045720325 0.0056644105
-0.027273338 -0.042772885 0.018469367 0.0290566 0.03316044 -0.00016731699 0.023044107 -0.024389818
0.047559004 0.004496726 -0.016491687 -0.010360788 0.00033274837 0.0057948777 -0.08106021 -0.010450287
0.0027396635 0.01984625 -0.012655737 -0.018348817 -0.01847257 0.0065020462 -0.015498156 -0.0226908
-0.02339207 -0.009232893 -0.007598136 -0.004019545 -0.042868327 0.06372722 -0.006860002 -0.057115447
-0.01186755 0.012897259 0.030379655 0.010249921 0.03714514 -0.046849035 0.0012425092 0.03828893
-0.03657693 -0.023583788 0.019329136 0.03728197 0.010923342 0.02656726 -0.054417476 -0.0058559515
-0.03119673 0.006543483 0.00752939 -0.013021434 0.04384579 -0.039547514 -0.0099839745 0.006375976
-0.051597252 0.0030945467 0.023967572 0.01960358 0.053062942 -0.025079507 0.01689261 0.040562592
0.022749532 -0.050100427 0.004015455 -0.033579297 0.004884689 -0.031204361 -0.010663221 0.060908776
0.041835696 0.0125095025 0.051315524 -0.0041194977 -0.03635667 0.002073133 -0.015191535 0.0038060853
0.030400615 -0.043555878 -0.030803356 0.008847523 -0.044519633 0.057553314 -0.020879855 0.0014775576
0.0021888604 0.0057189967 -0.0024218976 -0.032546926 0.022539034 -0.016853148 0.03784483 0.03247887
-0.03616777 0.0052748234 -0.008939237 -0.0124841435 -0.0065613664 0.04357544 0.012104651 0.019439036
00000000: 0389 b43c e5fb 96bc 5ea4 e2bb 5f7a ae3b
00000010: c0b0 9f3c 952a 773d c308 e5bc eef2 eebc
00000020: eb9c 243c 52d3 ecbc af4d 90bc 1c59 743d
00000030: 9919 9bbc edd2 e8bc fa46 20bc de5c 313c
00000040: 31e3 c8bc da31 583d 2004 d5bb c591 00ba
00000050: b74c f93c c7e1 39bd 0c0a 15bd 87b2 47bc
00000060: 396d 043d b3f3 1ebd 5ed5 dd3b 23c4 643d
00000070: d75e 533d b797 d43a 01df 1e3c 050a 13bb
00000080: 92f6 423c cd6e 3dbd feb8 36bc e13d faba
00000090: d511 923c d134 7ebc fcb0 d9bc 69f2 a23c
000000a0: ddae cd3b 3c72 12bd fe4b c5bc 3ffe e53b
000000b0: 0313 27bc 2bc1 12bd 8afc 2c3d 4b0c f03c
000000c0: cf49 993c 43e7 07bd 7552 193c 1b94 273d
000000d0: cb07 43bc c257 af3c b2fc 383c 12bd a2bc
000000e0: a0f2 83bc f6a8 2b3d 4e76 d8bc b782 ebbb
000000f0: 72c5 513d 30e9 dfbc aaf5 f23c 1af0 55bd
00000100: 7413 513d bb0a 363c b007 eebc 3ba0 9a3b
00000110: b4ad 02bd b58b 433d 0e56 313c 7a13 fabc
00000120: 903c fb3c bc64 8fbc b0ca 34bc 3f2e 563d
00000130: be2b a1bc eebb 49bd f98e 0a3d b79c 8dbc
00000140: 133b a3bb 3657 983d f85c dfbc 8c5e 94bb
00000150: 53cf a33c a4b5 6cbd 6dd9 6bbc 56ba 05bb
00000160: 6127 93bc 1b02 bcbc ea12 c7bc f956 6c3c
00000170: 8047 26bd 3c5f 51bc 5ce7 673a 0572 c73b
00000180: 0a34 30bd a1a0 ecbc 9285 e4bb 9bef 26bc
00000190: 5d82 6c3c fb35 3a3d f075 733d 01a8 1ebd
000001a0: 0cb8 083b 8535 1fbc ab91 d03b 9c7d 8cbb
000001b0: 6bd9 873c 8b05 963c 97ef c53b e2d3 813c
000001c0: 6ac0 d33c 8def 11bd 73db 29bc 9f13 98bc
000001d0: 71e6 7abc dcce 243d dd51 03ba da0f 253b
000001e0: 734a de3b 5ae3 d3bc cd70 84bd a319 c6bc
000001f0: aaac 31bd bebf afbc 9a74 523c 0488 0abd
00000200: b244 233d afb3 0abc 262d a33c 360a 953d
00000210: 8c2b 30bd 001e 9abb cc3d 0a3c 7d11 34bd
00000220: 1adb 1a3c d561 28bd ec49 ea3c a24c 0abd
00000230: 52c9 613c ad5a 69bd 01bf 6b3d c806 debc
00000240: f825 44bd 1866 6f3b b533 7b3c 7f40 e73c
00000250: 512d 56bc f779 febc fdd0 953b 859c b93b
00000260: 566c dfbc 9f32 2fbd 124d 973c 1b08 ee3c
00000270: 3ed3 073d d071 2fb9 ffc6 bc3c 28cd c7bc
00000280: 3bcd 423d 4659 933b 9319 87bc 4bc0 29bc
00000290: bb74 ae39 f5e2 bd3b e502 a6bd ae37 2bbc
000002a0: ed8b 333b 9a94 a23c 025a 4fbc 4250 96bc
000002b0: ca53 97bc 1e0f d53b faeb 7dbc 0ee2 b9bc
000002c0: baa0 bfbc 8f45 17bc c9f9 f8bb 63b6 83bb
000002d0: b396 2fbd 6b83 823d dec9 e0bb e3f1 69bd
000002e0: 1d70 42bc 064f 533c c1de f83c 49ef 273c
000002f0: 8125 183d c6e4 3fbd b1db a23a dad4 1c3d
00000300: b1d1 15bd ca32 c1bc 2358 9e3c fbb4 183d
00000310: d1f7 323c 95a3 d93c dce4 5ebd 48e3 bfbb
00000320: 4990 ffbc b76a d63b 1ab9 f63b da57 55bc
00000330: a597 333d 93fc 21bd d393 23bc 90ed d03b
00000340: a457 53bd e1cd 4a3b a457 c43c b097 a03c
00000350: 8758 593d 8a73 cdbc 5f62 8a3c f624 263d
00000360: 3a5d ba3c 1b36 4dbd 1494 833b 728a 09bd
00000370: be0f a03b 4aa0 ffbc cab4 2ebc 7b7b 793d
00000380: e85b 2b3d a8f4 4c3c 3a30 523d dafc 86bb
00000390: bbea 14bd 66dd 073b ebe5 78bc 846f 793b
000003a0: b60a f93c a667 32bd 5257 fcbc 33f5 103c
000003b0: 385a 36bd 06bd 6b3d 3b0c abbc 9baa c13a
000003c0: fc72 0f3b 6c66 bb3b b3b8 1ebb ed4f 05bd
000003d0: c8a3 b83c 9d0f 8abc 2e03 1b3d 9008 053d
000003e0: a824 14bd 6dd8 ac3b e175 12bc 4b8a 4cbc
000003f0: bb00 d7bb 297c 323d 9652 463c 9d3e 9f3c

base_model.model.bert.encoder.layer.0.attention.self.key.lora_B.default.weight f4 [768, 8]
-0.014624158 0.008739189 -0.0070223613 -0.009601933 0.012527472 0.009670595 0.009913719 -0.012680748
5.1225237e-05 0.0032388403 -0.0016407081 0.0009087137 -0.0007922989 0.0016070605 0.00073628186 -0.0003426496
0.014306101 -0.016458394 0.012637263 0.016201055 -0.015520886 -0.016350333 -0.016140614 0.014793621
-0.003500303 -0.0030746292 0.005561892 0.0020809637 -0.000515716 -0.0029645232 -0.002380399 -0.0004035379
-0.0033770031 -0.00044661475 -0.0068517746 -0.00575872 0.0032819896 0.0015201432 0.002056604 -0.00084084406
0.00862771 -0.005160977 -0.001780262 0.0006867217 -0.005671473 -0.0007244676 -0.0020282592 0.005399437
0.0041116467 0.0005264933 0.0024173476 0.0027338911 -0.0024671392 -0.0013518289 -0.0013649459 0.0018266281
0.0055779004 -0.003146573 0.007052203 0.008390088 -0.005820103 -0.0061538876 -0.0055220933 0.0046165776
0.005793229 -0.012352537 0.014522243 0.013959668 -0.00967742 -0.013666695 -0.013331845 0.008400161
-0.006598132 0.0027276806 -0.0022824428 -0.004493611 0.004761702 0.0034855858 0.004673502 -0.0040278863
0.0016980547 -0.0037031637 -0.003698997 -8.420614e-05 -0.00016966302 0.00020876068 0.00015422107 0.0020728568
-0.0007505267 -0.00064354955 0.0003672429 -0.0021051303 0.00075803755 0.0021102487 0.0018077602 -0.0019314118
0.0023476265 0.0015710944 -0.00040758494 0.0029835277 -0.0017570291 -0.00040377222 0.00016397427 0.001581202
0.012668335 -0.008315059 0.010390203 0.008024704 -0.007049341 -0.0091076605 -0.0067766993 0.009236553
-0.005231705 0.002527838 -0.0053820857 -0.0074583045 0.006528666 0.004280587 0.004433622 -0.0059024743
-0.015600498 0.015222203 -0.01728409 -0.017968435 0.015657352 0.016658492 0.015434102 -0.0141942315
0.0010326726 0.0014214154 0.0023370995 0.0036737258 -0.0017301361 -0.0010890833 -0.0015355201 0.00042365832
-0.0134631805 0.012582892 -0.009930489 -0.009944019 0.011371452 0.011248365 0.010631834 -0.011335958
0.03172679 -0.022160832 0.02223399 0.024049344 -0.023549285 -0.020888478 -0.020880016 0.02344088
-0.004051107 0.0065330835 -0.007775438 -0.007935698 0.006675241 0.00855909 0.008216165 -0.0053978385
-0.028172335 0.02877389 -0.03441352 -0.030325161 0.026630677 0.029422715 0.0288769 -0.02395652
-0.010241589 0.007067825 -0.018259395 -0.013769867 0.012121645 0.009333413 0.010305538 -0.008314379
0.004794443 -0.0048319753 -0.00064343924 -0.0011196424 -0.0014905332 -0.0023649032 -0.0024711904 0.002795408
-0.009031399 0.0076542394 -0.011889627 -0.013850697 0.010996243 0.011697364 0.01071294 -0.010517464
0.010366567 -0.0096872 0.0153834475 0.014618896 -0.010957305 -0.012952444 -0.011451718 0.010300076
0.008439686 -0.0043177563 0.0054644495 0.0074760146 -0.0069074295 -0.0050563645 -0.0036883696 0.00785426
-0.0010018982 0.0008888374 0.00015449207 -0.0033533194 0.0019157295 0.0022819536 0.0020832645 -0.00245414
-0.005295 0.0032965958 -0.006843344 -0.0061938884 0.0057651615 0.0040564463 0.005287717 -0.0056176935
0.0063104113 0.0015947656 -0.0006531388 -0.00016855629 -0.00029459986 0.00014097859 0.00071151764 0.0035962407
-0.004874714 0.0028701413 -0.0032864278 -0.0071106646 0.0055319024 0.0042831404 0.004585575 -0.0046409206
-0.0128761055 0.00918665 -0.011594962 -0.012794914 0.012761952 0.011791101 0.011620951 -0.012119718
0.0058193356 -0.0068545276 0.0022936582 0.0033735642 -0.004268035 -0.004357759 -0.004505522 0.004639027
00000000: 2a9a 6fbc d12e 0f3c d61b e6bb 6d51 1dbc
00000010: 0740 4d3c 6a71 1e3c 276d 223c e9c2 4fbc
00000020: aeda 5638 b942 543b 070d d7ba be36 6e3a
00000030: 47b2 4fba 01a4 d23a 0a03 413a a7a5 b3b9
00000040: 2364 6a3c c1d3 86bc 860c 4f3c 13b8 843c
00000050: 504b 7ebc 22f1 85bc 5239 84bc f260 723c
00000060: 5765 65bb b87f 49bb 8840 b63b c760 083b
00000070: 1d31 07ba 7248 42bb 7800 1cbb f191 d3b9
00000080: b650 5dbb 9e27 eab9 da84 e0bb a5b3 bcbb
00000090: a616 573b 8b3f c73a 17c8 063b 176c 5cba
000000a0: 3d5b 0d3c 6a1d a9bb ae57 e9ba 1d05 343a
000000b0: c4d7 b9bb 33ea 3dba 8bec 04bb c3ed b03b
000000c0: feba 863b 5e04 0a3a 5d6c 1e3b 152b 333b
000000d0: baaf 21bb da2f b1ba fce7 b2ba 786b ef3a
000000e0: d2c6 b63b bc36 4ebb 2b16 e73b 9476 093c
000000f0: 90b6 bebb 8da6 c9bb adf2 b4bb a946 973b
00000100: 21d5 bd3b 4c62 4abc b4ee 6d3c 17b7 643c
00000110: 0b8e 1ebc 46ea 5fbc d06d 5abc d4a0 093c
00000120: 2535 d8bb e3c2 323b 0995 15bb 243f 93bb
00000130: 0d08 9c3b 6d6e 643b 2d24 993b 5cfc 83bb
00000140: 4391 de3a c7b0 72bb df6a 72bb d497 b0b8
00000150: 92e7 31b9 c5e6 5a39 67b6 2139 c4d8 073b
00000160: ffbe 44ba e1b3 28ba 828a c039 3af6 09bb
00000170: 0ab7 463a 194c 0a3b 5ef2 ec3a 6d27 fdba
00000180: a3da 193b 2eed cd3a 20b1 d5b9 4a87 433b
00000190: 1d4c e6ba 64b1 d3b9 82f0 2b39 5640 cf3a
000001a0: d98e 4f3c e33b 08bc ac3b 2a3c 0c7a 033c
000001b0: 29fe e6bb 4c38 15bc 130f debb e954 173c
000001c0: b96e abbb 16aa 253b 355c b0bb cb64 f4bb
000001d0: 6bee d53b 2b44 8c3b eb47 913b 8b69 c1bb
000001e0: 3b99 7fbc 8c66 793c 5d97 8dbc 8a32 93bc
000001f0: d943 803c 6477 883c 51df 7c3c ec8e 68bc
00000200: be5a 873a c94e ba3a 062a 193b e4c2 703b
00000210: bcc5 e2ba 92bf 8eba 8143 c9ba 751e de39
00000220: ac94 5cbc 7928 4e3c 7db3 22bc 3dec 22bc
00000230: 544f 3a3c 104b 383c 2531 2e3c 74ba 39bc
00000240: f3f3 013d a28a b5bc 0e24 b63c 2103 c53c
00000250: 6eea c0bc 501e abbc 910c abbc 1707 c03c
00000260: 26bf 84bb 7a13 d63b 1ac9 febb bb04 02bc
00000270: fbbb da3b 6d3b 0c3c 189d 063c 5ae0 b0bb
00000280: abc9 e6bc 39b7 eb3c 31f5 0cbd 796c f8bc
00000290: 9428 da3c e807 f13c 408f ec3c 7740 c4bc
000002a0: 56cc 27bc 3799 e73b ba94 95bc 029b 61bc
000002b0: dd99 463c 2ceb 183c 8fd8 283c 0839 08bc
000002c0: b41a 9d3b 8c55 9ebb 7aac 28ba f7c0 92ba
000002d0: ff5d c3ba 7efc 1abb b2f3 21bb 2a33 373b
000002e0: 6ff8 13bc 6ad0 fa3b b6cc 42bc 09ee 62bc
000002f0: 9629 343c 4da6 3f3c 5485 2f3c 7151 2cbc
00000300: 89d8 293c 10b7 1ebc db0a 7c3c 1884 6f3c
00000310: 4586 33bc 7d36 54bc fd9f 3bbc a6c1 283c
00000320: 9c46 0a3c f77b 8dbb 200f b33b 5bf9 f43b
00000330: b857 e2bb dcaf a5bb 93b8 71bb 27af 003c
00000340: 2052 83ba de00 693a 26ff 2139 5dc3 5bbb
00000350: 3719 fb3a d48c 153b 6187 083b a3d5 20bb
00000360: ae81 adbb b30b 583b 213e e0bb 1af6 cabb
00000370: aee9 bc3b f0eb 843b 9644 ad3b a114 b8bb
00000380: 91c7 ce3b 7407 d13a 6737 2bba 7cbe 30b9
00000390: 8674 9ab9 a7d3 1339 2485 3a3a e8ae 6b3b
000003a0: 11bc 9fbb fb18 3c3b 1c61 57bb 9400 e9bb
000003b0: f644 b53b 9659 8c3b 9742 963b dd12 98bb
000003c0: 4df6 52bc 9a83 163c ccf8 3dbc c2a1 51bc
000003d0: 8217 513c 762f 413c cd65 3e3c c891 46bc
000003e0: 20b0 be3b f29b e0bb 3351 163b 0417 5d3b
000003f0: dfda 8bbb 88cb 8ebb 0fa3 93bb fb02 983b

base_model.model.bert.encoder.layer.0.attention.self.value.lora_A.default.weight f4 [8, 768]
0.024619982 0.05037634 -0.0071701175 -0.039532743 -0.0011973459 -0.03785499 -0.01605661 -0.02849312
-0.022827797 0.007293271 0.023912303 0.028674215 0.01334676 -0.029785978 -0.034621567 -0.04876523
-0.035594825 -0.013222681 -0.010977313 -0.0057390444 0.026639776 -0.001792805 0.028683664 0.03042868
0.014840736 0.038665026 0.010242758 0.010132486 -0.011800695 0.031980075 -0.03125853 -0.004369396
-0.035151005 -0.015454087 -0.0065645967 0.013205415 -0.03625516 0.04815726 4.3443586e-05 -0.018644353
-0.011123366 0.009727582 -0.009134574 -0.0030733072 0.0065034544 0.0046678116 -0.007888971 0.048355237
-0.051164664 -0.033368178 -0.04994459 0.011496029 -0.015115105 0.0383564 -0.0056678713 -0.021073673
-0.008194723 -0.018845836 -0.0069329464 -0.0046312977 -0.04458426 -0.021192228 -0.0011273761 0.006281755
0.005623877 -0.010556662 -0.008072076 0.019630736 -0.0035326967 0.01186513 0.036550567 -0.022913182
-0.010516151 0.03370258 0.022438394 0.028221698 0.001979515 0.052938722 -0.009095946 -0.008964153
-0.022109024 0.010838365 -0.0149690965 0.002670227 -0.007835071 -0.04052619 -0.020082496 0.034622055
-0.030939104 -0.0369668 0.032525767 -0.006912416 -0.0048626824 0.006807162 0.007268607 0.01718914
-0.056337938 0.02075175 -0.013989551 -0.004635841 0.007666103 0.019002395 -0.008460189 -0.029196724
0.011393207 0.012105208 -0.056079794 0.015966084 0.032654684 0.029193146 0.021921583 -0.037020452
0.05000612 0.00965698 -0.013333779 -0.0021902283 -0.046524152 -0.015505604 -0.017363526 0.012344471
0.045494232 -0.033008352 0.051549837 -0.030971464 0.013126517 -0.04573348 0.023944696 0.019525254
-0.02160515 0.011235095 -0.024347678 -0.022634106 0.004285849 0.024577675 -0.0026349628 0.012357628
0.05383668 0.03846542 -0.045924824 0.0132918 -0.0023587306 -0.033500135 -0.0123550445 -0.04597573
-0.012900879 0.02789482 -0.0024966004 -0.012796835 -0.0076486766 -0.047269236 -0.031232899 -0.039607365
-0.04771261 0.021082021 0.040386368 0.016957406 -0.07222282 0.0010814306 0.052163657 -0.04852079
-3.088619e-05 0.0058786795 0.0073813577 -0.010122773 -0.0062995753 0.05548398 -0.02039509 -0.04281772
-0.009736459 -0.030921495 -0.02343781 -0.021555169 -0.047234602 0.026151538 -0.027803896 -0.025165075
-0.041571986 0.021201309 0.014905595 -0.035116334 -0.010993165 0.004707888 0.00046443866 0.03181196
0.0073334654 -0.0036913618 -0.041261923 -0.013810337 0.03565669 0.00041057478 -0.038595505 -0.014087112
-0.004721816 0.036197 -0.038239595 -0.008219853 0.038824864 -0.014881242 -0.03206406 -0.012589148
0.046077542 0.03243475 -0.020637276 -0.019859822 0.014701154 -0.0019692057 -0.015590035 -0.025383623
-0.01798116 -0.010468674 -0.025195884 0.022660239 0.00091777963 -0.03070987 0.00033808663 -0.0025638968
-0.034428537 0.00573124 -0.01173879 -0.013962543 -0.028806852 -0.0005264931 0.015026983 -0.02250517
0.022246394 0.019438194 -0.002100673 -0.0056320555 -0.032836903 0.015542614 0.006223252 -0.02482201
0.023221305 -0.04252905 -0.012996156 0.00566949 -0.021850446 0.015417666 0.020808898 -0.015369927
-0.020945089 0.033577897 0.0027701003 0.046988856 0.0060837017 -0.059736922 0.07194995 0.0017856549
0.016925909 0.04572782 0.058437504 0.0024757986 0.002094979 -0.003576218 -0.0123143615 -0.0039755786
00000000: d8af c93c 6c57 4e3d 4ef3 eabb 16ed 21bd
00000010: 43f0 9cba d60d 1bbd 2789 83bc 676a e9bc
00000020: 5c01 bbbc 64fc ee3b bce3 c33c 30e6 ea3c
00000030: 5eac 5a3c b901 f4bc 58cf 0dbd 0dbe 47bd
00000040: e1cb 11bd f2a3 58bc 30da 33bc 980e bcbb
00000050: a93b da3c 8efc eaba 01fa ea3c 9145 f93c
00000060: 8f26 733c 385f 1e3d 3ed1 273c ba02 263c
00000070: b457 41bc 8afd 023d f208 00bd 262d 8fbb
00000080: 80fa 0fbd 2433 7dbc d41b d7bb 865b 583c
00000090: 4a80 14bd 8c40 453d 3237 3638 0bbc 98bc
000000a0: c73e 36bc 7060 1f3c 2ea9 15bc 8a69 49bb
000000b0: ee1a d53b 71f4 983b be40 01bc 2410 463d
000000c0: 0a92 51bd 12ad 08bd b392 4cbd d759 3c3c
000000d0: 58a5 77bc 9a1b 1d3d 8db9 b9bb b2a2 acbc
000000e0: 2943 06bc 9562 9abc c52d e3bb 24c2 97bb
000000f0: fc9d 36bd 539b adbc 77c4 93ba 2ed7 cd3b
00000100: 8048 b83b daf5 2cbc be40 04bc a3d0 a03c
00000110: d184 67bb f665 423c 0cb6 153d 6db4 bbbc
00000120: ef4b 2cbc b70b 0a3d b9d0 b73c 3131 e73c
00000130: c0ba 013b 46d6 583d 2a07 15bc 62de 12bc
00000140: fc1d b5bc 6693 313c f140 75bc fafe 2e3b
00000150: ab5e 00bc cafe 25bd 0c84 a4bc dbcf 0d3d
00000160: 0174 fdbc 806a 17bd bd39 053d 8c81 e2bb
00000170: 2357 9fbb 9d0e df3b 7f2d ee3b 3dd0 8c3c
00000180: 9cc2 66bd 93ff a93c 6e34 65bc 41e8 97bb
00000190: ef33 fb3b e9aa 9b3c 9b9c 0abc f82d efbc
000001a0: 93aa 3a3c ec54 463c edb3 65bd 4ecb 823c
000001b0: ebc0 053d 7726 ef3c e494 b33c c2a2 17bd
000001c0: 38d3 4c3d 4f38 1e3c ec75 5abc ef89 0fbb
000001d0: 1c90 3ebd 380b 7ebc f43d 8ebc 7740 4a3c
000001e0: 2958 3a3d c433 07bd ec25 533d deb7 fdbc
000001f0: 9a10 573c 0853 3bbd ab27 c43c 6df3 9f3c
00000200: 49fd b0bc 6713 383c c874 c7bc 296b b9bc
00000210: 4f70 8c3b 1f57 c93c 57af 2cbb a677 4a3c
00000220: da83 5c3d eb8d 1d3d ab1b 3cbd dac5 593c
00000230: ef94 1abb 7037 09bd d06c 4abc 0c51 3cbd
00000240: 355e 53bc ad83 e43c 019e 23bb d1a9 51bc
00000250: c0a1 fabb 639d 41bd 23dc ffbc 553b 22bd
00000260: 4c6e 43bd 34b4 ac3c 2d6c 253d 42ea 8a3c
00000270: 8fe9 93bd cabe 8d3a 8fa9 553d bcbd 46bd
00000280: cb8b 01b8 f0a1 c03b 51df f13b fdd9 25bc
00000290: ab6c cebb 2b43 633d 9b13 a7bc a261 2fbd
000002a0: ab85 1fbc 134f fdbc a600 c0bc 7794 b0bc
000002b0: 1279 41bd c03b d63c ffc4 e3bc fd26 cebc
000002c0: 6347 2abd 5eae ad3c 9936 743c 25d6 0fbd
000002d0: ad1c 34bc a044 9a3b e77f f339 424d 023d
000002e0: 914d f03b c6ea 71bb 4302 29bd c044 62bc
000002f0: c00c 123d 6a42 d739 5216 1ebd a1cd 66bc
00000300: 77b9 9abb 4e43 143d 1fa1 1cbd 90ac 06bc
00000310: d206 1f3d 74d0 73bc 9b55 03bd b742 4ebc
00000320: cebb 3c3d 4dda 043d 810f a9bc 11b1 a2bc
00000330: 1cdd 703c ca0d 01bb 596d 7fbc 51f1 cfbc
00000340: 3a4d 93bc cd84 2bbc 9967 cebc f7a1 b93c
00000350: 2697 703a 4493 fbbc 3841 b139 0d07 28bb
00000360: f004 0dbd 20cd bb3b 0e54 40bc 26c3 64bc
00000370: 59fc ebbc 5b04 0aba bc33 763c c35c b8bc
00000380: 123e b63c d93c 9f3c 72ab 09bb 1b8d b8bb
00000390: fd7f 06bd 73a6 7e3c 6cec cb3b 8757 cbbc
000003a0: 9b3a be3c f132 2ebd d4ed 54bc 21c7 b93b
000003b0: b5ff b2bc 619a 7c3c 6c77 aa3c 25d2 7bbc
000003c0: 0995 abbc fa88 093d 928a 353b 6377 403d
000003d0: ca59 c73b b4ae 74bd 7f5a 933d a30c ea3a
000003e0: 34a8 8a3c 184d 3b3d 2a5c 6f3d 0241 223b
000003f0: ea4b 093b fb5e 6abb 2dc2 49bc 9245 82bb

base_model.model.bert.encoder.layer.0.attention.self.value.lora_B.default.weight f4 [768, 8]
-0.02336052 0.009540513 -0.0078355335 0.008601898 -0.012837316 0.0034400038 -0.008113944 0.027877416
-0.025505358 0.0027186552 0.0015768752 -0.0027658022 -0.012720228 -0.0067994925 0.00064616586 0.033326536
0.006724206 -0.011703616 0.013297462 -0.00885491 0.014384843 -0.013328314 0.012554857 -0.011910372
-0.011071287 0.0073509896 -0.006680014 0.006921216 -0.008132902 0.0058126952 -0.0075251106 0.013738773
-0.0046647424 0.0027682174 -0.0020288234 0.0020227972 -0.00454352 -0.0002916389 -0.002029445 0.007813804
0.021882182 -0.0102538 0.009732497 -0.011240472 0.011528412 -0.006066966 0.011319868 -0.022908472
0.023838995 -0.009169467 0.0076008136 -0.0090597635 0.013073834 -0.002954039 0.00681661 -0.02816847
-0.009276759 0.00939146 -0.0076836105 0.0064762086 -0.011573743 0.002134972 -0.008983531 0.012872627
0.0077070273 -0.0008831207 -3.975857e-05 -0.0027378595 0.0014588452 0.003431955 -0.00082651124 -0.00898667
-0.003060307 0.0035720547 -0.007691403 0.0014470748 -0.006012459 0.0081352815 -0.003161947 0.014283445
-0.0066052186 0.008194428 -0.008844 0.0101088695 -0.0063741854 0.009616776 -0.0096673425 0.0056794235
0.019500352 -0.019180525 0.019933319 -0.015459994 0.018729953 -0.022064406 0.0240608 -0.022950344
0.02021811 -0.007087243 0.006042173 -0.007072966 0.010774341 -0.0027443848 0.0049654418 -0.025071587
-0.0057669673 -4.2836655e-05 0.00023024766 -0.003002652 -0.0021388142 -0.00034806403 -0.001338984 0.007833426
-0.0057375003 0.00048353535 0.0006968595 0.0004936495 -0.0017688163 -0.004627344 -0.0019864137 0.00893942
-0.02152329 0.010856235 -0.0064032455 0.009001724 -0.01411777 0.0059399637 -0.0035199355 0.024230942
-0.008467744 0.00431218 -0.004223194 0.0053175776 -0.00387535 0.0018349685 -0.005863836 0.008066702
0.00016783718 -0.0051528555 0.0059222206 -0.0072357543 0.0014952547 -0.008964263 0.011333489 0.0036302225
-0.011244146 0.0063854563 -0.0057696127 0.0056469906 -0.0076807053 0.003833141 -0.0067335237 0.014232871
-0.0092646815 -0.0011791294 0.004502879 0.0003569032 -0.00033695722 -0.008977872 0.0068132277 0.013022668
-0.00056265615 0.00059340824 -0.0062444583 0.0038316522 -0.0014664746 0.005209039 -0.003462721 -0.0018322893
-0.01286517 0.0030419168 -0.0026614196 0.0063573243 -0.0018712609 -0.00095629576 -0.0013321048 0.010062035
0.00555036 -0.006945712 0.006307726 -0.004064687 0.0085785845 -0.0045263767 0.0059165056 -0.0093282955
0.016102651 -0.0056179403 0.00055811 -0.0053178943 0.00479 0.0025250213 0.0017180112 -0.012875452
0.0018393892 -0.00082170474 0.001120399 -0.002964111 -0.00067440205 0.0016391837 0.004813631 0.00037347304
-0.0038647347 -0.0056833047 0.005931951 -0.008238003 -0.0012339822 -0.010255724 0.010764682 0.013071286
-0.016478853 0.008106905 -0.0062025227 0.007219539 -0.010108558 0.0044188164 -0.008164357 0.019660562
-0.0152200945 0.01309444 -0.019352594 0.00975398 -0.022593366 0.016877225 -0.015198673 0.0219869
0.017383546 -0.0058789235 0.0046992847 -0.0046352237 0.010533054 -0.000879991 -0.0008443027 -0.021584155
-0.01500867 0.008920583 -0.0077612083 0.0043708095 -0.0135625005 0.0049875365 -0.008853236 0.02229985
-0.0071095787 -0.0030053742 0.003726034 -0.0011764391 -0.0012419709 -0.008116397 0.006498161 0.010309216
-0.0114223445 0.011991368 -0.018040754 0.010330307 -0.01385947 0.018374955 -0.021629788 0.015575755
00000000: 905e bfbc d04f 1c3c 9c60 00bc faee 0c3c
00000010: 9b53 52bc b071 613b 59f0 04bc 2e5f e43c
00000020: 9df0 d0bc 772b 323b 27af ce3a 7642 35bb
00000030: 8168 50bc 47ce debb 7563 293a 6881 083d
00000040: ba56 dc3b 86c0 3fbc 99dd 593c 2f14 11bc
00000050: 68ae 6b3c 005f 5abc e3b2 4d3c b923 43bc
00000060: 5864 35bc 92e0 f03b 05e4 dabb 5ecb e23b
00000070: dd3f 05bc 6c78 be3b 3495 f6bb 9718 613c
00000080: b2da 98bb fb6a 353b 02f6 04bb e890 043b
00000090: cfe1 94bb 1ce7 98b9 7000 05bb 7805 003c
000000a0: 4342 b33c 8eff 27bc 0d75 1f3c f529 38bc
000000b0: aae1 3c3c 66cd c6bb f876 393c 8caa bbbc
000000c0: ff49 c33c 883b 16bc 3f10 f93b 676f 14bc
000000d0: a233 563c 8d98 41bb df5d df3b 90c1 e6bc
000000e0: 8cfd 17bc a3de 193c ccc6 fbbb 6036 d43b
000000f0: cc9f 3dbc e3ea 0b3b a92f 13bc b6e7 523c
00000100: 3b8b fc3b 3a81 67ba 71c2 26b8 a96d 33bb
00000110: b936 bf3a a6ea 603b 3baa 58ba d33c 13bc
00000120: 6e8f 48bb 2219 6a3b 2a08 fcbb c6ab bd3a
00000130: 2904 c5bb d849 053c ab38 4fbb 1c05 6a3c
00000140: 9770 d8bb ec41 063c 6de6 10bc ac9f 253c
00000150: 8bde d0bb af8f 1d3c c663 1ebc 751a ba3b
00000160: 34bf 9f3c 7a20 9dbc 334b a33c ea4b 7dbc
00000170: 8f6f 993c 6ac0 b4bc 281b c53c 5c02 bcbc
00000180: 73a0 a53c 1a3c e8bb 6cfd c53b 57c4 e7bb
00000190: dd86 303c 23db 33bb 25b5 a23b ee62 cdbc
000001a0: d4f8 bcbb 82ab 33b8 a36e 7139 24c8 44bb
000001b0: 592b 0cbb 5d7c b6b9 d980 afba c557 003c
000001c0: a401 bcbb 0483 fd39 73ad 363a 4268 013a
000001d0: a0d7 e7ba faa0 97bb 7e2e 02bb a576 123c
000001e0: 9c51 b0bc 5ade 313c 51d2 d1bb f87b 133c
000001f0: 384e 67bc 07a4 c23b b8ae 66bb f87f c63c
00000200: 4bbc 0abc 304d 8d3b b862 8abb 133f ae3b
00000210: 96f9 7dbb 5383 f03a 6c25 c0bb 332a 043c
00000220: 73fd 2f39 49d9 a8bb 300f c23b e819 edbb
00000230: 6cfc c33a d8de 12bc 19b0 393c 07e9 6d3b
00000240: 5e39 38bc 173d d13b 050f bdbb 640a b93b
00000250: 6dae fbbb 6f35 7b3b e4a4 dcbb fd30 693c
00000260: e4ca 17bc 048d 9aba e38c 933b bd1e bb39
00000270: a2a9 b0b9 ed17 13bc 7f41 df3b 075d 553c
00000280: 377f 13ba f48e 1b3a 509e ccbb 751c 7b3b
00000290: b936 c0ba 96b0 aa3b d1ee 62bb 6d29 f0ba
000002a0: 6fc8 52bc e55a 473b 366b 2ebb 1a51 d03b
000002b0: 1945 f5ba ecaf 7aba 059a aeba 3cdb 243c
000002c0: cbdf b53b db98 e3bb 0ab1 ce3b 1131 85bb
000002d0: 318d 0c3c 0052 94bb 3fdf c13b b5d5 18bc
000002e0: b5e9 833c b316 b8bb 214e 123a bb41 aebb
000002f0: 6ff5 9c3b d47a 253b e42e e13a 8ff3 52bc
00000300: a917 f13a ac67 57ba 5ada 923a 8841 42bb
00000310: 5bca 30ba e1d9 d63a aabb 9d3b b4ce c339
00000320: 7d47 7dbb 043b babb d060 c23b b0f8 06bc
00000330: 92bd a1ba a007 28bc 595e 303c f228 563c
00000340: a9fe 86bc d3d2 043c 883e cbbb e291 ec3b
00000350: 5e9e 25bc b8cb 903b ccc3 05bc 300f a13c
00000360: b45d 79bc 108a 563c 5589 9ebc 28cf 1f3c
00000370: b915 b9bc 1b42 8a3c db03 79bc df1d b43c
00000380: f067 8e3c fca3 c0bb 75fc 993b 13e3 97bb
00000390: d592 2c3c 32af 66ba 3254 5dba 41d1 b0bc
000003a0: ede6 75bc a327 123c bc51 febb 0239 8f3b
000003b0: 4035 5ebc 7d6e a33b 2a0d 11bc 2dae b63c
000003c0: 78f7 e8bb d0f5 44bb 7a30 743b bf32 9aba
000003d0: a1c9 a2ba a3fa 04bc 86ee d43b fce7 283c
000003e0: c924 3bbc 7177 443c 34ca 93bc 7340 293c
000003f0: d512 63bc 1387 963c f430 b1bc 7431 7f3c

base_model.model.classify.weight f4 [9, 768]
-0.0011280566 -0.024226336 -0.0067939353 0.0186608 -0.028404085 -0.041736413 0.025199743 0.04247077
-0.013098646 0.02587434 -0.043711443 0.051814348 -0.003757651 -0.005103173 -0.028420221 0.055817433
0.0649847 0.05435818 -0.006085438 -0.0051442897 0.028938262 0.027097011 0.008371423 0.01207478
0.014792277 0.01068146 0.025194315 0.037345897 0.037992682 0.075603455 -0.04768404 -0.014094015
-0.027040051 -0.014976485 -0.019440703 0.0017545337 0.023267195 0.056711383 0.004575056 -0.016649453
-0.022769053 -0.01914857 -0.04717214 0.05690752 0.048881605 0.0037523885 0.030977588 0.01931536
0.00787862 0.062144782 0.011939943 -0.0076395487 0.0084058205 0.00806283 -0.029003153 0.03404895
-0.002949392 0.011028162 0.029129444 0.019696288 -0.021636242 0.0032677085 0.0330417 -0.0024080563
0.012963972 -0.009074416 -0.069271035 -0.0033152706 -0.01108622 0.028822219 0.016685354 -0.023513932
0.024304846 -0.005144835 -0.0074510556 0.038874313 0.020364385 0.01956005 0.021750867 0.045235995
0.0014669625 0.018894268 0.011734006 0.018744105 0.019017447 0.038244087 0.04578449 0.0039718985
0.002221615 -0.014347552 0.022431457 0.0063761286 0.023074426 -0.014424823 -0.049987867 0.030342191
0.013547703 0.030944929 -0.0062101306 0.018712835 0.0024356244 0.013893218 -0.010022906 -0.028383637
-0.016710509 0.012869083 0.04298814 -0.019453883 0.02285321 0.030583149 -0.035834666 0.004550478
-0.007032929 -0.006703978 0.054505136 0.0335997 0.022181744 0.06141359 0.012724092 -0.01716555
-0.018623961 -0.016988354 -0.07902059 0.03508319 -0.038664646 -0.024262391 0.047485977 -0.045310844
0.008377955 -0.019307109 0.035111405 -0.0052704834 -0.033162028 -0.02138253 0.010451724 -0.036282297
0.042416908 -0.061830167 0.030238057 -0.010094459 -0.0013617104 -0.03200099 -0.06318362 0.022784948
0.039716687 -0.0009381581 -0.055553705 -0.023581153 0.02781181 -0.011896446 -0.0032070526 0.0046145637
0.0020088586 0.0071516857 0.0069414903 -0.033259906 0.01562854 -0.006906304 0.0057043117 0.010896131
-0.030421056 0.005620496 0.036474947 0.021241965 -0.008338693 0.04866143 0.0026749002 -0.00043624974
0.019872572 -0.016934209 -0.0010797798 -0.0064325416 0.04066015 -0.01564366 -0.011244102 0.0007478465
0.015432951 -0.03596994 0.00024003189 0.013207455 0.006876593 -0.038742743 -0.020829448 -0.030591503
-0.003853342 -0.017589673 0.0275443 -0.00021271325 0.012122669 0.02241301 0.047075264 0.034352314
-0.022682676 0.002053026 -0.057205416 0.04154193 -0.01265101 0.035577454 -0.016288636 -0.024306683
0.03181555 0.03476248 -0.003556659 0.031429723 0.016083697 -0.005564148 -0.055102453 0.008345977
0.013410622 0.042915702 -0.03299155 -0.019675024 -0.0046973797 -0.061451066 0.0002251382 0.027681606
-0.011326626 0.017531954 0.020390024 -0.025587102 0.037399355 -0.051221218 -0.032287013 0.028392013
-0.022495016 0.037006766 -0.012952377 -0.03290313 -0.03720273 -0.034859706 -0.022834567 0.018638972
-0.0072241514 -0.031206861 0.0020714053 -0.0032165372 0.039320733 -0.022154842 0.07031188 0.008052782
-0.051598065 0.006523275 -0.048609927 -0.017006474 0.0067457426 0.0056677116 0.022156393 -0.07006727
0.025475258 -0.0152356075 -0.06303787 0.009252996 0.040991206 -0.03602045 0.016717467 -0.047568325
00000000: 4cdb 93ba 4f76 c6bc a99f debb 89de 983c
00000010: afaf e8bc cdf3 2abd b16f ce3c d5f5 2d3d
00000020: b49b 56bc 6df6 d33c c50a 33bd 483b 543d
00000030: ec42 76bb 8538 a7bb 86d1 e8bc d2a0 643d
00000040: b316 853d afa6 5e3d 5b68 c7bb 6e91 a8bb
00000050: ef0f ed3c 8dfa dd3c 4b28 093c 4cd5 453c
00000060: 4e5b 723c 4a01 2f3c 4f64 ce3c 03f8 183d
00000070: 379e 1b3d fcd5 9a3d 5750 43bd 95ea 66bc
00000080: 1983 ddbc ee5f 75bc 1c42 9fbc 62f8 e53a
00000090: d89a be3c 324a 683d 5aea 953b 6f64 88bc
000000a0: 2a86 babc 76dd 9cbc 9337 41bd dc17 693d
000000b0: 1438 483d a2ea 753b b6c4 fd3c 3f3b 9e3c
000000c0: 5415 013c 878b 7e3d c09f 433c 2e55 fabb
000000d0: 91b8 093c f619 043c 0598 edbc e976 0b3d
000000e0: 964a 41bb 77af 343c dfa0 ee3c 1c5a a13c
000000f0: 7d3e b1bc 0d27 563b bc56 073d 7bd0 1dbb
00000100: d766 543c dcac 14bc f9dd 8dbd 0345 59bb
00000110: faa2 35bc 931c ec3c b9af 883c 4aa0 c0bc
00000120: f51a c73c 0196 a8bb fc27 f4bb ac3a 1f3d
00000130: 36d3 a63c 663c a03c e02e b23c 6149 393d
00000140: 1847 c03a 27c8 9a3c fd3f 403c 3d8d 993c
00000150: 7aca 9b3c d5a5 1c3d 8488 3b3d b326 823b
00000160: 8498 113b ff11 6bbc 2dc2 b73c d8ee d03b
00000170: 9406 bd3c 1856 6cbc 14c0 4cbd 3090 f83c
00000180: 2ff7 5d3c 3880 fd3c 5a7e cbbb a94b 993c
00000190: ff9e 1f3b 61a0 633c 1d37 24bc cd84 e8bc
000001a0: 7ae4 88bc d9d8 523c 5514 303d c05d 9fbc
000001b0: a836 bb3c 8389 fa3c 5fc7 12bd 2d1c 953b
000001c0: 7c74 e6bb 0bad dbbb c740 5f3d d79f 093d
000001d0: 7db6 b53c d18c 7b3d b678 503c c49e 8cbc
000001e0: 4791 98bc 292b 8bbc 8cd5 a1bd 64b3 0f3d
000001f0: d25e 1ebd ecc1 c6bc a880 423d dd97 39bd
00000200: b143 093c f129 9ebc fad0 0f3d 05b4 acbb
00000210: e8d4 07bd 6a2a afbc b53d 2b3c bf9c 14bd
00000220: 5abd 2d3d a141 7dbd cdb5 f73c 3b63 25bc
00000230: 6b7b b2ba 7813 03bd 6a66 81bd 80a7 ba3c
00000240: f7ad 223d b9ee 75ba 488c 63bd 432d c1bc
00000250: 98d5 e33c 50e9 42bc 6a2d 52bb c435 973b
00000260: 0ea7 033b b058 ea3b 7175 e33b 8a3b 08bd
00000270: 6d07 803c 474e e2bb 3ceb ba3b b085 323c
00000280: 9435 f9bc 232c b83b c166 153d a103 ae3c
00000290: 039f 08bc 3551 473d 614d 2f3b 73b8 e4b9
000002a0: cecb a23c 9cb9 8abc 6687 8dba 12c8 d2bb
000002b0: 428b 263d 2227 80bc 2f39 38bc 210b 443a
000002c0: 7dda 7c3c 3755 13bd 12b1 7b39 1564 583c
000002d0: 0b55 e13b b6b0 1ebd 85a2 aabc 089b fabc
000002e0: 5a88 7cbb 3818 90bc 95a4 e13c c70b 5fb9
000002f0: 299e 463c 7d9b b73c fed1 403d 03b5 0c3d
00000300: 05d1 b9bc 108c 063b 3a50 6abd df27 2a3d
00000310: 2f46 4fbc aab9 113d bf6f 85bc cf1e c7bc
00000320: 0651 023d 1a63 0e3d d616 69bb 74bc 003d
00000330: f5c1 833c 7553 b6bb 1cb3 61bd 91bd 083c
00000340: 3ab8 5b3c 60c8 2f3d 2622 07bd 842d a1bc
00000350: 7aec 99bb 1db4 7bbd 1313 6c39 89c4 e23c
00000360: 5093 39bc 2c9f 8f3c fb08 a73c 0b9c d1bc
00000370: 1130 193d 57cd 51bd 633f 04bd 5e96 e83c
00000380: 7847 b8bc 6894 173d 3536 54bc 6fc5 06bd
00000390: e461 18bd 0dc9 0ebd 8f0f bbbc c2b0 983c
000003a0: 93b8 ecbb 88a5 ffbc 6ac0 073b 8acc 52bb
000003b0: c70e 213d 127e b5bc adff 8f3d d1ef 033c
000003c0: 7e58 53bd 32c1 d53b 341b 47bd 2951 8bbc
000003d0: 640b dd3b 36b8 b93b 5381 b53c 6e7f 8fbd
000003e0: 7db1 d03c c59e 79bc 001a 81bd e199 173c
000003f0: 65e6 273d 2e8a 13bd 12f3 883c 01d7 42bd

base_model.model.classify.bias f4 [9]
-0.027714258 -0.041863624 -0.012380278 0.014516577 0.023562584 0.019431062 -0.024429012 0.012893617
-0.013370832
00000000: 0309 e3bc 3179 2bbd a6d6 4abc f0d6 6d3c
00000010: 5206 c13c e42d 9f3c 5a1f c8bc c03f 533c
00000020: 5611 5bbc
